{
  "layers" : [
    {
      "axis_h" : 0,
      "axis_w" : 2,
      "bottom" : "input_images",
      "axis_k" : 1,
      "axis_n" : 3,
      "axis_seq" : 4,
      "weights" : {

      },
      "debug_info" : "transpose_323",
      "top" : "transpose_323",
      "type" : "transpose",
      "name" : "transpose_323"
    },
    {
      "bottom" : "transpose_323",
      "end" : 448,
      "start" : 0,
      "weights" : {

      },
      "axis" : 2,
      "debug_info" : "model_5\/lambda_16\/strided_slice",
      "top" : "model_5\/lambda_16\/strided_slice",
      "type" : "slice",
      "name" : "model_5\/lambda_16\/strided_slice"
    },
    {
      "bottom" : "transpose_323",
      "end" : 896,
      "start" : 448,
      "weights" : {

      },
      "axis" : 2,
      "debug_info" : "model_5\/lambda_17\/strided_slice",
      "top" : "model_5\/lambda_17\/strided_slice",
      "type" : "slice",
      "name" : "model_5\/lambda_17\/strided_slice"
    },
    {
      "bottom" : "model_5\/lambda_16\/strided_slice",
      "alpha" : 0.0039215688593685627,
      "operation" : 1,
      "weights" : {

      },
      "fused_relu" : 0,
      "debug_info" : "model_5\/rescaling_16\/mul",
      "top" : "model_5\/rescaling_16\/mul",
      "type" : "elementwise",
      "name" : "model_5\/rescaling_16\/mul",
      "beta" : 0
    },
    {
      "bottom" : "model_5\/lambda_17\/strided_slice",
      "alpha" : 0.0039215688593685627,
      "operation" : 1,
      "weights" : {

      },
      "fused_relu" : 0,
      "debug_info" : "model_5\/rescaling_17\/mul",
      "top" : "model_5\/rescaling_17\/mul",
      "type" : "elementwise",
      "name" : "model_5\/rescaling_17\/mul",
      "beta" : 0
    },
    {
      "axis_h" : 2,
      "axis_w" : 1,
      "bottom" : "model_5\/rescaling_16\/mul",
      "axis_k" : 0,
      "axis_n" : 3,
      "axis_seq" : 4,
      "weights" : {

      },
      "debug_info" : "transpose_322",
      "top" : "transpose_322",
      "type" : "transpose",
      "name" : "transpose_322"
    },
    {
      "pad_r" : 3,
      "fused_relu" : 1,
      "fused_tanh" : 0,
      "debug_info" : "model_5\/model_1\/model\/conv1_bn\/FusedBatchNormV3_nchw",
      "pad_fill_mode" : 0,
      "pad_b" : 3,
      "pad_l" : 3,
      "top" : "model_5\/model_1\/model\/conv1_relu\/Relu",
      "blob_weights" : 3,
      "K" : 3,
      "blob_biases" : 1,
      "stride_x" : 2,
      "name" : "model_5\/model_1\/model\/conv1_bn\/FusedBatchNormV3_nchw",
      "has_batch_norm" : 0,
      "type" : "convolution",
      "n_groups" : 1,
      "pad_t" : 3,
      "stride_y" : 2,
      "has_biases" : 1,
      "C" : 64,
      "bottom" : "transpose_322",
      "weights" : {

      },
      "Nx" : 7,
      "pad_mode" : 0,
      "pad_value" : 0,
      "Ny" : 7,
      "n_parallel" : 1
    },
    {
      "axis_h" : 2,
      "axis_w" : 1,
      "bottom" : "model_5\/rescaling_17\/mul",
      "axis_k" : 0,
      "axis_n" : 3,
      "axis_seq" : 4,
      "weights" : {

      },
      "debug_info" : "transpose_321",
      "top" : "transpose_321",
      "type" : "transpose",
      "name" : "transpose_321"
    },
    {
      "pad_r" : 3,
      "fused_relu" : 1,
      "fused_tanh" : 0,
      "debug_info" : "model_5\/model_1\/model\/conv1_bn\/FusedBatchNormV3_1_nchw",
      "pad_fill_mode" : 0,
      "pad_b" : 3,
      "pad_l" : 3,
      "top" : "model_5\/model_1\/model\/conv1_relu\/Relu_1",
      "blob_weights" : 7,
      "K" : 3,
      "blob_biases" : 5,
      "stride_x" : 2,
      "name" : "model_5\/model_1\/model\/conv1_bn\/FusedBatchNormV3_1_nchw",
      "has_batch_norm" : 0,
      "type" : "convolution",
      "n_groups" : 1,
      "pad_t" : 3,
      "stride_y" : 2,
      "has_biases" : 1,
      "C" : 64,
      "bottom" : "transpose_321",
      "weights" : {

      },
      "Nx" : 7,
      "pad_mode" : 0,
      "pad_value" : 0,
      "Ny" : 7,
      "n_parallel" : 1
    },
    {
      "pad_r" : 1,
      "debug_info" : "max_pool_0",
      "pad_fill_mode" : 0,
      "pad_b" : 1,
      "pad_l" : 1,
      "size_x" : 3,
      "top" : "max_pool_0",
      "top_shape_style" : 0,
      "stride_x" : 2,
      "avg_or_max" : 1,
      "average_count_exclude_padding" : 0,
      "type" : "pool",
      "name" : "max_pool_0",
      "pad_t" : 1,
      "stride_y" : 2,
      "bottom" : "model_5\/model_1\/model\/conv1_relu\/Relu",
      "weights" : {

      },
      "pad_mode" : 0,
      "size_y" : 3,
      "pad_value" : 0
    },
    {
      "pad_r" : 1,
      "debug_info" : "max_pool_1",
      "pad_fill_mode" : 0,
      "pad_b" : 1,
      "pad_l" : 1,
      "size_x" : 3,
      "top" : "max_pool_1",
      "top_shape_style" : 0,
      "stride_x" : 2,
      "avg_or_max" : 1,
      "average_count_exclude_padding" : 0,
      "type" : "pool",
      "name" : "max_pool_1",
      "pad_t" : 1,
      "stride_y" : 2,
      "bottom" : "model_5\/model_1\/model\/conv1_relu\/Relu_1",
      "weights" : {

      },
      "pad_mode" : 0,
      "size_y" : 3,
      "pad_value" : 0
    },
    {
      "pad_r" : 0,
      "fused_relu" : 0,
      "fused_tanh" : 0,
      "debug_info" : "model_5\/model_1\/model\/conv2_block1_0_bn\/FusedBatchNormV3_nchw",
      "pad_fill_mode" : 0,
      "pad_b" : 0,
      "pad_l" : 0,
      "top" : "model_5\/model_1\/model\/conv2_block1_0_bn\/FusedBatchNormV3_nchw",
      "blob_weights" : 11,
      "K" : 64,
      "blob_biases" : 9,
      "name" : "model_5\/model_1\/model\/conv2_block1_0_bn\/FusedBatchNormV3_nchw",
      "has_batch_norm" : 0,
      "type" : "convolution",
      "n_groups" : 1,
      "pad_t" : 0,
      "has_biases" : 1,
      "C" : 256,
      "bottom" : "max_pool_0",
      "weights" : {

      },
      "Nx" : 1,
      "pad_mode" : 0,
      "pad_value" : 0,
      "Ny" : 1,
      "n_parallel" : 1
    },
    {
      "pad_r" : 0,
      "fused_relu" : 1,
      "fused_tanh" : 0,
      "debug_info" : "model_5\/model_1\/model\/conv2_block1_1_bn\/FusedBatchNormV3_nchw",
      "pad_fill_mode" : 0,
      "pad_b" : 0,
      "pad_l" : 0,
      "top" : "model_5\/model_1\/model\/conv2_block1_1_relu\/Relu",
      "blob_weights" : 15,
      "K" : 64,
      "blob_biases" : 13,
      "name" : "model_5\/model_1\/model\/conv2_block1_1_bn\/FusedBatchNormV3_nchw",
      "has_batch_norm" : 0,
      "type" : "convolution",
      "n_groups" : 1,
      "pad_t" : 0,
      "has_biases" : 1,
      "C" : 64,
      "bottom" : "max_pool_0",
      "weights" : {

      },
      "Nx" : 1,
      "pad_mode" : 0,
      "pad_value" : 0,
      "Ny" : 1,
      "n_parallel" : 1
    },
    {
      "pad_r" : 0,
      "fused_relu" : 0,
      "fused_tanh" : 0,
      "debug_info" : "model_5\/model_1\/model\/conv2_block1_0_bn\/FusedBatchNormV3_1_nchw",
      "pad_fill_mode" : 0,
      "pad_b" : 0,
      "pad_l" : 0,
      "top" : "model_5\/model_1\/model\/conv2_block1_0_bn\/FusedBatchNormV3_1_nchw",
      "blob_weights" : 19,
      "K" : 64,
      "blob_biases" : 17,
      "name" : "model_5\/model_1\/model\/conv2_block1_0_bn\/FusedBatchNormV3_1_nchw",
      "has_batch_norm" : 0,
      "type" : "convolution",
      "n_groups" : 1,
      "pad_t" : 0,
      "has_biases" : 1,
      "C" : 256,
      "bottom" : "max_pool_1",
      "weights" : {

      },
      "Nx" : 1,
      "pad_mode" : 0,
      "pad_value" : 0,
      "Ny" : 1,
      "n_parallel" : 1
    },
    {
      "pad_r" : 0,
      "fused_relu" : 1,
      "fused_tanh" : 0,
      "debug_info" : "model_5\/model_1\/model\/conv2_block1_1_bn\/FusedBatchNormV3_1_nchw",
      "pad_fill_mode" : 0,
      "pad_b" : 0,
      "pad_l" : 0,
      "top" : "model_5\/model_1\/model\/conv2_block1_1_relu\/Relu_1",
      "blob_weights" : 23,
      "K" : 64,
      "blob_biases" : 21,
      "name" : "model_5\/model_1\/model\/conv2_block1_1_bn\/FusedBatchNormV3_1_nchw",
      "has_batch_norm" : 0,
      "type" : "convolution",
      "n_groups" : 1,
      "pad_t" : 0,
      "has_biases" : 1,
      "C" : 64,
      "bottom" : "max_pool_1",
      "weights" : {

      },
      "Nx" : 1,
      "pad_mode" : 0,
      "pad_value" : 0,
      "Ny" : 1,
      "n_parallel" : 1
    },
    {
      "pad_r" : 0,
      "fused_relu" : 1,
      "fused_tanh" : 0,
      "debug_info" : "model_5\/model_1\/model\/conv2_block1_2_bn\/FusedBatchNormV3_nchw",
      "pad_fill_mode" : 0,
      "pad_b" : 0,
      "pad_l" : 0,
      "top" : "model_5\/model_1\/model\/conv2_block1_2_relu\/Relu",
      "blob_weights" : 27,
      "K" : 64,
      "blob_biases" : 25,
      "name" : "model_5\/model_1\/model\/conv2_block1_2_bn\/FusedBatchNormV3_nchw",
      "has_batch_norm" : 0,
      "type" : "convolution",
      "n_groups" : 1,
      "pad_t" : 0,
      "has_biases" : 1,
      "C" : 64,
      "bottom" : "model_5\/model_1\/model\/conv2_block1_1_relu\/Relu",
      "weights" : {

      },
      "Nx" : 3,
      "pad_mode" : 1,
      "pad_value" : 0,
      "Ny" : 3,
      "n_parallel" : 1
    },
    {
      "pad_r" : 0,
      "fused_relu" : 1,
      "fused_tanh" : 0,
      "debug_info" : "model_5\/model_1\/model\/conv2_block1_2_bn\/FusedBatchNormV3_1_nchw",
      "pad_fill_mode" : 0,
      "pad_b" : 0,
      "pad_l" : 0,
      "top" : "model_5\/model_1\/model\/conv2_block1_2_relu\/Relu_1",
      "blob_weights" : 31,
      "K" : 64,
      "blob_biases" : 29,
      "name" : "model_5\/model_1\/model\/conv2_block1_2_bn\/FusedBatchNormV3_1_nchw",
      "has_batch_norm" : 0,
      "type" : "convolution",
      "n_groups" : 1,
      "pad_t" : 0,
      "has_biases" : 1,
      "C" : 64,
      "bottom" : "model_5\/model_1\/model\/conv2_block1_1_relu\/Relu_1",
      "weights" : {

      },
      "Nx" : 3,
      "pad_mode" : 1,
      "pad_value" : 0,
      "Ny" : 3,
      "n_parallel" : 1
    },
    {
      "pad_r" : 0,
      "fused_relu" : 0,
      "fused_tanh" : 0,
      "debug_info" : "model_5\/model_1\/model\/conv2_block1_3_bn\/FusedBatchNormV3_nchw",
      "pad_fill_mode" : 0,
      "pad_b" : 0,
      "pad_l" : 0,
      "top" : "model_5\/model_1\/model\/conv2_block1_3_bn\/FusedBatchNormV3_nchw",
      "blob_weights" : 35,
      "K" : 64,
      "blob_biases" : 33,
      "name" : "model_5\/model_1\/model\/conv2_block1_3_bn\/FusedBatchNormV3_nchw",
      "has_batch_norm" : 0,
      "type" : "convolution",
      "n_groups" : 1,
      "pad_t" : 0,
      "has_biases" : 1,
      "C" : 256,
      "bottom" : "model_5\/model_1\/model\/conv2_block1_2_relu\/Relu",
      "weights" : {

      },
      "Nx" : 1,
      "pad_mode" : 0,
      "pad_value" : 0,
      "Ny" : 1,
      "n_parallel" : 1
    },
    {
      "pad_r" : 0,
      "fused_relu" : 0,
      "fused_tanh" : 0,
      "debug_info" : "model_5\/model_1\/model\/conv2_block1_3_bn\/FusedBatchNormV3_1_nchw",
      "pad_fill_mode" : 0,
      "pad_b" : 0,
      "pad_l" : 0,
      "top" : "model_5\/model_1\/model\/conv2_block1_3_bn\/FusedBatchNormV3_1_nchw",
      "blob_weights" : 39,
      "K" : 64,
      "blob_biases" : 37,
      "name" : "model_5\/model_1\/model\/conv2_block1_3_bn\/FusedBatchNormV3_1_nchw",
      "has_batch_norm" : 0,
      "type" : "convolution",
      "n_groups" : 1,
      "pad_t" : 0,
      "has_biases" : 1,
      "C" : 256,
      "bottom" : "model_5\/model_1\/model\/conv2_block1_2_relu\/Relu_1",
      "weights" : {

      },
      "Nx" : 1,
      "pad_mode" : 0,
      "pad_value" : 0,
      "Ny" : 1,
      "n_parallel" : 1
    },
    {
      "bottom" : "model_5\/model_1\/model\/conv2_block1_0_bn\/FusedBatchNormV3_nchw,model_5\/model_1\/model\/conv2_block1_3_bn\/FusedBatchNormV3_nchw",
      "alpha" : 1,
      "operation" : 0,
      "weights" : {

      },
      "fused_relu" : 0,
      "debug_info" : "model_5\/model_1\/model\/conv2_block1_add\/add",
      "top" : "model_5\/model_1\/model\/conv2_block1_add\/add",
      "type" : "elementwise",
      "name" : "model_5\/model_1\/model\/conv2_block1_add\/add",
      "beta" : 0
    },
    {
      "bottom" : "model_5\/model_1\/model\/conv2_block1_0_bn\/FusedBatchNormV3_1_nchw,model_5\/model_1\/model\/conv2_block1_3_bn\/FusedBatchNormV3_1_nchw",
      "alpha" : 1,
      "operation" : 0,
      "weights" : {

      },
      "fused_relu" : 0,
      "debug_info" : "model_5\/model_1\/model\/conv2_block1_add\/add_1",
      "top" : "model_5\/model_1\/model\/conv2_block1_add\/add_1",
      "type" : "elementwise",
      "name" : "model_5\/model_1\/model\/conv2_block1_add\/add_1",
      "beta" : 0
    },
    {
      "bottom" : "model_5\/model_1\/model\/conv2_block1_add\/add",
      "weights" : {

      },
      "mode" : 0,
      "debug_info" : "model_5\/model_1\/model\/conv2_block1_out\/Relu",
      "top" : "model_5\/model_1\/model\/conv2_block1_out\/Relu",
      "type" : "activation",
      "name" : "model_5\/model_1\/model\/conv2_block1_out\/Relu"
    },
    {
      "bottom" : "model_5\/model_1\/model\/conv2_block1_add\/add_1",
      "weights" : {

      },
      "mode" : 0,
      "debug_info" : "model_5\/model_1\/model\/conv2_block1_out\/Relu_1",
      "top" : "model_5\/model_1\/model\/conv2_block1_out\/Relu_1",
      "type" : "activation",
      "name" : "model_5\/model_1\/model\/conv2_block1_out\/Relu_1"
    },
    {
      "pad_r" : 0,
      "fused_relu" : 1,
      "fused_tanh" : 0,
      "debug_info" : "model_5\/model_1\/model\/conv2_block2_1_bn\/FusedBatchNormV3_nchw",
      "pad_fill_mode" : 0,
      "pad_b" : 0,
      "pad_l" : 0,
      "top" : "model_5\/model_1\/model\/conv2_block2_1_relu\/Relu",
      "blob_weights" : 43,
      "K" : 256,
      "blob_biases" : 41,
      "name" : "model_5\/model_1\/model\/conv2_block2_1_bn\/FusedBatchNormV3_nchw",
      "has_batch_norm" : 0,
      "type" : "convolution",
      "n_groups" : 1,
      "pad_t" : 0,
      "has_biases" : 1,
      "C" : 64,
      "bottom" : "model_5\/model_1\/model\/conv2_block1_out\/Relu",
      "weights" : {

      },
      "Nx" : 1,
      "pad_mode" : 0,
      "pad_value" : 0,
      "Ny" : 1,
      "n_parallel" : 1
    },
    {
      "pad_r" : 0,
      "fused_relu" : 1,
      "fused_tanh" : 0,
      "debug_info" : "model_5\/model_1\/model\/conv2_block2_1_bn\/FusedBatchNormV3_1_nchw",
      "pad_fill_mode" : 0,
      "pad_b" : 0,
      "pad_l" : 0,
      "top" : "model_5\/model_1\/model\/conv2_block2_1_relu\/Relu_1",
      "blob_weights" : 47,
      "K" : 256,
      "blob_biases" : 45,
      "name" : "model_5\/model_1\/model\/conv2_block2_1_bn\/FusedBatchNormV3_1_nchw",
      "has_batch_norm" : 0,
      "type" : "convolution",
      "n_groups" : 1,
      "pad_t" : 0,
      "has_biases" : 1,
      "C" : 64,
      "bottom" : "model_5\/model_1\/model\/conv2_block1_out\/Relu_1",
      "weights" : {

      },
      "Nx" : 1,
      "pad_mode" : 0,
      "pad_value" : 0,
      "Ny" : 1,
      "n_parallel" : 1
    },
    {
      "pad_r" : 0,
      "fused_relu" : 1,
      "fused_tanh" : 0,
      "debug_info" : "model_5\/model_1\/model\/conv2_block2_2_bn\/FusedBatchNormV3_nchw",
      "pad_fill_mode" : 0,
      "pad_b" : 0,
      "pad_l" : 0,
      "top" : "model_5\/model_1\/model\/conv2_block2_2_relu\/Relu",
      "blob_weights" : 51,
      "K" : 64,
      "blob_biases" : 49,
      "name" : "model_5\/model_1\/model\/conv2_block2_2_bn\/FusedBatchNormV3_nchw",
      "has_batch_norm" : 0,
      "type" : "convolution",
      "n_groups" : 1,
      "pad_t" : 0,
      "has_biases" : 1,
      "C" : 64,
      "bottom" : "model_5\/model_1\/model\/conv2_block2_1_relu\/Relu",
      "weights" : {

      },
      "Nx" : 3,
      "pad_mode" : 1,
      "pad_value" : 0,
      "Ny" : 3,
      "n_parallel" : 1
    },
    {
      "pad_r" : 0,
      "fused_relu" : 1,
      "fused_tanh" : 0,
      "debug_info" : "model_5\/model_1\/model\/conv2_block2_2_bn\/FusedBatchNormV3_1_nchw",
      "pad_fill_mode" : 0,
      "pad_b" : 0,
      "pad_l" : 0,
      "top" : "model_5\/model_1\/model\/conv2_block2_2_relu\/Relu_1",
      "blob_weights" : 55,
      "K" : 64,
      "blob_biases" : 53,
      "name" : "model_5\/model_1\/model\/conv2_block2_2_bn\/FusedBatchNormV3_1_nchw",
      "has_batch_norm" : 0,
      "type" : "convolution",
      "n_groups" : 1,
      "pad_t" : 0,
      "has_biases" : 1,
      "C" : 64,
      "bottom" : "model_5\/model_1\/model\/conv2_block2_1_relu\/Relu_1",
      "weights" : {

      },
      "Nx" : 3,
      "pad_mode" : 1,
      "pad_value" : 0,
      "Ny" : 3,
      "n_parallel" : 1
    },
    {
      "pad_r" : 0,
      "fused_relu" : 0,
      "fused_tanh" : 0,
      "debug_info" : "model_5\/model_1\/model\/conv2_block2_3_bn\/FusedBatchNormV3_nchw",
      "pad_fill_mode" : 0,
      "pad_b" : 0,
      "pad_l" : 0,
      "top" : "model_5\/model_1\/model\/conv2_block2_3_bn\/FusedBatchNormV3_nchw",
      "blob_weights" : 59,
      "K" : 64,
      "blob_biases" : 57,
      "name" : "model_5\/model_1\/model\/conv2_block2_3_bn\/FusedBatchNormV3_nchw",
      "has_batch_norm" : 0,
      "type" : "convolution",
      "n_groups" : 1,
      "pad_t" : 0,
      "has_biases" : 1,
      "C" : 256,
      "bottom" : "model_5\/model_1\/model\/conv2_block2_2_relu\/Relu",
      "weights" : {

      },
      "Nx" : 1,
      "pad_mode" : 0,
      "pad_value" : 0,
      "Ny" : 1,
      "n_parallel" : 1
    },
    {
      "pad_r" : 0,
      "fused_relu" : 0,
      "fused_tanh" : 0,
      "debug_info" : "model_5\/model_1\/model\/conv2_block2_3_bn\/FusedBatchNormV3_1_nchw",
      "pad_fill_mode" : 0,
      "pad_b" : 0,
      "pad_l" : 0,
      "top" : "model_5\/model_1\/model\/conv2_block2_3_bn\/FusedBatchNormV3_1_nchw",
      "blob_weights" : 63,
      "K" : 64,
      "blob_biases" : 61,
      "name" : "model_5\/model_1\/model\/conv2_block2_3_bn\/FusedBatchNormV3_1_nchw",
      "has_batch_norm" : 0,
      "type" : "convolution",
      "n_groups" : 1,
      "pad_t" : 0,
      "has_biases" : 1,
      "C" : 256,
      "bottom" : "model_5\/model_1\/model\/conv2_block2_2_relu\/Relu_1",
      "weights" : {

      },
      "Nx" : 1,
      "pad_mode" : 0,
      "pad_value" : 0,
      "Ny" : 1,
      "n_parallel" : 1
    },
    {
      "bottom" : "model_5\/model_1\/model\/conv2_block1_out\/Relu,model_5\/model_1\/model\/conv2_block2_3_bn\/FusedBatchNormV3_nchw",
      "alpha" : 1,
      "operation" : 0,
      "weights" : {

      },
      "fused_relu" : 0,
      "debug_info" : "model_5\/model_1\/model\/conv2_block2_add\/add",
      "top" : "model_5\/model_1\/model\/conv2_block2_add\/add",
      "type" : "elementwise",
      "name" : "model_5\/model_1\/model\/conv2_block2_add\/add",
      "beta" : 0
    },
    {
      "bottom" : "model_5\/model_1\/model\/conv2_block1_out\/Relu_1,model_5\/model_1\/model\/conv2_block2_3_bn\/FusedBatchNormV3_1_nchw",
      "alpha" : 1,
      "operation" : 0,
      "weights" : {

      },
      "fused_relu" : 0,
      "debug_info" : "model_5\/model_1\/model\/conv2_block2_add\/add_1",
      "top" : "model_5\/model_1\/model\/conv2_block2_add\/add_1",
      "type" : "elementwise",
      "name" : "model_5\/model_1\/model\/conv2_block2_add\/add_1",
      "beta" : 0
    },
    {
      "bottom" : "model_5\/model_1\/model\/conv2_block2_add\/add",
      "weights" : {

      },
      "mode" : 0,
      "debug_info" : "model_5\/model_1\/model\/conv2_block2_out\/Relu",
      "top" : "model_5\/model_1\/model\/conv2_block2_out\/Relu",
      "type" : "activation",
      "name" : "model_5\/model_1\/model\/conv2_block2_out\/Relu"
    },
    {
      "bottom" : "model_5\/model_1\/model\/conv2_block2_add\/add_1",
      "weights" : {

      },
      "mode" : 0,
      "debug_info" : "model_5\/model_1\/model\/conv2_block2_out\/Relu_1",
      "top" : "model_5\/model_1\/model\/conv2_block2_out\/Relu_1",
      "type" : "activation",
      "name" : "model_5\/model_1\/model\/conv2_block2_out\/Relu_1"
    },
    {
      "pad_r" : 0,
      "fused_relu" : 1,
      "fused_tanh" : 0,
      "debug_info" : "model_5\/model_1\/model\/conv2_block3_1_bn\/FusedBatchNormV3_nchw",
      "pad_fill_mode" : 0,
      "pad_b" : 0,
      "pad_l" : 0,
      "top" : "model_5\/model_1\/model\/conv2_block3_1_relu\/Relu",
      "blob_weights" : 67,
      "K" : 256,
      "blob_biases" : 65,
      "name" : "model_5\/model_1\/model\/conv2_block3_1_bn\/FusedBatchNormV3_nchw",
      "has_batch_norm" : 0,
      "type" : "convolution",
      "n_groups" : 1,
      "pad_t" : 0,
      "has_biases" : 1,
      "C" : 64,
      "bottom" : "model_5\/model_1\/model\/conv2_block2_out\/Relu",
      "weights" : {

      },
      "Nx" : 1,
      "pad_mode" : 0,
      "pad_value" : 0,
      "Ny" : 1,
      "n_parallel" : 1
    },
    {
      "pad_r" : 0,
      "fused_relu" : 1,
      "fused_tanh" : 0,
      "debug_info" : "model_5\/model_1\/model\/conv2_block3_1_bn\/FusedBatchNormV3_1_nchw",
      "pad_fill_mode" : 0,
      "pad_b" : 0,
      "pad_l" : 0,
      "top" : "model_5\/model_1\/model\/conv2_block3_1_relu\/Relu_1",
      "blob_weights" : 71,
      "K" : 256,
      "blob_biases" : 69,
      "name" : "model_5\/model_1\/model\/conv2_block3_1_bn\/FusedBatchNormV3_1_nchw",
      "has_batch_norm" : 0,
      "type" : "convolution",
      "n_groups" : 1,
      "pad_t" : 0,
      "has_biases" : 1,
      "C" : 64,
      "bottom" : "model_5\/model_1\/model\/conv2_block2_out\/Relu_1",
      "weights" : {

      },
      "Nx" : 1,
      "pad_mode" : 0,
      "pad_value" : 0,
      "Ny" : 1,
      "n_parallel" : 1
    },
    {
      "pad_r" : 0,
      "fused_relu" : 1,
      "fused_tanh" : 0,
      "debug_info" : "model_5\/model_1\/model\/conv2_block3_2_bn\/FusedBatchNormV3_nchw",
      "pad_fill_mode" : 0,
      "pad_b" : 0,
      "pad_l" : 0,
      "top" : "model_5\/model_1\/model\/conv2_block3_2_relu\/Relu",
      "blob_weights" : 75,
      "K" : 64,
      "blob_biases" : 73,
      "name" : "model_5\/model_1\/model\/conv2_block3_2_bn\/FusedBatchNormV3_nchw",
      "has_batch_norm" : 0,
      "type" : "convolution",
      "n_groups" : 1,
      "pad_t" : 0,
      "has_biases" : 1,
      "C" : 64,
      "bottom" : "model_5\/model_1\/model\/conv2_block3_1_relu\/Relu",
      "weights" : {

      },
      "Nx" : 3,
      "pad_mode" : 1,
      "pad_value" : 0,
      "Ny" : 3,
      "n_parallel" : 1
    },
    {
      "pad_r" : 0,
      "fused_relu" : 1,
      "fused_tanh" : 0,
      "debug_info" : "model_5\/model_1\/model\/conv2_block3_2_bn\/FusedBatchNormV3_1_nchw",
      "pad_fill_mode" : 0,
      "pad_b" : 0,
      "pad_l" : 0,
      "top" : "model_5\/model_1\/model\/conv2_block3_2_relu\/Relu_1",
      "blob_weights" : 79,
      "K" : 64,
      "blob_biases" : 77,
      "name" : "model_5\/model_1\/model\/conv2_block3_2_bn\/FusedBatchNormV3_1_nchw",
      "has_batch_norm" : 0,
      "type" : "convolution",
      "n_groups" : 1,
      "pad_t" : 0,
      "has_biases" : 1,
      "C" : 64,
      "bottom" : "model_5\/model_1\/model\/conv2_block3_1_relu\/Relu_1",
      "weights" : {

      },
      "Nx" : 3,
      "pad_mode" : 1,
      "pad_value" : 0,
      "Ny" : 3,
      "n_parallel" : 1
    },
    {
      "pad_r" : 0,
      "fused_relu" : 0,
      "fused_tanh" : 0,
      "debug_info" : "model_5\/model_1\/model\/conv2_block3_3_bn\/FusedBatchNormV3_nchw",
      "pad_fill_mode" : 0,
      "pad_b" : 0,
      "pad_l" : 0,
      "top" : "model_5\/model_1\/model\/conv2_block3_3_bn\/FusedBatchNormV3_nchw",
      "blob_weights" : 83,
      "K" : 64,
      "blob_biases" : 81,
      "name" : "model_5\/model_1\/model\/conv2_block3_3_bn\/FusedBatchNormV3_nchw",
      "has_batch_norm" : 0,
      "type" : "convolution",
      "n_groups" : 1,
      "pad_t" : 0,
      "has_biases" : 1,
      "C" : 256,
      "bottom" : "model_5\/model_1\/model\/conv2_block3_2_relu\/Relu",
      "weights" : {

      },
      "Nx" : 1,
      "pad_mode" : 0,
      "pad_value" : 0,
      "Ny" : 1,
      "n_parallel" : 1
    },
    {
      "pad_r" : 0,
      "fused_relu" : 0,
      "fused_tanh" : 0,
      "debug_info" : "model_5\/model_1\/model\/conv2_block3_3_bn\/FusedBatchNormV3_1_nchw",
      "pad_fill_mode" : 0,
      "pad_b" : 0,
      "pad_l" : 0,
      "top" : "model_5\/model_1\/model\/conv2_block3_3_bn\/FusedBatchNormV3_1_nchw",
      "blob_weights" : 87,
      "K" : 64,
      "blob_biases" : 85,
      "name" : "model_5\/model_1\/model\/conv2_block3_3_bn\/FusedBatchNormV3_1_nchw",
      "has_batch_norm" : 0,
      "type" : "convolution",
      "n_groups" : 1,
      "pad_t" : 0,
      "has_biases" : 1,
      "C" : 256,
      "bottom" : "model_5\/model_1\/model\/conv2_block3_2_relu\/Relu_1",
      "weights" : {

      },
      "Nx" : 1,
      "pad_mode" : 0,
      "pad_value" : 0,
      "Ny" : 1,
      "n_parallel" : 1
    },
    {
      "bottom" : "model_5\/model_1\/model\/conv2_block2_out\/Relu,model_5\/model_1\/model\/conv2_block3_3_bn\/FusedBatchNormV3_nchw",
      "alpha" : 1,
      "operation" : 0,
      "weights" : {

      },
      "fused_relu" : 0,
      "debug_info" : "model_5\/model_1\/model\/conv2_block3_add\/add",
      "top" : "model_5\/model_1\/model\/conv2_block3_add\/add",
      "type" : "elementwise",
      "name" : "model_5\/model_1\/model\/conv2_block3_add\/add",
      "beta" : 0
    },
    {
      "bottom" : "model_5\/model_1\/model\/conv2_block2_out\/Relu_1,model_5\/model_1\/model\/conv2_block3_3_bn\/FusedBatchNormV3_1_nchw",
      "alpha" : 1,
      "operation" : 0,
      "weights" : {

      },
      "fused_relu" : 0,
      "debug_info" : "model_5\/model_1\/model\/conv2_block3_add\/add_1",
      "top" : "model_5\/model_1\/model\/conv2_block3_add\/add_1",
      "type" : "elementwise",
      "name" : "model_5\/model_1\/model\/conv2_block3_add\/add_1",
      "beta" : 0
    },
    {
      "bottom" : "model_5\/model_1\/model\/conv2_block3_add\/add",
      "weights" : {

      },
      "mode" : 0,
      "debug_info" : "model_5\/model_1\/model\/conv2_block3_out\/Relu",
      "top" : "model_5\/model_1\/model\/conv2_block3_out\/Relu",
      "type" : "activation",
      "name" : "model_5\/model_1\/model\/conv2_block3_out\/Relu"
    },
    {
      "bottom" : "model_5\/model_1\/model\/conv2_block3_add\/add_1",
      "weights" : {

      },
      "mode" : 0,
      "debug_info" : "model_5\/model_1\/model\/conv2_block3_out\/Relu_1",
      "top" : "model_5\/model_1\/model\/conv2_block3_out\/Relu_1",
      "type" : "activation",
      "name" : "model_5\/model_1\/model\/conv2_block3_out\/Relu_1"
    },
    {
      "pad_r" : 0,
      "fused_relu" : 0,
      "fused_tanh" : 0,
      "debug_info" : "model_5\/model_1\/model\/conv3_block1_0_bn\/FusedBatchNormV3_nchw",
      "pad_fill_mode" : 0,
      "pad_b" : 0,
      "pad_l" : 0,
      "top" : "model_5\/model_1\/model\/conv3_block1_0_bn\/FusedBatchNormV3_nchw",
      "blob_weights" : 91,
      "K" : 256,
      "blob_biases" : 89,
      "stride_x" : 2,
      "name" : "model_5\/model_1\/model\/conv3_block1_0_bn\/FusedBatchNormV3_nchw",
      "has_batch_norm" : 0,
      "type" : "convolution",
      "n_groups" : 1,
      "pad_t" : 0,
      "stride_y" : 2,
      "has_biases" : 1,
      "C" : 512,
      "bottom" : "model_5\/model_1\/model\/conv2_block3_out\/Relu",
      "weights" : {

      },
      "Nx" : 1,
      "pad_mode" : 0,
      "pad_value" : 0,
      "Ny" : 1,
      "n_parallel" : 1
    },
    {
      "pad_r" : 0,
      "fused_relu" : 1,
      "fused_tanh" : 0,
      "debug_info" : "model_5\/model_1\/model\/conv3_block1_1_bn\/FusedBatchNormV3_nchw",
      "pad_fill_mode" : 0,
      "pad_b" : 0,
      "pad_l" : 0,
      "top" : "model_5\/model_1\/model\/conv3_block1_1_relu\/Relu",
      "blob_weights" : 95,
      "K" : 256,
      "blob_biases" : 93,
      "stride_x" : 2,
      "name" : "model_5\/model_1\/model\/conv3_block1_1_bn\/FusedBatchNormV3_nchw",
      "has_batch_norm" : 0,
      "type" : "convolution",
      "n_groups" : 1,
      "pad_t" : 0,
      "stride_y" : 2,
      "has_biases" : 1,
      "C" : 128,
      "bottom" : "model_5\/model_1\/model\/conv2_block3_out\/Relu",
      "weights" : {

      },
      "Nx" : 1,
      "pad_mode" : 0,
      "pad_value" : 0,
      "Ny" : 1,
      "n_parallel" : 1
    },
    {
      "weights" : {

      },
      "debug_info" : "model_5\/model_1\/concatenate\/concat",
      "top" : "model_5\/model_1\/concatenate\/concat",
      "type" : "concat",
      "name" : "model_5\/model_1\/concatenate\/concat",
      "bottom" : "model_5\/model_1\/model\/conv2_block3_out\/Relu,model_5\/model_1\/model\/conv2_block3_out\/Relu_1"
    },
    {
      "pad_r" : 0,
      "fused_relu" : 0,
      "fused_tanh" : 0,
      "debug_info" : "model_5\/model_1\/model\/conv3_block1_0_bn\/FusedBatchNormV3_1_nchw",
      "pad_fill_mode" : 0,
      "pad_b" : 0,
      "pad_l" : 0,
      "top" : "model_5\/model_1\/model\/conv3_block1_0_bn\/FusedBatchNormV3_1_nchw",
      "blob_weights" : 99,
      "K" : 256,
      "blob_biases" : 97,
      "stride_x" : 2,
      "name" : "model_5\/model_1\/model\/conv3_block1_0_bn\/FusedBatchNormV3_1_nchw",
      "has_batch_norm" : 0,
      "type" : "convolution",
      "n_groups" : 1,
      "pad_t" : 0,
      "stride_y" : 2,
      "has_biases" : 1,
      "C" : 512,
      "bottom" : "model_5\/model_1\/model\/conv2_block3_out\/Relu_1",
      "weights" : {

      },
      "Nx" : 1,
      "pad_mode" : 0,
      "pad_value" : 0,
      "Ny" : 1,
      "n_parallel" : 1
    },
    {
      "pad_r" : 0,
      "fused_relu" : 1,
      "fused_tanh" : 0,
      "debug_info" : "model_5\/model_1\/model\/conv3_block1_1_bn\/FusedBatchNormV3_1_nchw",
      "pad_fill_mode" : 0,
      "pad_b" : 0,
      "pad_l" : 0,
      "top" : "model_5\/model_1\/model\/conv3_block1_1_relu\/Relu_1",
      "blob_weights" : 103,
      "K" : 256,
      "blob_biases" : 101,
      "stride_x" : 2,
      "name" : "model_5\/model_1\/model\/conv3_block1_1_bn\/FusedBatchNormV3_1_nchw",
      "has_batch_norm" : 0,
      "type" : "convolution",
      "n_groups" : 1,
      "pad_t" : 0,
      "stride_y" : 2,
      "has_biases" : 1,
      "C" : 128,
      "bottom" : "model_5\/model_1\/model\/conv2_block3_out\/Relu_1",
      "weights" : {

      },
      "Nx" : 1,
      "pad_mode" : 0,
      "pad_value" : 0,
      "Ny" : 1,
      "n_parallel" : 1
    },
    {
      "name" : "model_5\/model_1\/sequential\/batch_normalization\/FusedBatchNormV3_nchw",
      "bottom" : "model_5\/model_1\/concatenate\/concat",
      "weights" : {

      },
      "debug_info" : "model_5\/model_1\/sequential\/batch_normalization\/FusedBatchNormV3_nchw",
      "top" : "model_5\/model_1\/sequential\/batch_normalization\/FusedBatchNormV3_nchw",
      "C" : 512,
      "blob_batchnorm_params" : 105,
      "type" : "batchnorm"
    },
    {
      "pad_r" : 0,
      "fused_relu" : 1,
      "fused_tanh" : 0,
      "debug_info" : "model_5\/model_1\/sequential\/conv2d\/BiasAdd",
      "pad_fill_mode" : 0,
      "pad_b" : 0,
      "pad_l" : 0,
      "top" : "model_5\/model_1\/sequential\/re_lu\/Relu",
      "blob_weights" : 109,
      "K" : 512,
      "blob_biases" : 107,
      "name" : "model_5\/model_1\/sequential\/conv2d\/BiasAdd",
      "has_batch_norm" : 0,
      "type" : "convolution",
      "n_groups" : 1,
      "pad_t" : 0,
      "has_biases" : 1,
      "C" : 1,
      "bottom" : "model_5\/model_1\/sequential\/batch_normalization\/FusedBatchNormV3_nchw",
      "weights" : {

      },
      "Nx" : 1,
      "pad_mode" : 0,
      "pad_value" : 0,
      "Ny" : 1,
      "n_parallel" : 1
    },
    {
      "pad_r" : 0,
      "fused_relu" : 1,
      "fused_tanh" : 0,
      "debug_info" : "model_5\/model_1\/model\/conv3_block1_2_bn\/FusedBatchNormV3_nchw",
      "pad_fill_mode" : 0,
      "pad_b" : 0,
      "pad_l" : 0,
      "top" : "model_5\/model_1\/model\/conv3_block1_2_relu\/Relu",
      "blob_weights" : 113,
      "K" : 128,
      "blob_biases" : 111,
      "name" : "model_5\/model_1\/model\/conv3_block1_2_bn\/FusedBatchNormV3_nchw",
      "has_batch_norm" : 0,
      "type" : "convolution",
      "n_groups" : 1,
      "pad_t" : 0,
      "has_biases" : 1,
      "C" : 128,
      "bottom" : "model_5\/model_1\/model\/conv3_block1_1_relu\/Relu",
      "weights" : {

      },
      "Nx" : 3,
      "pad_mode" : 1,
      "pad_value" : 0,
      "Ny" : 3,
      "n_parallel" : 1
    },
    {
      "pad_r" : 0,
      "fused_relu" : 1,
      "fused_tanh" : 0,
      "debug_info" : "model_5\/model_1\/model\/conv3_block1_2_bn\/FusedBatchNormV3_1_nchw",
      "pad_fill_mode" : 0,
      "pad_b" : 0,
      "pad_l" : 0,
      "top" : "model_5\/model_1\/model\/conv3_block1_2_relu\/Relu_1",
      "blob_weights" : 117,
      "K" : 128,
      "blob_biases" : 115,
      "name" : "model_5\/model_1\/model\/conv3_block1_2_bn\/FusedBatchNormV3_1_nchw",
      "has_batch_norm" : 0,
      "type" : "convolution",
      "n_groups" : 1,
      "pad_t" : 0,
      "has_biases" : 1,
      "C" : 128,
      "bottom" : "model_5\/model_1\/model\/conv3_block1_1_relu\/Relu_1",
      "weights" : {

      },
      "Nx" : 3,
      "pad_mode" : 1,
      "pad_value" : 0,
      "Ny" : 3,
      "n_parallel" : 1
    },
    {
      "name" : "model_5\/model_1\/sequential\/batch_normalization_1\/FusedBatchNormV3_nchw",
      "bottom" : "model_5\/model_1\/sequential\/re_lu\/Relu",
      "weights" : {

      },
      "debug_info" : "model_5\/model_1\/sequential\/batch_normalization_1\/FusedBatchNormV3_nchw",
      "top" : "model_5\/model_1\/sequential\/batch_normalization_1\/FusedBatchNormV3_nchw",
      "C" : 1,
      "blob_batchnorm_params" : 119,
      "type" : "batchnorm"
    },
    {
      "pad_r" : 0,
      "fused_relu" : 0,
      "fused_tanh" : 0,
      "debug_info" : "model_5\/model_1\/model\/conv3_block1_3_bn\/FusedBatchNormV3_nchw",
      "pad_fill_mode" : 0,
      "pad_b" : 0,
      "pad_l" : 0,
      "top" : "model_5\/model_1\/model\/conv3_block1_3_bn\/FusedBatchNormV3_nchw",
      "blob_weights" : 123,
      "K" : 128,
      "blob_biases" : 121,
      "name" : "model_5\/model_1\/model\/conv3_block1_3_bn\/FusedBatchNormV3_nchw",
      "has_batch_norm" : 0,
      "type" : "convolution",
      "n_groups" : 1,
      "pad_t" : 0,
      "has_biases" : 1,
      "C" : 512,
      "bottom" : "model_5\/model_1\/model\/conv3_block1_2_relu\/Relu",
      "weights" : {

      },
      "Nx" : 1,
      "pad_mode" : 0,
      "pad_value" : 0,
      "Ny" : 1,
      "n_parallel" : 1
    },
    {
      "pad_r" : 0,
      "fused_relu" : 0,
      "fused_tanh" : 0,
      "debug_info" : "model_5\/model_1\/model\/conv3_block1_3_bn\/FusedBatchNormV3_1_nchw",
      "pad_fill_mode" : 0,
      "pad_b" : 0,
      "pad_l" : 0,
      "top" : "model_5\/model_1\/model\/conv3_block1_3_bn\/FusedBatchNormV3_1_nchw",
      "blob_weights" : 127,
      "K" : 128,
      "blob_biases" : 125,
      "name" : "model_5\/model_1\/model\/conv3_block1_3_bn\/FusedBatchNormV3_1_nchw",
      "has_batch_norm" : 0,
      "type" : "convolution",
      "n_groups" : 1,
      "pad_t" : 0,
      "has_biases" : 1,
      "C" : 512,
      "bottom" : "model_5\/model_1\/model\/conv3_block1_2_relu\/Relu_1",
      "weights" : {

      },
      "Nx" : 1,
      "pad_mode" : 0,
      "pad_value" : 0,
      "Ny" : 1,
      "n_parallel" : 1
    },
    {
      "pad_r" : 0,
      "fused_relu" : 1,
      "fused_tanh" : 0,
      "debug_info" : "model_5\/model_1\/sequential\/conv2d_transpose\/BiasAdd",
      "pad_fill_mode" : 0,
      "pad_b" : 0,
      "pad_l" : 0,
      "top" : "model_5\/model_1\/sequential\/re_lu_1\/Relu",
      "blob_weights" : 131,
      "K" : 1,
      "blob_biases" : 129,
      "name" : "model_5\/model_1\/sequential\/conv2d_transpose\/BiasAdd",
      "deconv_out_height" : 112,
      "has_batch_norm" : 0,
      "type" : "deconvolution",
      "n_groups" : 1,
      "pad_t" : 0,
      "has_biases" : 1,
      "C" : 16,
      "bottom" : "model_5\/model_1\/sequential\/batch_normalization_1\/FusedBatchNormV3_nchw",
      "weights" : {

      },
      "Nx" : 3,
      "pad_mode" : 1,
      "deconv_out_width" : 112,
      "pad_value" : 0,
      "Ny" : 3,
      "n_parallel" : 1
    },
    {
      "bottom" : "model_5\/model_1\/model\/conv3_block1_0_bn\/FusedBatchNormV3_nchw,model_5\/model_1\/model\/conv3_block1_3_bn\/FusedBatchNormV3_nchw",
      "alpha" : 1,
      "operation" : 0,
      "weights" : {

      },
      "fused_relu" : 0,
      "debug_info" : "model_5\/model_1\/model\/conv3_block1_add\/add",
      "top" : "model_5\/model_1\/model\/conv3_block1_add\/add",
      "type" : "elementwise",
      "name" : "model_5\/model_1\/model\/conv3_block1_add\/add",
      "beta" : 0
    },
    {
      "bottom" : "model_5\/model_1\/model\/conv3_block1_0_bn\/FusedBatchNormV3_1_nchw,model_5\/model_1\/model\/conv3_block1_3_bn\/FusedBatchNormV3_1_nchw",
      "alpha" : 1,
      "operation" : 0,
      "weights" : {

      },
      "fused_relu" : 0,
      "debug_info" : "model_5\/model_1\/model\/conv3_block1_add\/add_1",
      "top" : "model_5\/model_1\/model\/conv3_block1_add\/add_1",
      "type" : "elementwise",
      "name" : "model_5\/model_1\/model\/conv3_block1_add\/add_1",
      "beta" : 0
    },
    {
      "bottom" : "model_5\/model_1\/model\/conv3_block1_add\/add",
      "weights" : {

      },
      "mode" : 0,
      "debug_info" : "model_5\/model_1\/model\/conv3_block1_out\/Relu",
      "top" : "model_5\/model_1\/model\/conv3_block1_out\/Relu",
      "type" : "activation",
      "name" : "model_5\/model_1\/model\/conv3_block1_out\/Relu"
    },
    {
      "name" : "model_5\/model_1\/sequential\/batch_normalization_2\/FusedBatchNormV3_nchw",
      "bottom" : "model_5\/model_1\/sequential\/re_lu_1\/Relu",
      "weights" : {

      },
      "debug_info" : "model_5\/model_1\/sequential\/batch_normalization_2\/FusedBatchNormV3_nchw",
      "top" : "model_5\/model_1\/sequential\/batch_normalization_2\/FusedBatchNormV3_nchw",
      "C" : 16,
      "blob_batchnorm_params" : 133,
      "type" : "batchnorm"
    },
    {
      "bottom" : "model_5\/model_1\/model\/conv3_block1_add\/add_1",
      "weights" : {

      },
      "mode" : 0,
      "debug_info" : "model_5\/model_1\/model\/conv3_block1_out\/Relu_1",
      "top" : "model_5\/model_1\/model\/conv3_block1_out\/Relu_1",
      "type" : "activation",
      "name" : "model_5\/model_1\/model\/conv3_block1_out\/Relu_1"
    },
    {
      "pad_r" : 0,
      "fused_relu" : 1,
      "fused_tanh" : 0,
      "debug_info" : "model_5\/model_1\/model\/conv3_block2_1_bn\/FusedBatchNormV3_nchw",
      "pad_fill_mode" : 0,
      "pad_b" : 0,
      "pad_l" : 0,
      "top" : "model_5\/model_1\/model\/conv3_block2_1_relu\/Relu",
      "blob_weights" : 137,
      "K" : 512,
      "blob_biases" : 135,
      "name" : "model_5\/model_1\/model\/conv3_block2_1_bn\/FusedBatchNormV3_nchw",
      "has_batch_norm" : 0,
      "type" : "convolution",
      "n_groups" : 1,
      "pad_t" : 0,
      "has_biases" : 1,
      "C" : 128,
      "bottom" : "model_5\/model_1\/model\/conv3_block1_out\/Relu",
      "weights" : {

      },
      "Nx" : 1,
      "pad_mode" : 0,
      "pad_value" : 0,
      "Ny" : 1,
      "n_parallel" : 1
    },
    {
      "pad_r" : 0,
      "fused_relu" : 1,
      "fused_tanh" : 0,
      "debug_info" : "model_5\/model_1\/model\/conv3_block2_1_bn\/FusedBatchNormV3_1_nchw",
      "pad_fill_mode" : 0,
      "pad_b" : 0,
      "pad_l" : 0,
      "top" : "model_5\/model_1\/model\/conv3_block2_1_relu\/Relu_1",
      "blob_weights" : 141,
      "K" : 512,
      "blob_biases" : 139,
      "name" : "model_5\/model_1\/model\/conv3_block2_1_bn\/FusedBatchNormV3_1_nchw",
      "has_batch_norm" : 0,
      "type" : "convolution",
      "n_groups" : 1,
      "pad_t" : 0,
      "has_biases" : 1,
      "C" : 128,
      "bottom" : "model_5\/model_1\/model\/conv3_block1_out\/Relu_1",
      "weights" : {

      },
      "Nx" : 1,
      "pad_mode" : 0,
      "pad_value" : 0,
      "Ny" : 1,
      "n_parallel" : 1
    },
    {
      "pad_r" : 0,
      "fused_relu" : 1,
      "fused_tanh" : 0,
      "debug_info" : "model_5\/model_1\/sequential\/conv2d_transpose_1\/BiasAdd",
      "pad_fill_mode" : 0,
      "pad_b" : 0,
      "pad_l" : 0,
      "top" : "model_5\/model_1\/sequential\/re_lu_2\/Relu",
      "blob_weights" : 145,
      "K" : 16,
      "blob_biases" : 143,
      "name" : "model_5\/model_1\/sequential\/conv2d_transpose_1\/BiasAdd",
      "deconv_out_height" : 112,
      "has_batch_norm" : 0,
      "type" : "deconvolution",
      "n_groups" : 1,
      "pad_t" : 0,
      "has_biases" : 1,
      "C" : 16,
      "bottom" : "model_5\/model_1\/sequential\/batch_normalization_2\/FusedBatchNormV3_nchw",
      "weights" : {

      },
      "Nx" : 3,
      "pad_mode" : 1,
      "deconv_out_width" : 112,
      "pad_value" : 0,
      "Ny" : 3,
      "n_parallel" : 1
    },
    {
      "pad_r" : 0,
      "fused_relu" : 1,
      "fused_tanh" : 0,
      "debug_info" : "model_5\/model_1\/model\/conv3_block2_2_bn\/FusedBatchNormV3_nchw",
      "pad_fill_mode" : 0,
      "pad_b" : 0,
      "pad_l" : 0,
      "top" : "model_5\/model_1\/model\/conv3_block2_2_relu\/Relu",
      "blob_weights" : 149,
      "K" : 128,
      "blob_biases" : 147,
      "name" : "model_5\/model_1\/model\/conv3_block2_2_bn\/FusedBatchNormV3_nchw",
      "has_batch_norm" : 0,
      "type" : "convolution",
      "n_groups" : 1,
      "pad_t" : 0,
      "has_biases" : 1,
      "C" : 128,
      "bottom" : "model_5\/model_1\/model\/conv3_block2_1_relu\/Relu",
      "weights" : {

      },
      "Nx" : 3,
      "pad_mode" : 1,
      "pad_value" : 0,
      "Ny" : 3,
      "n_parallel" : 1
    },
    {
      "pad_r" : 0,
      "fused_relu" : 1,
      "fused_tanh" : 0,
      "debug_info" : "model_5\/model_1\/model\/conv3_block2_2_bn\/FusedBatchNormV3_1_nchw",
      "pad_fill_mode" : 0,
      "pad_b" : 0,
      "pad_l" : 0,
      "top" : "model_5\/model_1\/model\/conv3_block2_2_relu\/Relu_1",
      "blob_weights" : 153,
      "K" : 128,
      "blob_biases" : 151,
      "name" : "model_5\/model_1\/model\/conv3_block2_2_bn\/FusedBatchNormV3_1_nchw",
      "has_batch_norm" : 0,
      "type" : "convolution",
      "n_groups" : 1,
      "pad_t" : 0,
      "has_biases" : 1,
      "C" : 128,
      "bottom" : "model_5\/model_1\/model\/conv3_block2_1_relu\/Relu_1",
      "weights" : {

      },
      "Nx" : 3,
      "pad_mode" : 1,
      "pad_value" : 0,
      "Ny" : 3,
      "n_parallel" : 1
    },
    {
      "name" : "model_5\/model_1\/sequential\/batch_normalization_3\/FusedBatchNormV3_nchw",
      "bottom" : "model_5\/model_1\/sequential\/re_lu_2\/Relu",
      "weights" : {

      },
      "debug_info" : "model_5\/model_1\/sequential\/batch_normalization_3\/FusedBatchNormV3_nchw",
      "top" : "model_5\/model_1\/sequential\/batch_normalization_3\/FusedBatchNormV3_nchw",
      "C" : 16,
      "blob_batchnorm_params" : 155,
      "type" : "batchnorm"
    },
    {
      "pad_r" : 0,
      "fused_relu" : 0,
      "fused_tanh" : 0,
      "debug_info" : "model_5\/model_1\/model\/conv3_block2_3_bn\/FusedBatchNormV3_nchw",
      "pad_fill_mode" : 0,
      "pad_b" : 0,
      "pad_l" : 0,
      "top" : "model_5\/model_1\/model\/conv3_block2_3_bn\/FusedBatchNormV3_nchw",
      "blob_weights" : 159,
      "K" : 128,
      "blob_biases" : 157,
      "name" : "model_5\/model_1\/model\/conv3_block2_3_bn\/FusedBatchNormV3_nchw",
      "has_batch_norm" : 0,
      "type" : "convolution",
      "n_groups" : 1,
      "pad_t" : 0,
      "has_biases" : 1,
      "C" : 512,
      "bottom" : "model_5\/model_1\/model\/conv3_block2_2_relu\/Relu",
      "weights" : {

      },
      "Nx" : 1,
      "pad_mode" : 0,
      "pad_value" : 0,
      "Ny" : 1,
      "n_parallel" : 1
    },
    {
      "pad_r" : 0,
      "fused_relu" : 0,
      "fused_tanh" : 0,
      "debug_info" : "model_5\/model_1\/model\/conv3_block2_3_bn\/FusedBatchNormV3_1_nchw",
      "pad_fill_mode" : 0,
      "pad_b" : 0,
      "pad_l" : 0,
      "top" : "model_5\/model_1\/model\/conv3_block2_3_bn\/FusedBatchNormV3_1_nchw",
      "blob_weights" : 163,
      "K" : 128,
      "blob_biases" : 161,
      "name" : "model_5\/model_1\/model\/conv3_block2_3_bn\/FusedBatchNormV3_1_nchw",
      "has_batch_norm" : 0,
      "type" : "convolution",
      "n_groups" : 1,
      "pad_t" : 0,
      "has_biases" : 1,
      "C" : 512,
      "bottom" : "model_5\/model_1\/model\/conv3_block2_2_relu\/Relu_1",
      "weights" : {

      },
      "Nx" : 1,
      "pad_mode" : 0,
      "pad_value" : 0,
      "Ny" : 1,
      "n_parallel" : 1
    },
    {
      "pad_r" : 0,
      "fused_relu" : 1,
      "fused_tanh" : 0,
      "debug_info" : "model_5\/model_1\/sequential\/conv2d_transpose_2\/BiasAdd",
      "pad_fill_mode" : 0,
      "pad_b" : 0,
      "pad_l" : 0,
      "top" : "model_5\/model_1\/sequential\/re_lu_3\/Relu",
      "blob_weights" : 167,
      "K" : 16,
      "blob_biases" : 165,
      "name" : "model_5\/model_1\/sequential\/conv2d_transpose_2\/BiasAdd",
      "deconv_out_height" : 112,
      "has_batch_norm" : 0,
      "type" : "deconvolution",
      "n_groups" : 1,
      "pad_t" : 0,
      "has_biases" : 1,
      "C" : 32,
      "bottom" : "model_5\/model_1\/sequential\/batch_normalization_3\/FusedBatchNormV3_nchw",
      "weights" : {

      },
      "Nx" : 3,
      "pad_mode" : 1,
      "deconv_out_width" : 112,
      "pad_value" : 0,
      "Ny" : 3,
      "n_parallel" : 1
    },
    {
      "bottom" : "model_5\/model_1\/model\/conv3_block1_out\/Relu,model_5\/model_1\/model\/conv3_block2_3_bn\/FusedBatchNormV3_nchw",
      "alpha" : 1,
      "operation" : 0,
      "weights" : {

      },
      "fused_relu" : 0,
      "debug_info" : "model_5\/model_1\/model\/conv3_block2_add\/add",
      "top" : "model_5\/model_1\/model\/conv3_block2_add\/add",
      "type" : "elementwise",
      "name" : "model_5\/model_1\/model\/conv3_block2_add\/add",
      "beta" : 0
    },
    {
      "bottom" : "model_5\/model_1\/model\/conv3_block1_out\/Relu_1,model_5\/model_1\/model\/conv3_block2_3_bn\/FusedBatchNormV3_1_nchw",
      "alpha" : 1,
      "operation" : 0,
      "weights" : {

      },
      "fused_relu" : 0,
      "debug_info" : "model_5\/model_1\/model\/conv3_block2_add\/add_1",
      "top" : "model_5\/model_1\/model\/conv3_block2_add\/add_1",
      "type" : "elementwise",
      "name" : "model_5\/model_1\/model\/conv3_block2_add\/add_1",
      "beta" : 0
    },
    {
      "bottom" : "model_5\/model_1\/model\/conv3_block2_add\/add",
      "weights" : {

      },
      "mode" : 0,
      "debug_info" : "model_5\/model_1\/model\/conv3_block2_out\/Relu",
      "top" : "model_5\/model_1\/model\/conv3_block2_out\/Relu",
      "type" : "activation",
      "name" : "model_5\/model_1\/model\/conv3_block2_out\/Relu"
    },
    {
      "bottom" : "model_5\/model_1\/model\/conv3_block2_add\/add_1",
      "weights" : {

      },
      "mode" : 0,
      "debug_info" : "model_5\/model_1\/model\/conv3_block2_out\/Relu_1",
      "top" : "model_5\/model_1\/model\/conv3_block2_out\/Relu_1",
      "type" : "activation",
      "name" : "model_5\/model_1\/model\/conv3_block2_out\/Relu_1"
    },
    {
      "pad_r" : 0,
      "fused_relu" : 1,
      "fused_tanh" : 0,
      "debug_info" : "model_5\/model_1\/model\/conv3_block3_1_bn\/FusedBatchNormV3_nchw",
      "pad_fill_mode" : 0,
      "pad_b" : 0,
      "pad_l" : 0,
      "top" : "model_5\/model_1\/model\/conv3_block3_1_relu\/Relu",
      "blob_weights" : 171,
      "K" : 512,
      "blob_biases" : 169,
      "name" : "model_5\/model_1\/model\/conv3_block3_1_bn\/FusedBatchNormV3_nchw",
      "has_batch_norm" : 0,
      "type" : "convolution",
      "n_groups" : 1,
      "pad_t" : 0,
      "has_biases" : 1,
      "C" : 128,
      "bottom" : "model_5\/model_1\/model\/conv3_block2_out\/Relu",
      "weights" : {

      },
      "Nx" : 1,
      "pad_mode" : 0,
      "pad_value" : 0,
      "Ny" : 1,
      "n_parallel" : 1
    },
    {
      "name" : "model_5\/model_1\/sequential\/batch_normalization_4\/FusedBatchNormV3_nchw",
      "bottom" : "model_5\/model_1\/sequential\/re_lu_3\/Relu",
      "weights" : {

      },
      "debug_info" : "model_5\/model_1\/sequential\/batch_normalization_4\/FusedBatchNormV3_nchw",
      "top" : "model_5\/model_1\/sequential\/batch_normalization_4\/FusedBatchNormV3_nchw",
      "C" : 32,
      "blob_batchnorm_params" : 173,
      "type" : "batchnorm"
    },
    {
      "pad_r" : 0,
      "fused_relu" : 1,
      "fused_tanh" : 0,
      "debug_info" : "model_5\/model_1\/model\/conv3_block3_1_bn\/FusedBatchNormV3_1_nchw",
      "pad_fill_mode" : 0,
      "pad_b" : 0,
      "pad_l" : 0,
      "top" : "model_5\/model_1\/model\/conv3_block3_1_relu\/Relu_1",
      "blob_weights" : 177,
      "K" : 512,
      "blob_biases" : 175,
      "name" : "model_5\/model_1\/model\/conv3_block3_1_bn\/FusedBatchNormV3_1_nchw",
      "has_batch_norm" : 0,
      "type" : "convolution",
      "n_groups" : 1,
      "pad_t" : 0,
      "has_biases" : 1,
      "C" : 128,
      "bottom" : "model_5\/model_1\/model\/conv3_block2_out\/Relu_1",
      "weights" : {

      },
      "Nx" : 1,
      "pad_mode" : 0,
      "pad_value" : 0,
      "Ny" : 1,
      "n_parallel" : 1
    },
    {
      "pad_r" : 0,
      "fused_relu" : 1,
      "fused_tanh" : 0,
      "debug_info" : "model_5\/model_1\/model\/conv3_block3_2_bn\/FusedBatchNormV3_nchw",
      "pad_fill_mode" : 0,
      "pad_b" : 0,
      "pad_l" : 0,
      "top" : "model_5\/model_1\/model\/conv3_block3_2_relu\/Relu",
      "blob_weights" : 181,
      "K" : 128,
      "blob_biases" : 179,
      "name" : "model_5\/model_1\/model\/conv3_block3_2_bn\/FusedBatchNormV3_nchw",
      "has_batch_norm" : 0,
      "type" : "convolution",
      "n_groups" : 1,
      "pad_t" : 0,
      "has_biases" : 1,
      "C" : 128,
      "bottom" : "model_5\/model_1\/model\/conv3_block3_1_relu\/Relu",
      "weights" : {

      },
      "Nx" : 3,
      "pad_mode" : 1,
      "pad_value" : 0,
      "Ny" : 3,
      "n_parallel" : 1
    },
    {
      "pad_r" : 0,
      "fused_relu" : 1,
      "fused_tanh" : 0,
      "debug_info" : "model_5\/model_1\/sequential\/conv2d_transpose_3\/BiasAdd",
      "pad_fill_mode" : 0,
      "pad_b" : 0,
      "pad_l" : 0,
      "top" : "model_5\/model_1\/sequential\/re_lu_4\/Relu",
      "blob_weights" : 185,
      "K" : 32,
      "blob_biases" : 183,
      "name" : "model_5\/model_1\/sequential\/conv2d_transpose_3\/BiasAdd",
      "deconv_out_height" : 112,
      "has_batch_norm" : 0,
      "type" : "deconvolution",
      "n_groups" : 1,
      "pad_t" : 0,
      "has_biases" : 1,
      "C" : 64,
      "bottom" : "model_5\/model_1\/sequential\/batch_normalization_4\/FusedBatchNormV3_nchw",
      "weights" : {

      },
      "Nx" : 3,
      "pad_mode" : 1,
      "deconv_out_width" : 112,
      "pad_value" : 0,
      "Ny" : 3,
      "n_parallel" : 1
    },
    {
      "pad_r" : 0,
      "fused_relu" : 1,
      "fused_tanh" : 0,
      "debug_info" : "model_5\/model_1\/model\/conv3_block3_2_bn\/FusedBatchNormV3_1_nchw",
      "pad_fill_mode" : 0,
      "pad_b" : 0,
      "pad_l" : 0,
      "top" : "model_5\/model_1\/model\/conv3_block3_2_relu\/Relu_1",
      "blob_weights" : 189,
      "K" : 128,
      "blob_biases" : 187,
      "name" : "model_5\/model_1\/model\/conv3_block3_2_bn\/FusedBatchNormV3_1_nchw",
      "has_batch_norm" : 0,
      "type" : "convolution",
      "n_groups" : 1,
      "pad_t" : 0,
      "has_biases" : 1,
      "C" : 128,
      "bottom" : "model_5\/model_1\/model\/conv3_block3_1_relu\/Relu_1",
      "weights" : {

      },
      "Nx" : 3,
      "pad_mode" : 1,
      "pad_value" : 0,
      "Ny" : 3,
      "n_parallel" : 1
    },
    {
      "name" : "model_5\/model_1\/sequential\/batch_normalization_5\/FusedBatchNormV3_nchw",
      "bottom" : "model_5\/model_1\/sequential\/re_lu_4\/Relu",
      "weights" : {

      },
      "debug_info" : "model_5\/model_1\/sequential\/batch_normalization_5\/FusedBatchNormV3_nchw",
      "top" : "model_5\/model_1\/sequential\/batch_normalization_5\/FusedBatchNormV3_nchw",
      "C" : 64,
      "blob_batchnorm_params" : 191,
      "type" : "batchnorm"
    },
    {
      "pad_r" : 0,
      "fused_relu" : 0,
      "fused_tanh" : 0,
      "debug_info" : "model_5\/model_1\/model\/conv3_block3_3_bn\/FusedBatchNormV3_nchw",
      "pad_fill_mode" : 0,
      "pad_b" : 0,
      "pad_l" : 0,
      "top" : "model_5\/model_1\/model\/conv3_block3_3_bn\/FusedBatchNormV3_nchw",
      "blob_weights" : 195,
      "K" : 128,
      "blob_biases" : 193,
      "name" : "model_5\/model_1\/model\/conv3_block3_3_bn\/FusedBatchNormV3_nchw",
      "has_batch_norm" : 0,
      "type" : "convolution",
      "n_groups" : 1,
      "pad_t" : 0,
      "has_biases" : 1,
      "C" : 512,
      "bottom" : "model_5\/model_1\/model\/conv3_block3_2_relu\/Relu",
      "weights" : {

      },
      "Nx" : 1,
      "pad_mode" : 0,
      "pad_value" : 0,
      "Ny" : 1,
      "n_parallel" : 1
    },
    {
      "pad_r" : 0,
      "fused_relu" : 0,
      "fused_tanh" : 0,
      "debug_info" : "model_5\/model_1\/model\/conv3_block3_3_bn\/FusedBatchNormV3_1_nchw",
      "pad_fill_mode" : 0,
      "pad_b" : 0,
      "pad_l" : 0,
      "top" : "model_5\/model_1\/model\/conv3_block3_3_bn\/FusedBatchNormV3_1_nchw",
      "blob_weights" : 199,
      "K" : 128,
      "blob_biases" : 197,
      "name" : "model_5\/model_1\/model\/conv3_block3_3_bn\/FusedBatchNormV3_1_nchw",
      "has_batch_norm" : 0,
      "type" : "convolution",
      "n_groups" : 1,
      "pad_t" : 0,
      "has_biases" : 1,
      "C" : 512,
      "bottom" : "model_5\/model_1\/model\/conv3_block3_2_relu\/Relu_1",
      "weights" : {

      },
      "Nx" : 1,
      "pad_mode" : 0,
      "pad_value" : 0,
      "Ny" : 1,
      "n_parallel" : 1
    },
    {
      "bottom" : "model_5\/model_1\/model\/conv3_block2_out\/Relu,model_5\/model_1\/model\/conv3_block3_3_bn\/FusedBatchNormV3_nchw",
      "alpha" : 1,
      "operation" : 0,
      "weights" : {

      },
      "fused_relu" : 0,
      "debug_info" : "model_5\/model_1\/model\/conv3_block3_add\/add",
      "top" : "model_5\/model_1\/model\/conv3_block3_add\/add",
      "type" : "elementwise",
      "name" : "model_5\/model_1\/model\/conv3_block3_add\/add",
      "beta" : 0
    },
    {
      "pad_r" : 0,
      "fused_relu" : 0,
      "fused_tanh" : 0,
      "debug_info" : "model_5\/model_1\/sequential\/conv2d_transpose_4\/BiasAdd",
      "pad_fill_mode" : 0,
      "pad_b" : 0,
      "pad_l" : 0,
      "top" : "model_5\/model_1\/sequential\/conv2d_transpose_4\/BiasAdd",
      "blob_weights" : 203,
      "K" : 64,
      "blob_biases" : 201,
      "name" : "model_5\/model_1\/sequential\/conv2d_transpose_4\/BiasAdd",
      "deconv_out_height" : 112,
      "has_batch_norm" : 0,
      "type" : "deconvolution",
      "n_groups" : 1,
      "pad_t" : 0,
      "has_biases" : 1,
      "C" : 1,
      "bottom" : "model_5\/model_1\/sequential\/batch_normalization_5\/FusedBatchNormV3_nchw",
      "weights" : {

      },
      "Nx" : 3,
      "pad_mode" : 1,
      "deconv_out_width" : 112,
      "pad_value" : 0,
      "Ny" : 3,
      "n_parallel" : 1
    },
    {
      "bottom" : "model_5\/model_1\/model\/conv3_block2_out\/Relu_1,model_5\/model_1\/model\/conv3_block3_3_bn\/FusedBatchNormV3_1_nchw",
      "alpha" : 1,
      "operation" : 0,
      "weights" : {

      },
      "fused_relu" : 0,
      "debug_info" : "model_5\/model_1\/model\/conv3_block3_add\/add_1",
      "top" : "model_5\/model_1\/model\/conv3_block3_add\/add_1",
      "type" : "elementwise",
      "name" : "model_5\/model_1\/model\/conv3_block3_add\/add_1",
      "beta" : 0
    },
    {
      "bottom" : "model_5\/model_1\/model\/conv3_block3_add\/add",
      "weights" : {

      },
      "mode" : 0,
      "debug_info" : "model_5\/model_1\/model\/conv3_block3_out\/Relu",
      "top" : "model_5\/model_1\/model\/conv3_block3_out\/Relu",
      "type" : "activation",
      "name" : "model_5\/model_1\/model\/conv3_block3_out\/Relu"
    },
    {
      "bottom" : "model_5\/model_1\/model\/conv3_block3_add\/add_1",
      "weights" : {

      },
      "mode" : 0,
      "debug_info" : "model_5\/model_1\/model\/conv3_block3_out\/Relu_1",
      "top" : "model_5\/model_1\/model\/conv3_block3_out\/Relu_1",
      "type" : "activation",
      "name" : "model_5\/model_1\/model\/conv3_block3_out\/Relu_1"
    },
    {
      "pad_r" : 0,
      "fused_relu" : 1,
      "fused_tanh" : 0,
      "debug_info" : "model_5\/model_1\/model\/conv3_block4_1_bn\/FusedBatchNormV3_nchw",
      "pad_fill_mode" : 0,
      "pad_b" : 0,
      "pad_l" : 0,
      "top" : "model_5\/model_1\/model\/conv3_block4_1_relu\/Relu",
      "blob_weights" : 207,
      "K" : 512,
      "blob_biases" : 205,
      "name" : "model_5\/model_1\/model\/conv3_block4_1_bn\/FusedBatchNormV3_nchw",
      "has_batch_norm" : 0,
      "type" : "convolution",
      "n_groups" : 1,
      "pad_t" : 0,
      "has_biases" : 1,
      "C" : 128,
      "bottom" : "model_5\/model_1\/model\/conv3_block3_out\/Relu",
      "weights" : {

      },
      "Nx" : 1,
      "pad_mode" : 0,
      "pad_value" : 0,
      "Ny" : 1,
      "n_parallel" : 1
    },
    {
      "top" : "model_5\/model_1\/sequential\/up_sampling2d\/resize\/ResizeBilinear_channel_first_upsample_bilinear",
      "use_fractional_scale_factors" : false,
      "weights" : {

      },
      "fractional_scaling_factor_y" : 1,
      "type" : "upsample",
      "scaling_factor_x" : 4,
      "mode" : 1,
      "align_corners" : 0,
      "bottom" : "model_5\/model_1\/sequential\/conv2d_transpose_4\/BiasAdd",
      "debug_info" : "model_5\/model_1\/sequential\/up_sampling2d\/resize\/ResizeBilinear_channel_first_upsample_bilinear",
      "fractional_scaling_factor_x" : 1,
      "is_legacy_mode" : 0,
      "name" : "model_5\/model_1\/sequential\/up_sampling2d\/resize\/ResizeBilinear_channel_first_upsample_bilinear",
      "scaling_factor_y" : 4
    },
    {
      "pad_r" : 0,
      "fused_relu" : 1,
      "fused_tanh" : 0,
      "debug_info" : "model_5\/model_1\/model\/conv3_block4_1_bn\/FusedBatchNormV3_1_nchw",
      "pad_fill_mode" : 0,
      "pad_b" : 0,
      "pad_l" : 0,
      "top" : "model_5\/model_1\/model\/conv3_block4_1_relu\/Relu_1",
      "blob_weights" : 211,
      "K" : 512,
      "blob_biases" : 209,
      "name" : "model_5\/model_1\/model\/conv3_block4_1_bn\/FusedBatchNormV3_1_nchw",
      "has_batch_norm" : 0,
      "type" : "convolution",
      "n_groups" : 1,
      "pad_t" : 0,
      "has_biases" : 1,
      "C" : 128,
      "bottom" : "model_5\/model_1\/model\/conv3_block3_out\/Relu_1",
      "weights" : {

      },
      "Nx" : 1,
      "pad_mode" : 0,
      "pad_value" : 0,
      "Ny" : 1,
      "n_parallel" : 1
    },
    {
      "pad_r" : 0,
      "fused_relu" : 1,
      "fused_tanh" : 0,
      "debug_info" : "model_5\/model_1\/model\/conv3_block4_2_bn\/FusedBatchNormV3_nchw",
      "pad_fill_mode" : 0,
      "pad_b" : 0,
      "pad_l" : 0,
      "top" : "model_5\/model_1\/model\/conv3_block4_2_relu\/Relu",
      "blob_weights" : 215,
      "K" : 128,
      "blob_biases" : 213,
      "name" : "model_5\/model_1\/model\/conv3_block4_2_bn\/FusedBatchNormV3_nchw",
      "has_batch_norm" : 0,
      "type" : "convolution",
      "n_groups" : 1,
      "pad_t" : 0,
      "has_biases" : 1,
      "C" : 128,
      "bottom" : "model_5\/model_1\/model\/conv3_block4_1_relu\/Relu",
      "weights" : {

      },
      "Nx" : 3,
      "pad_mode" : 1,
      "pad_value" : 0,
      "Ny" : 3,
      "n_parallel" : 1
    },
    {
      "pad_r" : 0,
      "fused_relu" : 1,
      "fused_tanh" : 0,
      "debug_info" : "model_5\/model_1\/model\/conv3_block4_2_bn\/FusedBatchNormV3_1_nchw",
      "pad_fill_mode" : 0,
      "pad_b" : 0,
      "pad_l" : 0,
      "top" : "model_5\/model_1\/model\/conv3_block4_2_relu\/Relu_1",
      "blob_weights" : 219,
      "K" : 128,
      "blob_biases" : 217,
      "name" : "model_5\/model_1\/model\/conv3_block4_2_bn\/FusedBatchNormV3_1_nchw",
      "has_batch_norm" : 0,
      "type" : "convolution",
      "n_groups" : 1,
      "pad_t" : 0,
      "has_biases" : 1,
      "C" : 128,
      "bottom" : "model_5\/model_1\/model\/conv3_block4_1_relu\/Relu_1",
      "weights" : {

      },
      "Nx" : 3,
      "pad_mode" : 1,
      "pad_value" : 0,
      "Ny" : 3,
      "n_parallel" : 1
    },
    {
      "pad_r" : 0,
      "fused_relu" : 0,
      "fused_tanh" : 0,
      "debug_info" : "model_5\/model_1\/model\/conv3_block4_3_bn\/FusedBatchNormV3_nchw",
      "pad_fill_mode" : 0,
      "pad_b" : 0,
      "pad_l" : 0,
      "top" : "model_5\/model_1\/model\/conv3_block4_3_bn\/FusedBatchNormV3_nchw",
      "blob_weights" : 223,
      "K" : 128,
      "blob_biases" : 221,
      "name" : "model_5\/model_1\/model\/conv3_block4_3_bn\/FusedBatchNormV3_nchw",
      "has_batch_norm" : 0,
      "type" : "convolution",
      "n_groups" : 1,
      "pad_t" : 0,
      "has_biases" : 1,
      "C" : 512,
      "bottom" : "model_5\/model_1\/model\/conv3_block4_2_relu\/Relu",
      "weights" : {

      },
      "Nx" : 1,
      "pad_mode" : 0,
      "pad_value" : 0,
      "Ny" : 1,
      "n_parallel" : 1
    },
    {
      "pad_r" : 0,
      "fused_relu" : 0,
      "fused_tanh" : 0,
      "debug_info" : "model_5\/model_1\/model\/conv3_block4_3_bn\/FusedBatchNormV3_1_nchw",
      "pad_fill_mode" : 0,
      "pad_b" : 0,
      "pad_l" : 0,
      "top" : "model_5\/model_1\/model\/conv3_block4_3_bn\/FusedBatchNormV3_1_nchw",
      "blob_weights" : 227,
      "K" : 128,
      "blob_biases" : 225,
      "name" : "model_5\/model_1\/model\/conv3_block4_3_bn\/FusedBatchNormV3_1_nchw",
      "has_batch_norm" : 0,
      "type" : "convolution",
      "n_groups" : 1,
      "pad_t" : 0,
      "has_biases" : 1,
      "C" : 512,
      "bottom" : "model_5\/model_1\/model\/conv3_block4_2_relu\/Relu_1",
      "weights" : {

      },
      "Nx" : 1,
      "pad_mode" : 0,
      "pad_value" : 0,
      "Ny" : 1,
      "n_parallel" : 1
    },
    {
      "bottom" : "model_5\/model_1\/model\/conv3_block3_out\/Relu,model_5\/model_1\/model\/conv3_block4_3_bn\/FusedBatchNormV3_nchw",
      "alpha" : 1,
      "operation" : 0,
      "weights" : {

      },
      "fused_relu" : 0,
      "debug_info" : "model_5\/model_1\/model\/conv3_block4_add\/add",
      "top" : "model_5\/model_1\/model\/conv3_block4_add\/add",
      "type" : "elementwise",
      "name" : "model_5\/model_1\/model\/conv3_block4_add\/add",
      "beta" : 0
    },
    {
      "bottom" : "model_5\/model_1\/model\/conv3_block3_out\/Relu_1,model_5\/model_1\/model\/conv3_block4_3_bn\/FusedBatchNormV3_1_nchw",
      "alpha" : 1,
      "operation" : 0,
      "weights" : {

      },
      "fused_relu" : 0,
      "debug_info" : "model_5\/model_1\/model\/conv3_block4_add\/add_1",
      "top" : "model_5\/model_1\/model\/conv3_block4_add\/add_1",
      "type" : "elementwise",
      "name" : "model_5\/model_1\/model\/conv3_block4_add\/add_1",
      "beta" : 0
    },
    {
      "bottom" : "model_5\/model_1\/model\/conv3_block4_add\/add",
      "weights" : {

      },
      "mode" : 0,
      "debug_info" : "model_5\/model_1\/model\/conv3_block4_out\/Relu",
      "top" : "model_5\/model_1\/model\/conv3_block4_out\/Relu",
      "type" : "activation",
      "name" : "model_5\/model_1\/model\/conv3_block4_out\/Relu"
    },
    {
      "bottom" : "model_5\/model_1\/model\/conv3_block4_add\/add_1",
      "weights" : {

      },
      "mode" : 0,
      "debug_info" : "model_5\/model_1\/model\/conv3_block4_out\/Relu_1",
      "top" : "model_5\/model_1\/model\/conv3_block4_out\/Relu_1",
      "type" : "activation",
      "name" : "model_5\/model_1\/model\/conv3_block4_out\/Relu_1"
    },
    {
      "pad_r" : 0,
      "fused_relu" : 0,
      "fused_tanh" : 0,
      "debug_info" : "model_5\/model_1\/model\/conv4_block1_0_bn\/FusedBatchNormV3_nchw",
      "pad_fill_mode" : 0,
      "pad_b" : 0,
      "pad_l" : 0,
      "top" : "model_5\/model_1\/model\/conv4_block1_0_bn\/FusedBatchNormV3_nchw",
      "blob_weights" : 231,
      "K" : 512,
      "blob_biases" : 229,
      "stride_x" : 2,
      "name" : "model_5\/model_1\/model\/conv4_block1_0_bn\/FusedBatchNormV3_nchw",
      "has_batch_norm" : 0,
      "type" : "convolution",
      "n_groups" : 1,
      "pad_t" : 0,
      "stride_y" : 2,
      "has_biases" : 1,
      "C" : 1024,
      "bottom" : "model_5\/model_1\/model\/conv3_block4_out\/Relu",
      "weights" : {

      },
      "Nx" : 1,
      "pad_mode" : 0,
      "pad_value" : 0,
      "Ny" : 1,
      "n_parallel" : 1
    },
    {
      "pad_r" : 0,
      "fused_relu" : 1,
      "fused_tanh" : 0,
      "debug_info" : "model_5\/model_1\/model\/conv4_block1_1_bn\/FusedBatchNormV3_nchw",
      "pad_fill_mode" : 0,
      "pad_b" : 0,
      "pad_l" : 0,
      "top" : "model_5\/model_1\/model\/conv4_block1_1_relu\/Relu",
      "blob_weights" : 235,
      "K" : 512,
      "blob_biases" : 233,
      "stride_x" : 2,
      "name" : "model_5\/model_1\/model\/conv4_block1_1_bn\/FusedBatchNormV3_nchw",
      "has_batch_norm" : 0,
      "type" : "convolution",
      "n_groups" : 1,
      "pad_t" : 0,
      "stride_y" : 2,
      "has_biases" : 1,
      "C" : 256,
      "bottom" : "model_5\/model_1\/model\/conv3_block4_out\/Relu",
      "weights" : {

      },
      "Nx" : 1,
      "pad_mode" : 0,
      "pad_value" : 0,
      "Ny" : 1,
      "n_parallel" : 1
    },
    {
      "weights" : {

      },
      "debug_info" : "model_5\/model_1\/concatenate_1\/concat",
      "top" : "model_5\/model_1\/concatenate_1\/concat",
      "type" : "concat",
      "name" : "model_5\/model_1\/concatenate_1\/concat",
      "bottom" : "model_5\/model_1\/model\/conv3_block4_out\/Relu,model_5\/model_1\/model\/conv3_block4_out\/Relu_1"
    },
    {
      "pad_r" : 0,
      "fused_relu" : 0,
      "fused_tanh" : 0,
      "debug_info" : "model_5\/model_1\/model\/conv4_block1_0_bn\/FusedBatchNormV3_1_nchw",
      "pad_fill_mode" : 0,
      "pad_b" : 0,
      "pad_l" : 0,
      "top" : "model_5\/model_1\/model\/conv4_block1_0_bn\/FusedBatchNormV3_1_nchw",
      "blob_weights" : 239,
      "K" : 512,
      "blob_biases" : 237,
      "stride_x" : 2,
      "name" : "model_5\/model_1\/model\/conv4_block1_0_bn\/FusedBatchNormV3_1_nchw",
      "has_batch_norm" : 0,
      "type" : "convolution",
      "n_groups" : 1,
      "pad_t" : 0,
      "stride_y" : 2,
      "has_biases" : 1,
      "C" : 1024,
      "bottom" : "model_5\/model_1\/model\/conv3_block4_out\/Relu_1",
      "weights" : {

      },
      "Nx" : 1,
      "pad_mode" : 0,
      "pad_value" : 0,
      "Ny" : 1,
      "n_parallel" : 1
    },
    {
      "pad_r" : 0,
      "fused_relu" : 1,
      "fused_tanh" : 0,
      "debug_info" : "model_5\/model_1\/model\/conv4_block1_1_bn\/FusedBatchNormV3_1_nchw",
      "pad_fill_mode" : 0,
      "pad_b" : 0,
      "pad_l" : 0,
      "top" : "model_5\/model_1\/model\/conv4_block1_1_relu\/Relu_1",
      "blob_weights" : 243,
      "K" : 512,
      "blob_biases" : 241,
      "stride_x" : 2,
      "name" : "model_5\/model_1\/model\/conv4_block1_1_bn\/FusedBatchNormV3_1_nchw",
      "has_batch_norm" : 0,
      "type" : "convolution",
      "n_groups" : 1,
      "pad_t" : 0,
      "stride_y" : 2,
      "has_biases" : 1,
      "C" : 256,
      "bottom" : "model_5\/model_1\/model\/conv3_block4_out\/Relu_1",
      "weights" : {

      },
      "Nx" : 1,
      "pad_mode" : 0,
      "pad_value" : 0,
      "Ny" : 1,
      "n_parallel" : 1
    },
    {
      "name" : "model_5\/model_1\/sequential_1\/batch_normalization_6\/FusedBatchNormV3_nchw",
      "bottom" : "model_5\/model_1\/concatenate_1\/concat",
      "weights" : {

      },
      "debug_info" : "model_5\/model_1\/sequential_1\/batch_normalization_6\/FusedBatchNormV3_nchw",
      "top" : "model_5\/model_1\/sequential_1\/batch_normalization_6\/FusedBatchNormV3_nchw",
      "C" : 1024,
      "blob_batchnorm_params" : 245,
      "type" : "batchnorm"
    },
    {
      "pad_r" : 0,
      "fused_relu" : 1,
      "fused_tanh" : 0,
      "debug_info" : "model_5\/model_1\/sequential_1\/conv2d_1\/BiasAdd",
      "pad_fill_mode" : 0,
      "pad_b" : 0,
      "pad_l" : 0,
      "top" : "model_5\/model_1\/sequential_1\/re_lu_5\/Relu",
      "blob_weights" : 249,
      "K" : 1024,
      "blob_biases" : 247,
      "name" : "model_5\/model_1\/sequential_1\/conv2d_1\/BiasAdd",
      "has_batch_norm" : 0,
      "type" : "convolution",
      "n_groups" : 1,
      "pad_t" : 0,
      "has_biases" : 1,
      "C" : 1,
      "bottom" : "model_5\/model_1\/sequential_1\/batch_normalization_6\/FusedBatchNormV3_nchw",
      "weights" : {

      },
      "Nx" : 1,
      "pad_mode" : 0,
      "pad_value" : 0,
      "Ny" : 1,
      "n_parallel" : 1
    },
    {
      "pad_r" : 0,
      "fused_relu" : 1,
      "fused_tanh" : 0,
      "debug_info" : "model_5\/model_1\/model\/conv4_block1_2_bn\/FusedBatchNormV3_nchw",
      "pad_fill_mode" : 0,
      "pad_b" : 0,
      "pad_l" : 0,
      "top" : "model_5\/model_1\/model\/conv4_block1_2_relu\/Relu",
      "blob_weights" : 253,
      "K" : 256,
      "blob_biases" : 251,
      "name" : "model_5\/model_1\/model\/conv4_block1_2_bn\/FusedBatchNormV3_nchw",
      "has_batch_norm" : 0,
      "type" : "convolution",
      "n_groups" : 1,
      "pad_t" : 0,
      "has_biases" : 1,
      "C" : 256,
      "bottom" : "model_5\/model_1\/model\/conv4_block1_1_relu\/Relu",
      "weights" : {

      },
      "Nx" : 3,
      "pad_mode" : 1,
      "pad_value" : 0,
      "Ny" : 3,
      "n_parallel" : 1
    },
    {
      "pad_r" : 0,
      "fused_relu" : 1,
      "fused_tanh" : 0,
      "debug_info" : "model_5\/model_1\/model\/conv4_block1_2_bn\/FusedBatchNormV3_1_nchw",
      "pad_fill_mode" : 0,
      "pad_b" : 0,
      "pad_l" : 0,
      "top" : "model_5\/model_1\/model\/conv4_block1_2_relu\/Relu_1",
      "blob_weights" : 257,
      "K" : 256,
      "blob_biases" : 255,
      "name" : "model_5\/model_1\/model\/conv4_block1_2_bn\/FusedBatchNormV3_1_nchw",
      "has_batch_norm" : 0,
      "type" : "convolution",
      "n_groups" : 1,
      "pad_t" : 0,
      "has_biases" : 1,
      "C" : 256,
      "bottom" : "model_5\/model_1\/model\/conv4_block1_1_relu\/Relu_1",
      "weights" : {

      },
      "Nx" : 3,
      "pad_mode" : 1,
      "pad_value" : 0,
      "Ny" : 3,
      "n_parallel" : 1
    },
    {
      "name" : "model_5\/model_1\/sequential_1\/batch_normalization_7\/FusedBatchNormV3_nchw",
      "bottom" : "model_5\/model_1\/sequential_1\/re_lu_5\/Relu",
      "weights" : {

      },
      "debug_info" : "model_5\/model_1\/sequential_1\/batch_normalization_7\/FusedBatchNormV3_nchw",
      "top" : "model_5\/model_1\/sequential_1\/batch_normalization_7\/FusedBatchNormV3_nchw",
      "C" : 1,
      "blob_batchnorm_params" : 259,
      "type" : "batchnorm"
    },
    {
      "pad_r" : 0,
      "fused_relu" : 0,
      "fused_tanh" : 0,
      "debug_info" : "model_5\/model_1\/model\/conv4_block1_3_bn\/FusedBatchNormV3_nchw",
      "pad_fill_mode" : 0,
      "pad_b" : 0,
      "pad_l" : 0,
      "top" : "model_5\/model_1\/model\/conv4_block1_3_bn\/FusedBatchNormV3_nchw",
      "blob_weights" : 263,
      "K" : 256,
      "blob_biases" : 261,
      "name" : "model_5\/model_1\/model\/conv4_block1_3_bn\/FusedBatchNormV3_nchw",
      "has_batch_norm" : 0,
      "type" : "convolution",
      "n_groups" : 1,
      "pad_t" : 0,
      "has_biases" : 1,
      "C" : 1024,
      "bottom" : "model_5\/model_1\/model\/conv4_block1_2_relu\/Relu",
      "weights" : {

      },
      "Nx" : 1,
      "pad_mode" : 0,
      "pad_value" : 0,
      "Ny" : 1,
      "n_parallel" : 1
    },
    {
      "pad_r" : 0,
      "fused_relu" : 0,
      "fused_tanh" : 0,
      "debug_info" : "model_5\/model_1\/model\/conv4_block1_3_bn\/FusedBatchNormV3_1_nchw",
      "pad_fill_mode" : 0,
      "pad_b" : 0,
      "pad_l" : 0,
      "top" : "model_5\/model_1\/model\/conv4_block1_3_bn\/FusedBatchNormV3_1_nchw",
      "blob_weights" : 267,
      "K" : 256,
      "blob_biases" : 265,
      "name" : "model_5\/model_1\/model\/conv4_block1_3_bn\/FusedBatchNormV3_1_nchw",
      "has_batch_norm" : 0,
      "type" : "convolution",
      "n_groups" : 1,
      "pad_t" : 0,
      "has_biases" : 1,
      "C" : 1024,
      "bottom" : "model_5\/model_1\/model\/conv4_block1_2_relu\/Relu_1",
      "weights" : {

      },
      "Nx" : 1,
      "pad_mode" : 0,
      "pad_value" : 0,
      "Ny" : 1,
      "n_parallel" : 1
    },
    {
      "pad_r" : 0,
      "fused_relu" : 1,
      "fused_tanh" : 0,
      "debug_info" : "model_5\/model_1\/sequential_1\/conv2d_transpose_5\/BiasAdd",
      "pad_fill_mode" : 0,
      "pad_b" : 0,
      "pad_l" : 0,
      "top" : "model_5\/model_1\/sequential_1\/re_lu_6\/Relu",
      "blob_weights" : 271,
      "K" : 1,
      "blob_biases" : 269,
      "name" : "model_5\/model_1\/sequential_1\/conv2d_transpose_5\/BiasAdd",
      "deconv_out_height" : 56,
      "has_batch_norm" : 0,
      "type" : "deconvolution",
      "n_groups" : 1,
      "pad_t" : 0,
      "has_biases" : 1,
      "C" : 16,
      "bottom" : "model_5\/model_1\/sequential_1\/batch_normalization_7\/FusedBatchNormV3_nchw",
      "weights" : {

      },
      "Nx" : 3,
      "pad_mode" : 1,
      "deconv_out_width" : 56,
      "pad_value" : 0,
      "Ny" : 3,
      "n_parallel" : 1
    },
    {
      "bottom" : "model_5\/model_1\/model\/conv4_block1_0_bn\/FusedBatchNormV3_nchw,model_5\/model_1\/model\/conv4_block1_3_bn\/FusedBatchNormV3_nchw",
      "alpha" : 1,
      "operation" : 0,
      "weights" : {

      },
      "fused_relu" : 0,
      "debug_info" : "model_5\/model_1\/model\/conv4_block1_add\/add",
      "top" : "model_5\/model_1\/model\/conv4_block1_add\/add",
      "type" : "elementwise",
      "name" : "model_5\/model_1\/model\/conv4_block1_add\/add",
      "beta" : 0
    },
    {
      "bottom" : "model_5\/model_1\/model\/conv4_block1_0_bn\/FusedBatchNormV3_1_nchw,model_5\/model_1\/model\/conv4_block1_3_bn\/FusedBatchNormV3_1_nchw",
      "alpha" : 1,
      "operation" : 0,
      "weights" : {

      },
      "fused_relu" : 0,
      "debug_info" : "model_5\/model_1\/model\/conv4_block1_add\/add_1",
      "top" : "model_5\/model_1\/model\/conv4_block1_add\/add_1",
      "type" : "elementwise",
      "name" : "model_5\/model_1\/model\/conv4_block1_add\/add_1",
      "beta" : 0
    },
    {
      "bottom" : "model_5\/model_1\/model\/conv4_block1_add\/add",
      "weights" : {

      },
      "mode" : 0,
      "debug_info" : "model_5\/model_1\/model\/conv4_block1_out\/Relu",
      "top" : "model_5\/model_1\/model\/conv4_block1_out\/Relu",
      "type" : "activation",
      "name" : "model_5\/model_1\/model\/conv4_block1_out\/Relu"
    },
    {
      "name" : "model_5\/model_1\/sequential_1\/batch_normalization_8\/FusedBatchNormV3_nchw",
      "bottom" : "model_5\/model_1\/sequential_1\/re_lu_6\/Relu",
      "weights" : {

      },
      "debug_info" : "model_5\/model_1\/sequential_1\/batch_normalization_8\/FusedBatchNormV3_nchw",
      "top" : "model_5\/model_1\/sequential_1\/batch_normalization_8\/FusedBatchNormV3_nchw",
      "C" : 16,
      "blob_batchnorm_params" : 273,
      "type" : "batchnorm"
    },
    {
      "bottom" : "model_5\/model_1\/model\/conv4_block1_add\/add_1",
      "weights" : {

      },
      "mode" : 0,
      "debug_info" : "model_5\/model_1\/model\/conv4_block1_out\/Relu_1",
      "top" : "model_5\/model_1\/model\/conv4_block1_out\/Relu_1",
      "type" : "activation",
      "name" : "model_5\/model_1\/model\/conv4_block1_out\/Relu_1"
    },
    {
      "pad_r" : 0,
      "fused_relu" : 1,
      "fused_tanh" : 0,
      "debug_info" : "model_5\/model_1\/model\/conv4_block2_1_bn\/FusedBatchNormV3_nchw",
      "pad_fill_mode" : 0,
      "pad_b" : 0,
      "pad_l" : 0,
      "top" : "model_5\/model_1\/model\/conv4_block2_1_relu\/Relu",
      "blob_weights" : 277,
      "K" : 1024,
      "blob_biases" : 275,
      "name" : "model_5\/model_1\/model\/conv4_block2_1_bn\/FusedBatchNormV3_nchw",
      "has_batch_norm" : 0,
      "type" : "convolution",
      "n_groups" : 1,
      "pad_t" : 0,
      "has_biases" : 1,
      "C" : 256,
      "bottom" : "model_5\/model_1\/model\/conv4_block1_out\/Relu",
      "weights" : {

      },
      "Nx" : 1,
      "pad_mode" : 0,
      "pad_value" : 0,
      "Ny" : 1,
      "n_parallel" : 1
    },
    {
      "pad_r" : 0,
      "fused_relu" : 1,
      "fused_tanh" : 0,
      "debug_info" : "model_5\/model_1\/model\/conv4_block2_1_bn\/FusedBatchNormV3_1_nchw",
      "pad_fill_mode" : 0,
      "pad_b" : 0,
      "pad_l" : 0,
      "top" : "model_5\/model_1\/model\/conv4_block2_1_relu\/Relu_1",
      "blob_weights" : 281,
      "K" : 1024,
      "blob_biases" : 279,
      "name" : "model_5\/model_1\/model\/conv4_block2_1_bn\/FusedBatchNormV3_1_nchw",
      "has_batch_norm" : 0,
      "type" : "convolution",
      "n_groups" : 1,
      "pad_t" : 0,
      "has_biases" : 1,
      "C" : 256,
      "bottom" : "model_5\/model_1\/model\/conv4_block1_out\/Relu_1",
      "weights" : {

      },
      "Nx" : 1,
      "pad_mode" : 0,
      "pad_value" : 0,
      "Ny" : 1,
      "n_parallel" : 1
    },
    {
      "pad_r" : 0,
      "fused_relu" : 1,
      "fused_tanh" : 0,
      "debug_info" : "model_5\/model_1\/sequential_1\/conv2d_transpose_6\/BiasAdd",
      "pad_fill_mode" : 0,
      "pad_b" : 0,
      "pad_l" : 0,
      "top" : "model_5\/model_1\/sequential_1\/re_lu_7\/Relu",
      "blob_weights" : 285,
      "K" : 16,
      "blob_biases" : 283,
      "name" : "model_5\/model_1\/sequential_1\/conv2d_transpose_6\/BiasAdd",
      "deconv_out_height" : 56,
      "has_batch_norm" : 0,
      "type" : "deconvolution",
      "n_groups" : 1,
      "pad_t" : 0,
      "has_biases" : 1,
      "C" : 16,
      "bottom" : "model_5\/model_1\/sequential_1\/batch_normalization_8\/FusedBatchNormV3_nchw",
      "weights" : {

      },
      "Nx" : 3,
      "pad_mode" : 1,
      "deconv_out_width" : 56,
      "pad_value" : 0,
      "Ny" : 3,
      "n_parallel" : 1
    },
    {
      "pad_r" : 0,
      "fused_relu" : 1,
      "fused_tanh" : 0,
      "debug_info" : "model_5\/model_1\/model\/conv4_block2_2_bn\/FusedBatchNormV3_nchw",
      "pad_fill_mode" : 0,
      "pad_b" : 0,
      "pad_l" : 0,
      "top" : "model_5\/model_1\/model\/conv4_block2_2_relu\/Relu",
      "blob_weights" : 289,
      "K" : 256,
      "blob_biases" : 287,
      "name" : "model_5\/model_1\/model\/conv4_block2_2_bn\/FusedBatchNormV3_nchw",
      "has_batch_norm" : 0,
      "type" : "convolution",
      "n_groups" : 1,
      "pad_t" : 0,
      "has_biases" : 1,
      "C" : 256,
      "bottom" : "model_5\/model_1\/model\/conv4_block2_1_relu\/Relu",
      "weights" : {

      },
      "Nx" : 3,
      "pad_mode" : 1,
      "pad_value" : 0,
      "Ny" : 3,
      "n_parallel" : 1
    },
    {
      "pad_r" : 0,
      "fused_relu" : 1,
      "fused_tanh" : 0,
      "debug_info" : "model_5\/model_1\/model\/conv4_block2_2_bn\/FusedBatchNormV3_1_nchw",
      "pad_fill_mode" : 0,
      "pad_b" : 0,
      "pad_l" : 0,
      "top" : "model_5\/model_1\/model\/conv4_block2_2_relu\/Relu_1",
      "blob_weights" : 293,
      "K" : 256,
      "blob_biases" : 291,
      "name" : "model_5\/model_1\/model\/conv4_block2_2_bn\/FusedBatchNormV3_1_nchw",
      "has_batch_norm" : 0,
      "type" : "convolution",
      "n_groups" : 1,
      "pad_t" : 0,
      "has_biases" : 1,
      "C" : 256,
      "bottom" : "model_5\/model_1\/model\/conv4_block2_1_relu\/Relu_1",
      "weights" : {

      },
      "Nx" : 3,
      "pad_mode" : 1,
      "pad_value" : 0,
      "Ny" : 3,
      "n_parallel" : 1
    },
    {
      "name" : "model_5\/model_1\/sequential_1\/batch_normalization_9\/FusedBatchNormV3_nchw",
      "bottom" : "model_5\/model_1\/sequential_1\/re_lu_7\/Relu",
      "weights" : {

      },
      "debug_info" : "model_5\/model_1\/sequential_1\/batch_normalization_9\/FusedBatchNormV3_nchw",
      "top" : "model_5\/model_1\/sequential_1\/batch_normalization_9\/FusedBatchNormV3_nchw",
      "C" : 16,
      "blob_batchnorm_params" : 295,
      "type" : "batchnorm"
    },
    {
      "pad_r" : 0,
      "fused_relu" : 0,
      "fused_tanh" : 0,
      "debug_info" : "model_5\/model_1\/model\/conv4_block2_3_bn\/FusedBatchNormV3_nchw",
      "pad_fill_mode" : 0,
      "pad_b" : 0,
      "pad_l" : 0,
      "top" : "model_5\/model_1\/model\/conv4_block2_3_bn\/FusedBatchNormV3_nchw",
      "blob_weights" : 299,
      "K" : 256,
      "blob_biases" : 297,
      "name" : "model_5\/model_1\/model\/conv4_block2_3_bn\/FusedBatchNormV3_nchw",
      "has_batch_norm" : 0,
      "type" : "convolution",
      "n_groups" : 1,
      "pad_t" : 0,
      "has_biases" : 1,
      "C" : 1024,
      "bottom" : "model_5\/model_1\/model\/conv4_block2_2_relu\/Relu",
      "weights" : {

      },
      "Nx" : 1,
      "pad_mode" : 0,
      "pad_value" : 0,
      "Ny" : 1,
      "n_parallel" : 1
    },
    {
      "pad_r" : 0,
      "fused_relu" : 0,
      "fused_tanh" : 0,
      "debug_info" : "model_5\/model_1\/model\/conv4_block2_3_bn\/FusedBatchNormV3_1_nchw",
      "pad_fill_mode" : 0,
      "pad_b" : 0,
      "pad_l" : 0,
      "top" : "model_5\/model_1\/model\/conv4_block2_3_bn\/FusedBatchNormV3_1_nchw",
      "blob_weights" : 303,
      "K" : 256,
      "blob_biases" : 301,
      "name" : "model_5\/model_1\/model\/conv4_block2_3_bn\/FusedBatchNormV3_1_nchw",
      "has_batch_norm" : 0,
      "type" : "convolution",
      "n_groups" : 1,
      "pad_t" : 0,
      "has_biases" : 1,
      "C" : 1024,
      "bottom" : "model_5\/model_1\/model\/conv4_block2_2_relu\/Relu_1",
      "weights" : {

      },
      "Nx" : 1,
      "pad_mode" : 0,
      "pad_value" : 0,
      "Ny" : 1,
      "n_parallel" : 1
    },
    {
      "pad_r" : 0,
      "fused_relu" : 1,
      "fused_tanh" : 0,
      "debug_info" : "model_5\/model_1\/sequential_1\/conv2d_transpose_7\/BiasAdd",
      "pad_fill_mode" : 0,
      "pad_b" : 0,
      "pad_l" : 0,
      "top" : "model_5\/model_1\/sequential_1\/re_lu_8\/Relu",
      "blob_weights" : 307,
      "K" : 16,
      "blob_biases" : 305,
      "name" : "model_5\/model_1\/sequential_1\/conv2d_transpose_7\/BiasAdd",
      "deconv_out_height" : 56,
      "has_batch_norm" : 0,
      "type" : "deconvolution",
      "n_groups" : 1,
      "pad_t" : 0,
      "has_biases" : 1,
      "C" : 32,
      "bottom" : "model_5\/model_1\/sequential_1\/batch_normalization_9\/FusedBatchNormV3_nchw",
      "weights" : {

      },
      "Nx" : 3,
      "pad_mode" : 1,
      "deconv_out_width" : 56,
      "pad_value" : 0,
      "Ny" : 3,
      "n_parallel" : 1
    },
    {
      "bottom" : "model_5\/model_1\/model\/conv4_block1_out\/Relu,model_5\/model_1\/model\/conv4_block2_3_bn\/FusedBatchNormV3_nchw",
      "alpha" : 1,
      "operation" : 0,
      "weights" : {

      },
      "fused_relu" : 0,
      "debug_info" : "model_5\/model_1\/model\/conv4_block2_add\/add",
      "top" : "model_5\/model_1\/model\/conv4_block2_add\/add",
      "type" : "elementwise",
      "name" : "model_5\/model_1\/model\/conv4_block2_add\/add",
      "beta" : 0
    },
    {
      "bottom" : "model_5\/model_1\/model\/conv4_block1_out\/Relu_1,model_5\/model_1\/model\/conv4_block2_3_bn\/FusedBatchNormV3_1_nchw",
      "alpha" : 1,
      "operation" : 0,
      "weights" : {

      },
      "fused_relu" : 0,
      "debug_info" : "model_5\/model_1\/model\/conv4_block2_add\/add_1",
      "top" : "model_5\/model_1\/model\/conv4_block2_add\/add_1",
      "type" : "elementwise",
      "name" : "model_5\/model_1\/model\/conv4_block2_add\/add_1",
      "beta" : 0
    },
    {
      "bottom" : "model_5\/model_1\/model\/conv4_block2_add\/add",
      "weights" : {

      },
      "mode" : 0,
      "debug_info" : "model_5\/model_1\/model\/conv4_block2_out\/Relu",
      "top" : "model_5\/model_1\/model\/conv4_block2_out\/Relu",
      "type" : "activation",
      "name" : "model_5\/model_1\/model\/conv4_block2_out\/Relu"
    },
    {
      "bottom" : "model_5\/model_1\/model\/conv4_block2_add\/add_1",
      "weights" : {

      },
      "mode" : 0,
      "debug_info" : "model_5\/model_1\/model\/conv4_block2_out\/Relu_1",
      "top" : "model_5\/model_1\/model\/conv4_block2_out\/Relu_1",
      "type" : "activation",
      "name" : "model_5\/model_1\/model\/conv4_block2_out\/Relu_1"
    },
    {
      "pad_r" : 0,
      "fused_relu" : 1,
      "fused_tanh" : 0,
      "debug_info" : "model_5\/model_1\/model\/conv4_block3_1_bn\/FusedBatchNormV3_nchw",
      "pad_fill_mode" : 0,
      "pad_b" : 0,
      "pad_l" : 0,
      "top" : "model_5\/model_1\/model\/conv4_block3_1_relu\/Relu",
      "blob_weights" : 311,
      "K" : 1024,
      "blob_biases" : 309,
      "name" : "model_5\/model_1\/model\/conv4_block3_1_bn\/FusedBatchNormV3_nchw",
      "has_batch_norm" : 0,
      "type" : "convolution",
      "n_groups" : 1,
      "pad_t" : 0,
      "has_biases" : 1,
      "C" : 256,
      "bottom" : "model_5\/model_1\/model\/conv4_block2_out\/Relu",
      "weights" : {

      },
      "Nx" : 1,
      "pad_mode" : 0,
      "pad_value" : 0,
      "Ny" : 1,
      "n_parallel" : 1
    },
    {
      "name" : "model_5\/model_1\/sequential_1\/batch_normalization_10\/FusedBatchNormV3_nchw",
      "bottom" : "model_5\/model_1\/sequential_1\/re_lu_8\/Relu",
      "weights" : {

      },
      "debug_info" : "model_5\/model_1\/sequential_1\/batch_normalization_10\/FusedBatchNormV3_nchw",
      "top" : "model_5\/model_1\/sequential_1\/batch_normalization_10\/FusedBatchNormV3_nchw",
      "C" : 32,
      "blob_batchnorm_params" : 313,
      "type" : "batchnorm"
    },
    {
      "pad_r" : 0,
      "fused_relu" : 1,
      "fused_tanh" : 0,
      "debug_info" : "model_5\/model_1\/model\/conv4_block3_1_bn\/FusedBatchNormV3_1_nchw",
      "pad_fill_mode" : 0,
      "pad_b" : 0,
      "pad_l" : 0,
      "top" : "model_5\/model_1\/model\/conv4_block3_1_relu\/Relu_1",
      "blob_weights" : 317,
      "K" : 1024,
      "blob_biases" : 315,
      "name" : "model_5\/model_1\/model\/conv4_block3_1_bn\/FusedBatchNormV3_1_nchw",
      "has_batch_norm" : 0,
      "type" : "convolution",
      "n_groups" : 1,
      "pad_t" : 0,
      "has_biases" : 1,
      "C" : 256,
      "bottom" : "model_5\/model_1\/model\/conv4_block2_out\/Relu_1",
      "weights" : {

      },
      "Nx" : 1,
      "pad_mode" : 0,
      "pad_value" : 0,
      "Ny" : 1,
      "n_parallel" : 1
    },
    {
      "pad_r" : 0,
      "fused_relu" : 1,
      "fused_tanh" : 0,
      "debug_info" : "model_5\/model_1\/model\/conv4_block3_2_bn\/FusedBatchNormV3_nchw",
      "pad_fill_mode" : 0,
      "pad_b" : 0,
      "pad_l" : 0,
      "top" : "model_5\/model_1\/model\/conv4_block3_2_relu\/Relu",
      "blob_weights" : 321,
      "K" : 256,
      "blob_biases" : 319,
      "name" : "model_5\/model_1\/model\/conv4_block3_2_bn\/FusedBatchNormV3_nchw",
      "has_batch_norm" : 0,
      "type" : "convolution",
      "n_groups" : 1,
      "pad_t" : 0,
      "has_biases" : 1,
      "C" : 256,
      "bottom" : "model_5\/model_1\/model\/conv4_block3_1_relu\/Relu",
      "weights" : {

      },
      "Nx" : 3,
      "pad_mode" : 1,
      "pad_value" : 0,
      "Ny" : 3,
      "n_parallel" : 1
    },
    {
      "pad_r" : 0,
      "fused_relu" : 1,
      "fused_tanh" : 0,
      "debug_info" : "model_5\/model_1\/sequential_1\/conv2d_transpose_8\/BiasAdd",
      "pad_fill_mode" : 0,
      "pad_b" : 0,
      "pad_l" : 0,
      "top" : "model_5\/model_1\/sequential_1\/re_lu_9\/Relu",
      "blob_weights" : 325,
      "K" : 32,
      "blob_biases" : 323,
      "name" : "model_5\/model_1\/sequential_1\/conv2d_transpose_8\/BiasAdd",
      "deconv_out_height" : 56,
      "has_batch_norm" : 0,
      "type" : "deconvolution",
      "n_groups" : 1,
      "pad_t" : 0,
      "has_biases" : 1,
      "C" : 64,
      "bottom" : "model_5\/model_1\/sequential_1\/batch_normalization_10\/FusedBatchNormV3_nchw",
      "weights" : {

      },
      "Nx" : 3,
      "pad_mode" : 1,
      "deconv_out_width" : 56,
      "pad_value" : 0,
      "Ny" : 3,
      "n_parallel" : 1
    },
    {
      "pad_r" : 0,
      "fused_relu" : 1,
      "fused_tanh" : 0,
      "debug_info" : "model_5\/model_1\/model\/conv4_block3_2_bn\/FusedBatchNormV3_1_nchw",
      "pad_fill_mode" : 0,
      "pad_b" : 0,
      "pad_l" : 0,
      "top" : "model_5\/model_1\/model\/conv4_block3_2_relu\/Relu_1",
      "blob_weights" : 329,
      "K" : 256,
      "blob_biases" : 327,
      "name" : "model_5\/model_1\/model\/conv4_block3_2_bn\/FusedBatchNormV3_1_nchw",
      "has_batch_norm" : 0,
      "type" : "convolution",
      "n_groups" : 1,
      "pad_t" : 0,
      "has_biases" : 1,
      "C" : 256,
      "bottom" : "model_5\/model_1\/model\/conv4_block3_1_relu\/Relu_1",
      "weights" : {

      },
      "Nx" : 3,
      "pad_mode" : 1,
      "pad_value" : 0,
      "Ny" : 3,
      "n_parallel" : 1
    },
    {
      "name" : "model_5\/model_1\/sequential_1\/batch_normalization_11\/FusedBatchNormV3_nchw",
      "bottom" : "model_5\/model_1\/sequential_1\/re_lu_9\/Relu",
      "weights" : {

      },
      "debug_info" : "model_5\/model_1\/sequential_1\/batch_normalization_11\/FusedBatchNormV3_nchw",
      "top" : "model_5\/model_1\/sequential_1\/batch_normalization_11\/FusedBatchNormV3_nchw",
      "C" : 64,
      "blob_batchnorm_params" : 331,
      "type" : "batchnorm"
    },
    {
      "pad_r" : 0,
      "fused_relu" : 0,
      "fused_tanh" : 0,
      "debug_info" : "model_5\/model_1\/model\/conv4_block3_3_bn\/FusedBatchNormV3_nchw",
      "pad_fill_mode" : 0,
      "pad_b" : 0,
      "pad_l" : 0,
      "top" : "model_5\/model_1\/model\/conv4_block3_3_bn\/FusedBatchNormV3_nchw",
      "blob_weights" : 335,
      "K" : 256,
      "blob_biases" : 333,
      "name" : "model_5\/model_1\/model\/conv4_block3_3_bn\/FusedBatchNormV3_nchw",
      "has_batch_norm" : 0,
      "type" : "convolution",
      "n_groups" : 1,
      "pad_t" : 0,
      "has_biases" : 1,
      "C" : 1024,
      "bottom" : "model_5\/model_1\/model\/conv4_block3_2_relu\/Relu",
      "weights" : {

      },
      "Nx" : 1,
      "pad_mode" : 0,
      "pad_value" : 0,
      "Ny" : 1,
      "n_parallel" : 1
    },
    {
      "pad_r" : 0,
      "fused_relu" : 0,
      "fused_tanh" : 0,
      "debug_info" : "model_5\/model_1\/model\/conv4_block3_3_bn\/FusedBatchNormV3_1_nchw",
      "pad_fill_mode" : 0,
      "pad_b" : 0,
      "pad_l" : 0,
      "top" : "model_5\/model_1\/model\/conv4_block3_3_bn\/FusedBatchNormV3_1_nchw",
      "blob_weights" : 339,
      "K" : 256,
      "blob_biases" : 337,
      "name" : "model_5\/model_1\/model\/conv4_block3_3_bn\/FusedBatchNormV3_1_nchw",
      "has_batch_norm" : 0,
      "type" : "convolution",
      "n_groups" : 1,
      "pad_t" : 0,
      "has_biases" : 1,
      "C" : 1024,
      "bottom" : "model_5\/model_1\/model\/conv4_block3_2_relu\/Relu_1",
      "weights" : {

      },
      "Nx" : 1,
      "pad_mode" : 0,
      "pad_value" : 0,
      "Ny" : 1,
      "n_parallel" : 1
    },
    {
      "bottom" : "model_5\/model_1\/model\/conv4_block2_out\/Relu,model_5\/model_1\/model\/conv4_block3_3_bn\/FusedBatchNormV3_nchw",
      "alpha" : 1,
      "operation" : 0,
      "weights" : {

      },
      "fused_relu" : 0,
      "debug_info" : "model_5\/model_1\/model\/conv4_block3_add\/add",
      "top" : "model_5\/model_1\/model\/conv4_block3_add\/add",
      "type" : "elementwise",
      "name" : "model_5\/model_1\/model\/conv4_block3_add\/add",
      "beta" : 0
    },
    {
      "pad_r" : 0,
      "fused_relu" : 0,
      "fused_tanh" : 0,
      "debug_info" : "model_5\/model_1\/sequential_1\/conv2d_transpose_9\/BiasAdd",
      "pad_fill_mode" : 0,
      "pad_b" : 0,
      "pad_l" : 0,
      "top" : "model_5\/model_1\/sequential_1\/conv2d_transpose_9\/BiasAdd",
      "blob_weights" : 343,
      "K" : 64,
      "blob_biases" : 341,
      "name" : "model_5\/model_1\/sequential_1\/conv2d_transpose_9\/BiasAdd",
      "deconv_out_height" : 56,
      "has_batch_norm" : 0,
      "type" : "deconvolution",
      "n_groups" : 1,
      "pad_t" : 0,
      "has_biases" : 1,
      "C" : 1,
      "bottom" : "model_5\/model_1\/sequential_1\/batch_normalization_11\/FusedBatchNormV3_nchw",
      "weights" : {

      },
      "Nx" : 3,
      "pad_mode" : 1,
      "deconv_out_width" : 56,
      "pad_value" : 0,
      "Ny" : 3,
      "n_parallel" : 1
    },
    {
      "bottom" : "model_5\/model_1\/model\/conv4_block2_out\/Relu_1,model_5\/model_1\/model\/conv4_block3_3_bn\/FusedBatchNormV3_1_nchw",
      "alpha" : 1,
      "operation" : 0,
      "weights" : {

      },
      "fused_relu" : 0,
      "debug_info" : "model_5\/model_1\/model\/conv4_block3_add\/add_1",
      "top" : "model_5\/model_1\/model\/conv4_block3_add\/add_1",
      "type" : "elementwise",
      "name" : "model_5\/model_1\/model\/conv4_block3_add\/add_1",
      "beta" : 0
    },
    {
      "bottom" : "model_5\/model_1\/model\/conv4_block3_add\/add",
      "weights" : {

      },
      "mode" : 0,
      "debug_info" : "model_5\/model_1\/model\/conv4_block3_out\/Relu",
      "top" : "model_5\/model_1\/model\/conv4_block3_out\/Relu",
      "type" : "activation",
      "name" : "model_5\/model_1\/model\/conv4_block3_out\/Relu"
    },
    {
      "bottom" : "model_5\/model_1\/model\/conv4_block3_add\/add_1",
      "weights" : {

      },
      "mode" : 0,
      "debug_info" : "model_5\/model_1\/model\/conv4_block3_out\/Relu_1",
      "top" : "model_5\/model_1\/model\/conv4_block3_out\/Relu_1",
      "type" : "activation",
      "name" : "model_5\/model_1\/model\/conv4_block3_out\/Relu_1"
    },
    {
      "pad_r" : 0,
      "fused_relu" : 1,
      "fused_tanh" : 0,
      "debug_info" : "model_5\/model_1\/model\/conv4_block4_1_bn\/FusedBatchNormV3_nchw",
      "pad_fill_mode" : 0,
      "pad_b" : 0,
      "pad_l" : 0,
      "top" : "model_5\/model_1\/model\/conv4_block4_1_relu\/Relu",
      "blob_weights" : 347,
      "K" : 1024,
      "blob_biases" : 345,
      "name" : "model_5\/model_1\/model\/conv4_block4_1_bn\/FusedBatchNormV3_nchw",
      "has_batch_norm" : 0,
      "type" : "convolution",
      "n_groups" : 1,
      "pad_t" : 0,
      "has_biases" : 1,
      "C" : 256,
      "bottom" : "model_5\/model_1\/model\/conv4_block3_out\/Relu",
      "weights" : {

      },
      "Nx" : 1,
      "pad_mode" : 0,
      "pad_value" : 0,
      "Ny" : 1,
      "n_parallel" : 1
    },
    {
      "top" : "model_5\/model_1\/sequential_1\/up_sampling2d_1\/resize\/ResizeBilinear_channel_first_upsample_bilinear",
      "use_fractional_scale_factors" : false,
      "weights" : {

      },
      "fractional_scaling_factor_y" : 1,
      "type" : "upsample",
      "scaling_factor_x" : 8,
      "mode" : 1,
      "align_corners" : 0,
      "bottom" : "model_5\/model_1\/sequential_1\/conv2d_transpose_9\/BiasAdd",
      "debug_info" : "model_5\/model_1\/sequential_1\/up_sampling2d_1\/resize\/ResizeBilinear_channel_first_upsample_bilinear",
      "fractional_scaling_factor_x" : 1,
      "is_legacy_mode" : 0,
      "name" : "model_5\/model_1\/sequential_1\/up_sampling2d_1\/resize\/ResizeBilinear_channel_first_upsample_bilinear",
      "scaling_factor_y" : 8
    },
    {
      "pad_r" : 0,
      "fused_relu" : 1,
      "fused_tanh" : 0,
      "debug_info" : "model_5\/model_1\/model\/conv4_block4_1_bn\/FusedBatchNormV3_1_nchw",
      "pad_fill_mode" : 0,
      "pad_b" : 0,
      "pad_l" : 0,
      "top" : "model_5\/model_1\/model\/conv4_block4_1_relu\/Relu_1",
      "blob_weights" : 351,
      "K" : 1024,
      "blob_biases" : 349,
      "name" : "model_5\/model_1\/model\/conv4_block4_1_bn\/FusedBatchNormV3_1_nchw",
      "has_batch_norm" : 0,
      "type" : "convolution",
      "n_groups" : 1,
      "pad_t" : 0,
      "has_biases" : 1,
      "C" : 256,
      "bottom" : "model_5\/model_1\/model\/conv4_block3_out\/Relu_1",
      "weights" : {

      },
      "Nx" : 1,
      "pad_mode" : 0,
      "pad_value" : 0,
      "Ny" : 1,
      "n_parallel" : 1
    },
    {
      "bottom" : "model_5\/model_1\/sequential\/up_sampling2d\/resize\/ResizeBilinear_channel_first_upsample_bilinear,model_5\/model_1\/sequential_1\/up_sampling2d_1\/resize\/ResizeBilinear_channel_first_upsample_bilinear",
      "alpha" : 1,
      "operation" : 0,
      "weights" : {

      },
      "fused_relu" : 0,
      "debug_info" : "model_5\/model_1\/tf.__operators__.add\/AddV2",
      "top" : "model_5\/model_1\/tf.__operators__.add\/AddV2",
      "type" : "elementwise",
      "name" : "model_5\/model_1\/tf.__operators__.add\/AddV2",
      "beta" : 0
    },
    {
      "pad_r" : 0,
      "fused_relu" : 1,
      "fused_tanh" : 0,
      "debug_info" : "model_5\/model_1\/model\/conv4_block4_2_bn\/FusedBatchNormV3_nchw",
      "pad_fill_mode" : 0,
      "pad_b" : 0,
      "pad_l" : 0,
      "top" : "model_5\/model_1\/model\/conv4_block4_2_relu\/Relu",
      "blob_weights" : 355,
      "K" : 256,
      "blob_biases" : 353,
      "name" : "model_5\/model_1\/model\/conv4_block4_2_bn\/FusedBatchNormV3_nchw",
      "has_batch_norm" : 0,
      "type" : "convolution",
      "n_groups" : 1,
      "pad_t" : 0,
      "has_biases" : 1,
      "C" : 256,
      "bottom" : "model_5\/model_1\/model\/conv4_block4_1_relu\/Relu",
      "weights" : {

      },
      "Nx" : 3,
      "pad_mode" : 1,
      "pad_value" : 0,
      "Ny" : 3,
      "n_parallel" : 1
    },
    {
      "pad_r" : 0,
      "fused_relu" : 1,
      "fused_tanh" : 0,
      "debug_info" : "model_5\/model_1\/model\/conv4_block4_2_bn\/FusedBatchNormV3_1_nchw",
      "pad_fill_mode" : 0,
      "pad_b" : 0,
      "pad_l" : 0,
      "top" : "model_5\/model_1\/model\/conv4_block4_2_relu\/Relu_1",
      "blob_weights" : 359,
      "K" : 256,
      "blob_biases" : 357,
      "name" : "model_5\/model_1\/model\/conv4_block4_2_bn\/FusedBatchNormV3_1_nchw",
      "has_batch_norm" : 0,
      "type" : "convolution",
      "n_groups" : 1,
      "pad_t" : 0,
      "has_biases" : 1,
      "C" : 256,
      "bottom" : "model_5\/model_1\/model\/conv4_block4_1_relu\/Relu_1",
      "weights" : {

      },
      "Nx" : 3,
      "pad_mode" : 1,
      "pad_value" : 0,
      "Ny" : 3,
      "n_parallel" : 1
    },
    {
      "pad_r" : 0,
      "fused_relu" : 0,
      "fused_tanh" : 0,
      "debug_info" : "model_5\/model_1\/model\/conv4_block4_3_bn\/FusedBatchNormV3_nchw",
      "pad_fill_mode" : 0,
      "pad_b" : 0,
      "pad_l" : 0,
      "top" : "model_5\/model_1\/model\/conv4_block4_3_bn\/FusedBatchNormV3_nchw",
      "blob_weights" : 363,
      "K" : 256,
      "blob_biases" : 361,
      "name" : "model_5\/model_1\/model\/conv4_block4_3_bn\/FusedBatchNormV3_nchw",
      "has_batch_norm" : 0,
      "type" : "convolution",
      "n_groups" : 1,
      "pad_t" : 0,
      "has_biases" : 1,
      "C" : 1024,
      "bottom" : "model_5\/model_1\/model\/conv4_block4_2_relu\/Relu",
      "weights" : {

      },
      "Nx" : 1,
      "pad_mode" : 0,
      "pad_value" : 0,
      "Ny" : 1,
      "n_parallel" : 1
    },
    {
      "pad_r" : 0,
      "fused_relu" : 0,
      "fused_tanh" : 0,
      "debug_info" : "model_5\/model_1\/model\/conv4_block4_3_bn\/FusedBatchNormV3_1_nchw",
      "pad_fill_mode" : 0,
      "pad_b" : 0,
      "pad_l" : 0,
      "top" : "model_5\/model_1\/model\/conv4_block4_3_bn\/FusedBatchNormV3_1_nchw",
      "blob_weights" : 367,
      "K" : 256,
      "blob_biases" : 365,
      "name" : "model_5\/model_1\/model\/conv4_block4_3_bn\/FusedBatchNormV3_1_nchw",
      "has_batch_norm" : 0,
      "type" : "convolution",
      "n_groups" : 1,
      "pad_t" : 0,
      "has_biases" : 1,
      "C" : 1024,
      "bottom" : "model_5\/model_1\/model\/conv4_block4_2_relu\/Relu_1",
      "weights" : {

      },
      "Nx" : 1,
      "pad_mode" : 0,
      "pad_value" : 0,
      "Ny" : 1,
      "n_parallel" : 1
    },
    {
      "bottom" : "model_5\/model_1\/model\/conv4_block3_out\/Relu,model_5\/model_1\/model\/conv4_block4_3_bn\/FusedBatchNormV3_nchw",
      "alpha" : 1,
      "operation" : 0,
      "weights" : {

      },
      "fused_relu" : 0,
      "debug_info" : "model_5\/model_1\/model\/conv4_block4_add\/add",
      "top" : "model_5\/model_1\/model\/conv4_block4_add\/add",
      "type" : "elementwise",
      "name" : "model_5\/model_1\/model\/conv4_block4_add\/add",
      "beta" : 0
    },
    {
      "bottom" : "model_5\/model_1\/model\/conv4_block3_out\/Relu_1,model_5\/model_1\/model\/conv4_block4_3_bn\/FusedBatchNormV3_1_nchw",
      "alpha" : 1,
      "operation" : 0,
      "weights" : {

      },
      "fused_relu" : 0,
      "debug_info" : "model_5\/model_1\/model\/conv4_block4_add\/add_1",
      "top" : "model_5\/model_1\/model\/conv4_block4_add\/add_1",
      "type" : "elementwise",
      "name" : "model_5\/model_1\/model\/conv4_block4_add\/add_1",
      "beta" : 0
    },
    {
      "bottom" : "model_5\/model_1\/model\/conv4_block4_add\/add",
      "weights" : {

      },
      "mode" : 0,
      "debug_info" : "model_5\/model_1\/model\/conv4_block4_out\/Relu",
      "top" : "model_5\/model_1\/model\/conv4_block4_out\/Relu",
      "type" : "activation",
      "name" : "model_5\/model_1\/model\/conv4_block4_out\/Relu"
    },
    {
      "bottom" : "model_5\/model_1\/model\/conv4_block4_add\/add_1",
      "weights" : {

      },
      "mode" : 0,
      "debug_info" : "model_5\/model_1\/model\/conv4_block4_out\/Relu_1",
      "top" : "model_5\/model_1\/model\/conv4_block4_out\/Relu_1",
      "type" : "activation",
      "name" : "model_5\/model_1\/model\/conv4_block4_out\/Relu_1"
    },
    {
      "pad_r" : 0,
      "fused_relu" : 1,
      "fused_tanh" : 0,
      "debug_info" : "model_5\/model_1\/model\/conv4_block5_1_bn\/FusedBatchNormV3_nchw",
      "pad_fill_mode" : 0,
      "pad_b" : 0,
      "pad_l" : 0,
      "top" : "model_5\/model_1\/model\/conv4_block5_1_relu\/Relu",
      "blob_weights" : 371,
      "K" : 1024,
      "blob_biases" : 369,
      "name" : "model_5\/model_1\/model\/conv4_block5_1_bn\/FusedBatchNormV3_nchw",
      "has_batch_norm" : 0,
      "type" : "convolution",
      "n_groups" : 1,
      "pad_t" : 0,
      "has_biases" : 1,
      "C" : 256,
      "bottom" : "model_5\/model_1\/model\/conv4_block4_out\/Relu",
      "weights" : {

      },
      "Nx" : 1,
      "pad_mode" : 0,
      "pad_value" : 0,
      "Ny" : 1,
      "n_parallel" : 1
    },
    {
      "pad_r" : 0,
      "fused_relu" : 1,
      "fused_tanh" : 0,
      "debug_info" : "model_5\/model_1\/model\/conv4_block5_1_bn\/FusedBatchNormV3_1_nchw",
      "pad_fill_mode" : 0,
      "pad_b" : 0,
      "pad_l" : 0,
      "top" : "model_5\/model_1\/model\/conv4_block5_1_relu\/Relu_1",
      "blob_weights" : 375,
      "K" : 1024,
      "blob_biases" : 373,
      "name" : "model_5\/model_1\/model\/conv4_block5_1_bn\/FusedBatchNormV3_1_nchw",
      "has_batch_norm" : 0,
      "type" : "convolution",
      "n_groups" : 1,
      "pad_t" : 0,
      "has_biases" : 1,
      "C" : 256,
      "bottom" : "model_5\/model_1\/model\/conv4_block4_out\/Relu_1",
      "weights" : {

      },
      "Nx" : 1,
      "pad_mode" : 0,
      "pad_value" : 0,
      "Ny" : 1,
      "n_parallel" : 1
    },
    {
      "pad_r" : 0,
      "fused_relu" : 1,
      "fused_tanh" : 0,
      "debug_info" : "model_5\/model_1\/model\/conv4_block5_2_bn\/FusedBatchNormV3_nchw",
      "pad_fill_mode" : 0,
      "pad_b" : 0,
      "pad_l" : 0,
      "top" : "model_5\/model_1\/model\/conv4_block5_2_relu\/Relu",
      "blob_weights" : 379,
      "K" : 256,
      "blob_biases" : 377,
      "name" : "model_5\/model_1\/model\/conv4_block5_2_bn\/FusedBatchNormV3_nchw",
      "has_batch_norm" : 0,
      "type" : "convolution",
      "n_groups" : 1,
      "pad_t" : 0,
      "has_biases" : 1,
      "C" : 256,
      "bottom" : "model_5\/model_1\/model\/conv4_block5_1_relu\/Relu",
      "weights" : {

      },
      "Nx" : 3,
      "pad_mode" : 1,
      "pad_value" : 0,
      "Ny" : 3,
      "n_parallel" : 1
    },
    {
      "pad_r" : 0,
      "fused_relu" : 1,
      "fused_tanh" : 0,
      "debug_info" : "model_5\/model_1\/model\/conv4_block5_2_bn\/FusedBatchNormV3_1_nchw",
      "pad_fill_mode" : 0,
      "pad_b" : 0,
      "pad_l" : 0,
      "top" : "model_5\/model_1\/model\/conv4_block5_2_relu\/Relu_1",
      "blob_weights" : 383,
      "K" : 256,
      "blob_biases" : 381,
      "name" : "model_5\/model_1\/model\/conv4_block5_2_bn\/FusedBatchNormV3_1_nchw",
      "has_batch_norm" : 0,
      "type" : "convolution",
      "n_groups" : 1,
      "pad_t" : 0,
      "has_biases" : 1,
      "C" : 256,
      "bottom" : "model_5\/model_1\/model\/conv4_block5_1_relu\/Relu_1",
      "weights" : {

      },
      "Nx" : 3,
      "pad_mode" : 1,
      "pad_value" : 0,
      "Ny" : 3,
      "n_parallel" : 1
    },
    {
      "pad_r" : 0,
      "fused_relu" : 0,
      "fused_tanh" : 0,
      "debug_info" : "model_5\/model_1\/model\/conv4_block5_3_bn\/FusedBatchNormV3_nchw",
      "pad_fill_mode" : 0,
      "pad_b" : 0,
      "pad_l" : 0,
      "top" : "model_5\/model_1\/model\/conv4_block5_3_bn\/FusedBatchNormV3_nchw",
      "blob_weights" : 387,
      "K" : 256,
      "blob_biases" : 385,
      "name" : "model_5\/model_1\/model\/conv4_block5_3_bn\/FusedBatchNormV3_nchw",
      "has_batch_norm" : 0,
      "type" : "convolution",
      "n_groups" : 1,
      "pad_t" : 0,
      "has_biases" : 1,
      "C" : 1024,
      "bottom" : "model_5\/model_1\/model\/conv4_block5_2_relu\/Relu",
      "weights" : {

      },
      "Nx" : 1,
      "pad_mode" : 0,
      "pad_value" : 0,
      "Ny" : 1,
      "n_parallel" : 1
    },
    {
      "pad_r" : 0,
      "fused_relu" : 0,
      "fused_tanh" : 0,
      "debug_info" : "model_5\/model_1\/model\/conv4_block5_3_bn\/FusedBatchNormV3_1_nchw",
      "pad_fill_mode" : 0,
      "pad_b" : 0,
      "pad_l" : 0,
      "top" : "model_5\/model_1\/model\/conv4_block5_3_bn\/FusedBatchNormV3_1_nchw",
      "blob_weights" : 391,
      "K" : 256,
      "blob_biases" : 389,
      "name" : "model_5\/model_1\/model\/conv4_block5_3_bn\/FusedBatchNormV3_1_nchw",
      "has_batch_norm" : 0,
      "type" : "convolution",
      "n_groups" : 1,
      "pad_t" : 0,
      "has_biases" : 1,
      "C" : 1024,
      "bottom" : "model_5\/model_1\/model\/conv4_block5_2_relu\/Relu_1",
      "weights" : {

      },
      "Nx" : 1,
      "pad_mode" : 0,
      "pad_value" : 0,
      "Ny" : 1,
      "n_parallel" : 1
    },
    {
      "bottom" : "model_5\/model_1\/model\/conv4_block4_out\/Relu,model_5\/model_1\/model\/conv4_block5_3_bn\/FusedBatchNormV3_nchw",
      "alpha" : 1,
      "operation" : 0,
      "weights" : {

      },
      "fused_relu" : 0,
      "debug_info" : "model_5\/model_1\/model\/conv4_block5_add\/add",
      "top" : "model_5\/model_1\/model\/conv4_block5_add\/add",
      "type" : "elementwise",
      "name" : "model_5\/model_1\/model\/conv4_block5_add\/add",
      "beta" : 0
    },
    {
      "bottom" : "model_5\/model_1\/model\/conv4_block4_out\/Relu_1,model_5\/model_1\/model\/conv4_block5_3_bn\/FusedBatchNormV3_1_nchw",
      "alpha" : 1,
      "operation" : 0,
      "weights" : {

      },
      "fused_relu" : 0,
      "debug_info" : "model_5\/model_1\/model\/conv4_block5_add\/add_1",
      "top" : "model_5\/model_1\/model\/conv4_block5_add\/add_1",
      "type" : "elementwise",
      "name" : "model_5\/model_1\/model\/conv4_block5_add\/add_1",
      "beta" : 0
    },
    {
      "bottom" : "model_5\/model_1\/model\/conv4_block5_add\/add",
      "weights" : {

      },
      "mode" : 0,
      "debug_info" : "model_5\/model_1\/model\/conv4_block5_out\/Relu",
      "top" : "model_5\/model_1\/model\/conv4_block5_out\/Relu",
      "type" : "activation",
      "name" : "model_5\/model_1\/model\/conv4_block5_out\/Relu"
    },
    {
      "bottom" : "model_5\/model_1\/model\/conv4_block5_add\/add_1",
      "weights" : {

      },
      "mode" : 0,
      "debug_info" : "model_5\/model_1\/model\/conv4_block5_out\/Relu_1",
      "top" : "model_5\/model_1\/model\/conv4_block5_out\/Relu_1",
      "type" : "activation",
      "name" : "model_5\/model_1\/model\/conv4_block5_out\/Relu_1"
    },
    {
      "pad_r" : 0,
      "fused_relu" : 1,
      "fused_tanh" : 0,
      "debug_info" : "model_5\/model_1\/model\/conv4_block6_1_bn\/FusedBatchNormV3_nchw",
      "pad_fill_mode" : 0,
      "pad_b" : 0,
      "pad_l" : 0,
      "top" : "model_5\/model_1\/model\/conv4_block6_1_relu\/Relu",
      "blob_weights" : 395,
      "K" : 1024,
      "blob_biases" : 393,
      "name" : "model_5\/model_1\/model\/conv4_block6_1_bn\/FusedBatchNormV3_nchw",
      "has_batch_norm" : 0,
      "type" : "convolution",
      "n_groups" : 1,
      "pad_t" : 0,
      "has_biases" : 1,
      "C" : 256,
      "bottom" : "model_5\/model_1\/model\/conv4_block5_out\/Relu",
      "weights" : {

      },
      "Nx" : 1,
      "pad_mode" : 0,
      "pad_value" : 0,
      "Ny" : 1,
      "n_parallel" : 1
    },
    {
      "pad_r" : 0,
      "fused_relu" : 1,
      "fused_tanh" : 0,
      "debug_info" : "model_5\/model_1\/model\/conv4_block6_1_bn\/FusedBatchNormV3_1_nchw",
      "pad_fill_mode" : 0,
      "pad_b" : 0,
      "pad_l" : 0,
      "top" : "model_5\/model_1\/model\/conv4_block6_1_relu\/Relu_1",
      "blob_weights" : 399,
      "K" : 1024,
      "blob_biases" : 397,
      "name" : "model_5\/model_1\/model\/conv4_block6_1_bn\/FusedBatchNormV3_1_nchw",
      "has_batch_norm" : 0,
      "type" : "convolution",
      "n_groups" : 1,
      "pad_t" : 0,
      "has_biases" : 1,
      "C" : 256,
      "bottom" : "model_5\/model_1\/model\/conv4_block5_out\/Relu_1",
      "weights" : {

      },
      "Nx" : 1,
      "pad_mode" : 0,
      "pad_value" : 0,
      "Ny" : 1,
      "n_parallel" : 1
    },
    {
      "pad_r" : 0,
      "fused_relu" : 1,
      "fused_tanh" : 0,
      "debug_info" : "model_5\/model_1\/model\/conv4_block6_2_bn\/FusedBatchNormV3_nchw",
      "pad_fill_mode" : 0,
      "pad_b" : 0,
      "pad_l" : 0,
      "top" : "model_5\/model_1\/model\/conv4_block6_2_relu\/Relu",
      "blob_weights" : 403,
      "K" : 256,
      "blob_biases" : 401,
      "name" : "model_5\/model_1\/model\/conv4_block6_2_bn\/FusedBatchNormV3_nchw",
      "has_batch_norm" : 0,
      "type" : "convolution",
      "n_groups" : 1,
      "pad_t" : 0,
      "has_biases" : 1,
      "C" : 256,
      "bottom" : "model_5\/model_1\/model\/conv4_block6_1_relu\/Relu",
      "weights" : {

      },
      "Nx" : 3,
      "pad_mode" : 1,
      "pad_value" : 0,
      "Ny" : 3,
      "n_parallel" : 1
    },
    {
      "pad_r" : 0,
      "fused_relu" : 1,
      "fused_tanh" : 0,
      "debug_info" : "model_5\/model_1\/model\/conv4_block6_2_bn\/FusedBatchNormV3_1_nchw",
      "pad_fill_mode" : 0,
      "pad_b" : 0,
      "pad_l" : 0,
      "top" : "model_5\/model_1\/model\/conv4_block6_2_relu\/Relu_1",
      "blob_weights" : 407,
      "K" : 256,
      "blob_biases" : 405,
      "name" : "model_5\/model_1\/model\/conv4_block6_2_bn\/FusedBatchNormV3_1_nchw",
      "has_batch_norm" : 0,
      "type" : "convolution",
      "n_groups" : 1,
      "pad_t" : 0,
      "has_biases" : 1,
      "C" : 256,
      "bottom" : "model_5\/model_1\/model\/conv4_block6_1_relu\/Relu_1",
      "weights" : {

      },
      "Nx" : 3,
      "pad_mode" : 1,
      "pad_value" : 0,
      "Ny" : 3,
      "n_parallel" : 1
    },
    {
      "pad_r" : 0,
      "fused_relu" : 0,
      "fused_tanh" : 0,
      "debug_info" : "model_5\/model_1\/model\/conv4_block6_3_bn\/FusedBatchNormV3_nchw",
      "pad_fill_mode" : 0,
      "pad_b" : 0,
      "pad_l" : 0,
      "top" : "model_5\/model_1\/model\/conv4_block6_3_bn\/FusedBatchNormV3_nchw",
      "blob_weights" : 411,
      "K" : 256,
      "blob_biases" : 409,
      "name" : "model_5\/model_1\/model\/conv4_block6_3_bn\/FusedBatchNormV3_nchw",
      "has_batch_norm" : 0,
      "type" : "convolution",
      "n_groups" : 1,
      "pad_t" : 0,
      "has_biases" : 1,
      "C" : 1024,
      "bottom" : "model_5\/model_1\/model\/conv4_block6_2_relu\/Relu",
      "weights" : {

      },
      "Nx" : 1,
      "pad_mode" : 0,
      "pad_value" : 0,
      "Ny" : 1,
      "n_parallel" : 1
    },
    {
      "pad_r" : 0,
      "fused_relu" : 0,
      "fused_tanh" : 0,
      "debug_info" : "model_5\/model_1\/model\/conv4_block6_3_bn\/FusedBatchNormV3_1_nchw",
      "pad_fill_mode" : 0,
      "pad_b" : 0,
      "pad_l" : 0,
      "top" : "model_5\/model_1\/model\/conv4_block6_3_bn\/FusedBatchNormV3_1_nchw",
      "blob_weights" : 415,
      "K" : 256,
      "blob_biases" : 413,
      "name" : "model_5\/model_1\/model\/conv4_block6_3_bn\/FusedBatchNormV3_1_nchw",
      "has_batch_norm" : 0,
      "type" : "convolution",
      "n_groups" : 1,
      "pad_t" : 0,
      "has_biases" : 1,
      "C" : 1024,
      "bottom" : "model_5\/model_1\/model\/conv4_block6_2_relu\/Relu_1",
      "weights" : {

      },
      "Nx" : 1,
      "pad_mode" : 0,
      "pad_value" : 0,
      "Ny" : 1,
      "n_parallel" : 1
    },
    {
      "bottom" : "model_5\/model_1\/model\/conv4_block5_out\/Relu,model_5\/model_1\/model\/conv4_block6_3_bn\/FusedBatchNormV3_nchw",
      "alpha" : 1,
      "operation" : 0,
      "weights" : {

      },
      "fused_relu" : 0,
      "debug_info" : "model_5\/model_1\/model\/conv4_block6_add\/add",
      "top" : "model_5\/model_1\/model\/conv4_block6_add\/add",
      "type" : "elementwise",
      "name" : "model_5\/model_1\/model\/conv4_block6_add\/add",
      "beta" : 0
    },
    {
      "bottom" : "model_5\/model_1\/model\/conv4_block5_out\/Relu_1,model_5\/model_1\/model\/conv4_block6_3_bn\/FusedBatchNormV3_1_nchw",
      "alpha" : 1,
      "operation" : 0,
      "weights" : {

      },
      "fused_relu" : 0,
      "debug_info" : "model_5\/model_1\/model\/conv4_block6_add\/add_1",
      "top" : "model_5\/model_1\/model\/conv4_block6_add\/add_1",
      "type" : "elementwise",
      "name" : "model_5\/model_1\/model\/conv4_block6_add\/add_1",
      "beta" : 0
    },
    {
      "bottom" : "model_5\/model_1\/model\/conv4_block6_add\/add",
      "weights" : {

      },
      "mode" : 0,
      "debug_info" : "model_5\/model_1\/model\/conv4_block6_out\/Relu",
      "top" : "model_5\/model_1\/model\/conv4_block6_out\/Relu",
      "type" : "activation",
      "name" : "model_5\/model_1\/model\/conv4_block6_out\/Relu"
    },
    {
      "bottom" : "model_5\/model_1\/model\/conv4_block6_add\/add_1",
      "weights" : {

      },
      "mode" : 0,
      "debug_info" : "model_5\/model_1\/model\/conv4_block6_out\/Relu_1",
      "top" : "model_5\/model_1\/model\/conv4_block6_out\/Relu_1",
      "type" : "activation",
      "name" : "model_5\/model_1\/model\/conv4_block6_out\/Relu_1"
    },
    {
      "weights" : {

      },
      "debug_info" : "model_5\/model_1\/concatenate_2\/concat",
      "top" : "model_5\/model_1\/concatenate_2\/concat",
      "type" : "concat",
      "name" : "model_5\/model_1\/concatenate_2\/concat",
      "bottom" : "model_5\/model_1\/model\/conv4_block6_out\/Relu,model_5\/model_1\/model\/conv4_block6_out\/Relu_1"
    },
    {
      "name" : "model_5\/model_1\/sequential_2\/batch_normalization_12\/FusedBatchNormV3_nchw",
      "bottom" : "model_5\/model_1\/concatenate_2\/concat",
      "weights" : {

      },
      "debug_info" : "model_5\/model_1\/sequential_2\/batch_normalization_12\/FusedBatchNormV3_nchw",
      "top" : "model_5\/model_1\/sequential_2\/batch_normalization_12\/FusedBatchNormV3_nchw",
      "C" : 2048,
      "blob_batchnorm_params" : 417,
      "type" : "batchnorm"
    },
    {
      "pad_r" : 0,
      "fused_relu" : 1,
      "fused_tanh" : 0,
      "debug_info" : "model_5\/model_1\/sequential_2\/conv2d_2\/BiasAdd",
      "pad_fill_mode" : 0,
      "pad_b" : 0,
      "pad_l" : 0,
      "top" : "model_5\/model_1\/sequential_2\/re_lu_10\/Relu",
      "blob_weights" : 421,
      "K" : 2048,
      "blob_biases" : 419,
      "name" : "model_5\/model_1\/sequential_2\/conv2d_2\/BiasAdd",
      "has_batch_norm" : 0,
      "type" : "convolution",
      "n_groups" : 1,
      "pad_t" : 0,
      "has_biases" : 1,
      "C" : 1,
      "bottom" : "model_5\/model_1\/sequential_2\/batch_normalization_12\/FusedBatchNormV3_nchw",
      "weights" : {

      },
      "Nx" : 1,
      "pad_mode" : 0,
      "pad_value" : 0,
      "Ny" : 1,
      "n_parallel" : 1
    },
    {
      "name" : "model_5\/model_1\/sequential_2\/batch_normalization_13\/FusedBatchNormV3_nchw",
      "bottom" : "model_5\/model_1\/sequential_2\/re_lu_10\/Relu",
      "weights" : {

      },
      "debug_info" : "model_5\/model_1\/sequential_2\/batch_normalization_13\/FusedBatchNormV3_nchw",
      "top" : "model_5\/model_1\/sequential_2\/batch_normalization_13\/FusedBatchNormV3_nchw",
      "C" : 1,
      "blob_batchnorm_params" : 423,
      "type" : "batchnorm"
    },
    {
      "pad_r" : 0,
      "fused_relu" : 1,
      "fused_tanh" : 0,
      "debug_info" : "model_5\/model_1\/sequential_2\/conv2d_transpose_10\/BiasAdd",
      "pad_fill_mode" : 0,
      "pad_b" : 0,
      "pad_l" : 0,
      "top" : "model_5\/model_1\/sequential_2\/re_lu_11\/Relu",
      "blob_weights" : 427,
      "K" : 1,
      "blob_biases" : 425,
      "name" : "model_5\/model_1\/sequential_2\/conv2d_transpose_10\/BiasAdd",
      "deconv_out_height" : 28,
      "has_batch_norm" : 0,
      "type" : "deconvolution",
      "n_groups" : 1,
      "pad_t" : 0,
      "has_biases" : 1,
      "C" : 16,
      "bottom" : "model_5\/model_1\/sequential_2\/batch_normalization_13\/FusedBatchNormV3_nchw",
      "weights" : {

      },
      "Nx" : 3,
      "pad_mode" : 1,
      "deconv_out_width" : 28,
      "pad_value" : 0,
      "Ny" : 3,
      "n_parallel" : 1
    },
    {
      "name" : "model_5\/model_1\/sequential_2\/batch_normalization_14\/FusedBatchNormV3_nchw",
      "bottom" : "model_5\/model_1\/sequential_2\/re_lu_11\/Relu",
      "weights" : {

      },
      "debug_info" : "model_5\/model_1\/sequential_2\/batch_normalization_14\/FusedBatchNormV3_nchw",
      "top" : "model_5\/model_1\/sequential_2\/batch_normalization_14\/FusedBatchNormV3_nchw",
      "C" : 16,
      "blob_batchnorm_params" : 429,
      "type" : "batchnorm"
    },
    {
      "pad_r" : 0,
      "fused_relu" : 1,
      "fused_tanh" : 0,
      "debug_info" : "model_5\/model_1\/sequential_2\/conv2d_transpose_11\/BiasAdd",
      "pad_fill_mode" : 0,
      "pad_b" : 0,
      "pad_l" : 0,
      "top" : "model_5\/model_1\/sequential_2\/re_lu_12\/Relu",
      "blob_weights" : 433,
      "K" : 16,
      "blob_biases" : 431,
      "name" : "model_5\/model_1\/sequential_2\/conv2d_transpose_11\/BiasAdd",
      "deconv_out_height" : 28,
      "has_batch_norm" : 0,
      "type" : "deconvolution",
      "n_groups" : 1,
      "pad_t" : 0,
      "has_biases" : 1,
      "C" : 16,
      "bottom" : "model_5\/model_1\/sequential_2\/batch_normalization_14\/FusedBatchNormV3_nchw",
      "weights" : {

      },
      "Nx" : 3,
      "pad_mode" : 1,
      "deconv_out_width" : 28,
      "pad_value" : 0,
      "Ny" : 3,
      "n_parallel" : 1
    },
    {
      "name" : "model_5\/model_1\/sequential_2\/batch_normalization_15\/FusedBatchNormV3_nchw",
      "bottom" : "model_5\/model_1\/sequential_2\/re_lu_12\/Relu",
      "weights" : {

      },
      "debug_info" : "model_5\/model_1\/sequential_2\/batch_normalization_15\/FusedBatchNormV3_nchw",
      "top" : "model_5\/model_1\/sequential_2\/batch_normalization_15\/FusedBatchNormV3_nchw",
      "C" : 16,
      "blob_batchnorm_params" : 435,
      "type" : "batchnorm"
    },
    {
      "pad_r" : 0,
      "fused_relu" : 1,
      "fused_tanh" : 0,
      "debug_info" : "model_5\/model_1\/sequential_2\/conv2d_transpose_12\/BiasAdd",
      "pad_fill_mode" : 0,
      "pad_b" : 0,
      "pad_l" : 0,
      "top" : "model_5\/model_1\/sequential_2\/re_lu_13\/Relu",
      "blob_weights" : 439,
      "K" : 16,
      "blob_biases" : 437,
      "name" : "model_5\/model_1\/sequential_2\/conv2d_transpose_12\/BiasAdd",
      "deconv_out_height" : 28,
      "has_batch_norm" : 0,
      "type" : "deconvolution",
      "n_groups" : 1,
      "pad_t" : 0,
      "has_biases" : 1,
      "C" : 32,
      "bottom" : "model_5\/model_1\/sequential_2\/batch_normalization_15\/FusedBatchNormV3_nchw",
      "weights" : {

      },
      "Nx" : 3,
      "pad_mode" : 1,
      "deconv_out_width" : 28,
      "pad_value" : 0,
      "Ny" : 3,
      "n_parallel" : 1
    },
    {
      "name" : "model_5\/model_1\/sequential_2\/batch_normalization_16\/FusedBatchNormV3_nchw",
      "bottom" : "model_5\/model_1\/sequential_2\/re_lu_13\/Relu",
      "weights" : {

      },
      "debug_info" : "model_5\/model_1\/sequential_2\/batch_normalization_16\/FusedBatchNormV3_nchw",
      "top" : "model_5\/model_1\/sequential_2\/batch_normalization_16\/FusedBatchNormV3_nchw",
      "C" : 32,
      "blob_batchnorm_params" : 441,
      "type" : "batchnorm"
    },
    {
      "pad_r" : 0,
      "fused_relu" : 1,
      "fused_tanh" : 0,
      "debug_info" : "model_5\/model_1\/sequential_2\/conv2d_transpose_13\/BiasAdd",
      "pad_fill_mode" : 0,
      "pad_b" : 0,
      "pad_l" : 0,
      "top" : "model_5\/model_1\/sequential_2\/re_lu_14\/Relu",
      "blob_weights" : 445,
      "K" : 32,
      "blob_biases" : 443,
      "name" : "model_5\/model_1\/sequential_2\/conv2d_transpose_13\/BiasAdd",
      "deconv_out_height" : 28,
      "has_batch_norm" : 0,
      "type" : "deconvolution",
      "n_groups" : 1,
      "pad_t" : 0,
      "has_biases" : 1,
      "C" : 64,
      "bottom" : "model_5\/model_1\/sequential_2\/batch_normalization_16\/FusedBatchNormV3_nchw",
      "weights" : {

      },
      "Nx" : 3,
      "pad_mode" : 1,
      "deconv_out_width" : 28,
      "pad_value" : 0,
      "Ny" : 3,
      "n_parallel" : 1
    },
    {
      "name" : "model_5\/model_1\/sequential_2\/batch_normalization_17\/FusedBatchNormV3_nchw",
      "bottom" : "model_5\/model_1\/sequential_2\/re_lu_14\/Relu",
      "weights" : {

      },
      "debug_info" : "model_5\/model_1\/sequential_2\/batch_normalization_17\/FusedBatchNormV3_nchw",
      "top" : "model_5\/model_1\/sequential_2\/batch_normalization_17\/FusedBatchNormV3_nchw",
      "C" : 64,
      "blob_batchnorm_params" : 447,
      "type" : "batchnorm"
    },
    {
      "pad_r" : 0,
      "fused_relu" : 0,
      "fused_tanh" : 0,
      "debug_info" : "model_5\/model_1\/sequential_2\/conv2d_transpose_14\/BiasAdd",
      "pad_fill_mode" : 0,
      "pad_b" : 0,
      "pad_l" : 0,
      "top" : "model_5\/model_1\/sequential_2\/conv2d_transpose_14\/BiasAdd",
      "blob_weights" : 451,
      "K" : 64,
      "blob_biases" : 449,
      "name" : "model_5\/model_1\/sequential_2\/conv2d_transpose_14\/BiasAdd",
      "deconv_out_height" : 28,
      "has_batch_norm" : 0,
      "type" : "deconvolution",
      "n_groups" : 1,
      "pad_t" : 0,
      "has_biases" : 1,
      "C" : 1,
      "bottom" : "model_5\/model_1\/sequential_2\/batch_normalization_17\/FusedBatchNormV3_nchw",
      "weights" : {

      },
      "Nx" : 3,
      "pad_mode" : 1,
      "deconv_out_width" : 28,
      "pad_value" : 0,
      "Ny" : 3,
      "n_parallel" : 1
    },
    {
      "top" : "model_5\/model_1\/sequential_2\/up_sampling2d_2\/resize\/ResizeBilinear_channel_first_upsample_bilinear",
      "use_fractional_scale_factors" : false,
      "weights" : {

      },
      "fractional_scaling_factor_y" : 1,
      "type" : "upsample",
      "scaling_factor_x" : 16,
      "mode" : 1,
      "align_corners" : 0,
      "bottom" : "model_5\/model_1\/sequential_2\/conv2d_transpose_14\/BiasAdd",
      "debug_info" : "model_5\/model_1\/sequential_2\/up_sampling2d_2\/resize\/ResizeBilinear_channel_first_upsample_bilinear",
      "fractional_scaling_factor_x" : 1,
      "is_legacy_mode" : 0,
      "name" : "model_5\/model_1\/sequential_2\/up_sampling2d_2\/resize\/ResizeBilinear_channel_first_upsample_bilinear",
      "scaling_factor_y" : 16
    },
    {
      "bottom" : "model_5\/model_1\/tf.__operators__.add\/AddV2,model_5\/model_1\/sequential_2\/up_sampling2d_2\/resize\/ResizeBilinear_channel_first_upsample_bilinear",
      "alpha" : 1,
      "operation" : 0,
      "weights" : {

      },
      "fused_relu" : 0,
      "debug_info" : "model_5\/model_1\/tf.__operators__.add_1\/AddV2",
      "top" : "model_5\/model_1\/tf.__operators__.add_1\/AddV2",
      "type" : "elementwise",
      "name" : "model_5\/model_1\/tf.__operators__.add_1\/AddV2",
      "beta" : 0
    },
    {
      "bottom" : "model_5\/model_1\/tf.__operators__.add_1\/AddV2",
      "weights" : {

      },
      "mode" : 3,
      "debug_info" : "model_5\/model_1\/activation\/Sigmoid",
      "top" : "model_5\/model_1\/activation\/Sigmoid",
      "type" : "activation",
      "name" : "model_5\/model_1\/activation\/Sigmoid"
    },
    {
      "axis_h" : 0,
      "axis_w" : 2,
      "bottom" : "model_5\/model_1\/activation\/Sigmoid",
      "axis_k" : 1,
      "axis_n" : 3,
      "axis_seq" : 4,
      "weights" : {

      },
      "debug_info" : "transpose_320",
      "top" : "transpose_320",
      "type" : "transpose",
      "name" : "transpose_320"
    },
    {
      "size_of_axes" : 1,
      "bottom" : "transpose_320",
      "axes_0" : -1,
      "weights" : {

      },
      "nd_axis" : 0,
      "debug_info" : "model_5\/squeeze_last_dim_5\/Squeeze",
      "version" : 1,
      "top" : "model_5\/squeeze_last_dim_5\/Squeeze",
      "type" : "squeeze",
      "name" : "model_5\/squeeze_last_dim_5\/Squeeze"
    },
    {
      "bottom" : "",
      "k" : 1,
      "n" : 1,
      "weights" : {

      },
      "h" : 1,
      "debug_info" : "model_5\/max_layer_5\/Greater",
      "constant_blob" : 453,
      "top" : "model_5\/max_layer_5\/Greater_load_constant_268",
      "w" : 1,
      "type" : "load_constant",
      "name" : "model_5\/max_layer_5\/Greater_load_constant_268"
    },
    {
      "bottom" : "model_5\/squeeze_last_dim_5\/Squeeze,model_5\/max_layer_5\/Greater_load_constant_268",
      "alpha" : 1,
      "operation" : 105,
      "weights" : {

      },
      "fused_relu" : 0,
      "debug_info" : "model_5\/max_layer_5\/Greater",
      "top" : "model_5\/max_layer_5\/Greater",
      "type" : "elementwise",
      "name" : "model_5\/max_layer_5\/Greater",
      "beta" : 0
    },
    {
      "top" : "model_5\/max_layer_5\/SelectV2\/t",
      "w" : 1,
      "h" : 1,
      "name" : "model_5\/max_layer_5\/SelectV2\/t",
      "nd_rank" : 1,
      "type" : "load_constant",
      "k" : 1,
      "bottom" : "",
      "debug_info" : "model_5\/max_layer_5\/SelectV2\/t",
      "n" : 1,
      "weights" : {

      },
      "constant_blob" : 455
    },
    {
      "top" : "model_5\/max_layer_5\/SelectV2\/e",
      "w" : 1,
      "h" : 1,
      "name" : "model_5\/max_layer_5\/SelectV2\/e",
      "nd_rank" : 1,
      "type" : "load_constant",
      "k" : 1,
      "bottom" : "",
      "debug_info" : "model_5\/max_layer_5\/SelectV2\/e",
      "n" : 1,
      "weights" : {

      },
      "constant_blob" : 457
    },
    {
      "name" : "model_5\/max_layer_5\/SelectV2",
      "fused_relu" : 0,
      "beta" : 0,
      "operation" : 101,
      "type" : "elementwise",
      "alpha" : 1,
      "attributes" : {
        "is_output" : 1
      },
      "bottom" : "model_5\/max_layer_5\/Greater,model_5\/max_layer_5\/SelectV2\/t,model_5\/max_layer_5\/SelectV2\/e",
      "debug_info" : "model_5\/max_layer_5\/SelectV2",
      "nd_mode" : true,
      "weights" : {

      },
      "top" : "Identity"
    }
  ],
  "transform_params" : {
    "input_images" : {
      "bias_a" : 0,
      "bias_g" : 0,
      "bias_r" : 0,
      "bias_b" : 0,
      "center_mean" : 0,
      "is_network_bgr" : 0,
      "scale" : 1
    }
  },
  "storage" : "model.espresso.weights",
  "metadata_in_weights" : [

  ],
  "properties" : {

  },
  "analyses" : {

  },
  "format_version" : 200
}