{
  "layers" : [
    {
      "bottom" : "model_input",
      "alpha" : 0.0039215688593685627,
      "operation" : 1,
      "weights" : {

      },
      "fused_relu" : 0,
      "debug_info" : "sequential\/model\/rescaling\/mul",
      "top" : "sequential\/model\/rescaling\/mul",
      "type" : "elementwise",
      "name" : "sequential\/model\/rescaling\/mul",
      "beta" : 0
    },
    {
      "pad_r" : 0,
      "fused_relu" : 1,
      "fused_tanh" : 0,
      "debug_info" : "sequential\/model\/model_1\/bn_Conv1\/FusedBatchNormV3_nchw",
      "pad_fill_mode" : 0,
      "pad_b" : 0,
      "pad_l" : 0,
      "top" : "sequential\/model\/model_1\/Conv1_relu\/Relu6__relu6_relu__",
      "blob_weights" : 3,
      "K" : 3,
      "blob_biases" : 1,
      "stride_x" : 2,
      "name" : "sequential\/model\/model_1\/bn_Conv1\/FusedBatchNormV3_nchw",
      "has_batch_norm" : 0,
      "type" : "convolution",
      "n_groups" : 1,
      "pad_t" : 0,
      "stride_y" : 2,
      "has_biases" : 1,
      "C" : 16,
      "bottom" : "sequential\/model\/rescaling\/mul",
      "weights" : {

      },
      "Nx" : 3,
      "pad_mode" : 1,
      "pad_value" : 0,
      "Ny" : 3,
      "n_parallel" : 1
    },
    {
      "alpha" : -1,
      "bottom" : "sequential\/model\/model_1\/Conv1_relu\/Relu6__relu6_relu__",
      "weights" : {

      },
      "mode" : 6,
      "debug_info" : "sequential\/model\/model_1\/Conv1_relu\/Relu6__relu6_neg__",
      "top" : "sequential\/model\/model_1\/Conv1_relu\/Relu6__relu6_neg__",
      "type" : "activation",
      "name" : "sequential\/model\/model_1\/Conv1_relu\/Relu6__relu6_neg__",
      "beta" : 0
    },
    {
      "bottom" : "sequential\/model\/model_1\/Conv1_relu\/Relu6__relu6_neg__",
      "alpha" : -6,
      "operation" : 25,
      "weights" : {

      },
      "fused_relu" : 0,
      "debug_info" : "sequential\/model\/model_1\/Conv1_relu\/Relu6__relu6_threshold6__",
      "top" : "sequential\/model\/model_1\/Conv1_relu\/Relu6__relu6_threshold6__",
      "type" : "elementwise",
      "name" : "sequential\/model\/model_1\/Conv1_relu\/Relu6__relu6_threshold6__",
      "beta" : 0
    },
    {
      "alpha" : -1,
      "bottom" : "sequential\/model\/model_1\/Conv1_relu\/Relu6__relu6_threshold6__",
      "weights" : {

      },
      "mode" : 6,
      "debug_info" : "sequential\/model\/model_1\/Conv1_relu\/Relu6",
      "top" : "sequential\/model\/model_1\/Conv1_relu\/Relu6",
      "type" : "activation",
      "name" : "sequential\/model\/model_1\/Conv1_relu\/Relu6",
      "beta" : 0
    },
    {
      "pad_r" : 0,
      "fused_relu" : 1,
      "fused_tanh" : 0,
      "debug_info" : "sequential\/model\/model_1\/expanded_conv_depthwise_BN\/FusedBatchNormV3_nchw",
      "pad_fill_mode" : 0,
      "pad_b" : 0,
      "pad_l" : 0,
      "top" : "sequential\/model\/model_1\/expanded_conv_depthwise_relu\/Relu6__relu6_relu__",
      "blob_weights" : 7,
      "K" : 16,
      "blob_biases" : 5,
      "name" : "sequential\/model\/model_1\/expanded_conv_depthwise_BN\/FusedBatchNormV3_nchw",
      "has_batch_norm" : 0,
      "type" : "convolution",
      "n_groups" : 16,
      "pad_t" : 0,
      "has_biases" : 1,
      "C" : 16,
      "bottom" : "sequential\/model\/model_1\/Conv1_relu\/Relu6",
      "weights" : {

      },
      "Nx" : 3,
      "pad_mode" : 1,
      "pad_value" : 0,
      "Ny" : 3,
      "n_parallel" : 1
    },
    {
      "alpha" : -1,
      "bottom" : "sequential\/model\/model_1\/expanded_conv_depthwise_relu\/Relu6__relu6_relu__",
      "weights" : {

      },
      "mode" : 6,
      "debug_info" : "sequential\/model\/model_1\/expanded_conv_depthwise_relu\/Relu6__relu6_neg__",
      "top" : "sequential\/model\/model_1\/expanded_conv_depthwise_relu\/Relu6__relu6_neg__",
      "type" : "activation",
      "name" : "sequential\/model\/model_1\/expanded_conv_depthwise_relu\/Relu6__relu6_neg__",
      "beta" : 0
    },
    {
      "bottom" : "sequential\/model\/model_1\/expanded_conv_depthwise_relu\/Relu6__relu6_neg__",
      "alpha" : -6,
      "operation" : 25,
      "weights" : {

      },
      "fused_relu" : 0,
      "debug_info" : "sequential\/model\/model_1\/expanded_conv_depthwise_relu\/Relu6__relu6_threshold6__",
      "top" : "sequential\/model\/model_1\/expanded_conv_depthwise_relu\/Relu6__relu6_threshold6__",
      "type" : "elementwise",
      "name" : "sequential\/model\/model_1\/expanded_conv_depthwise_relu\/Relu6__relu6_threshold6__",
      "beta" : 0
    },
    {
      "alpha" : -1,
      "bottom" : "sequential\/model\/model_1\/expanded_conv_depthwise_relu\/Relu6__relu6_threshold6__",
      "weights" : {

      },
      "mode" : 6,
      "debug_info" : "sequential\/model\/model_1\/expanded_conv_depthwise_relu\/Relu6",
      "top" : "sequential\/model\/model_1\/expanded_conv_depthwise_relu\/Relu6",
      "type" : "activation",
      "name" : "sequential\/model\/model_1\/expanded_conv_depthwise_relu\/Relu6",
      "beta" : 0
    },
    {
      "pad_r" : 0,
      "fused_relu" : 0,
      "fused_tanh" : 0,
      "debug_info" : "sequential\/model\/model_1\/expanded_conv_project_BN\/FusedBatchNormV3_nchw",
      "pad_fill_mode" : 0,
      "pad_b" : 0,
      "pad_l" : 0,
      "top" : "sequential\/model\/model_1\/expanded_conv_project_BN\/FusedBatchNormV3_nchw",
      "blob_weights" : 11,
      "K" : 16,
      "blob_biases" : 9,
      "name" : "sequential\/model\/model_1\/expanded_conv_project_BN\/FusedBatchNormV3_nchw",
      "has_batch_norm" : 0,
      "type" : "convolution",
      "n_groups" : 1,
      "pad_t" : 0,
      "has_biases" : 1,
      "C" : 8,
      "bottom" : "sequential\/model\/model_1\/expanded_conv_depthwise_relu\/Relu6",
      "weights" : {

      },
      "Nx" : 1,
      "pad_mode" : 1,
      "pad_value" : 0,
      "Ny" : 1,
      "n_parallel" : 1
    },
    {
      "pad_r" : 0,
      "fused_relu" : 1,
      "fused_tanh" : 0,
      "debug_info" : "sequential\/model\/model_1\/block_1_expand_BN\/FusedBatchNormV3_nchw",
      "pad_fill_mode" : 0,
      "pad_b" : 0,
      "pad_l" : 0,
      "top" : "sequential\/model\/model_1\/block_1_expand_relu\/Relu6__relu6_relu__",
      "blob_weights" : 15,
      "K" : 8,
      "blob_biases" : 13,
      "name" : "sequential\/model\/model_1\/block_1_expand_BN\/FusedBatchNormV3_nchw",
      "has_batch_norm" : 0,
      "type" : "convolution",
      "n_groups" : 1,
      "pad_t" : 0,
      "has_biases" : 1,
      "C" : 48,
      "bottom" : "sequential\/model\/model_1\/expanded_conv_project_BN\/FusedBatchNormV3_nchw",
      "weights" : {

      },
      "Nx" : 1,
      "pad_mode" : 1,
      "pad_value" : 0,
      "Ny" : 1,
      "n_parallel" : 1
    },
    {
      "alpha" : -1,
      "bottom" : "sequential\/model\/model_1\/block_1_expand_relu\/Relu6__relu6_relu__",
      "weights" : {

      },
      "mode" : 6,
      "debug_info" : "sequential\/model\/model_1\/block_1_expand_relu\/Relu6__relu6_neg__",
      "top" : "sequential\/model\/model_1\/block_1_expand_relu\/Relu6__relu6_neg__",
      "type" : "activation",
      "name" : "sequential\/model\/model_1\/block_1_expand_relu\/Relu6__relu6_neg__",
      "beta" : 0
    },
    {
      "bottom" : "sequential\/model\/model_1\/block_1_expand_relu\/Relu6__relu6_neg__",
      "alpha" : -6,
      "operation" : 25,
      "weights" : {

      },
      "fused_relu" : 0,
      "debug_info" : "sequential\/model\/model_1\/block_1_expand_relu\/Relu6__relu6_threshold6__",
      "top" : "sequential\/model\/model_1\/block_1_expand_relu\/Relu6__relu6_threshold6__",
      "type" : "elementwise",
      "name" : "sequential\/model\/model_1\/block_1_expand_relu\/Relu6__relu6_threshold6__",
      "beta" : 0
    },
    {
      "alpha" : -1,
      "bottom" : "sequential\/model\/model_1\/block_1_expand_relu\/Relu6__relu6_threshold6__",
      "weights" : {

      },
      "mode" : 6,
      "debug_info" : "sequential\/model\/model_1\/block_1_expand_relu\/Relu6",
      "top" : "sequential\/model\/model_1\/block_1_expand_relu\/Relu6",
      "type" : "activation",
      "name" : "sequential\/model\/model_1\/block_1_expand_relu\/Relu6",
      "beta" : 0
    },
    {
      "pad_r" : 1,
      "fused_relu" : 1,
      "fused_tanh" : 0,
      "debug_info" : "sequential\/model\/model_1\/block_1_depthwise_BN\/FusedBatchNormV3_nchw",
      "pad_fill_mode" : 0,
      "pad_b" : 1,
      "pad_l" : 0,
      "top" : "sequential\/model\/model_1\/block_1_depthwise_relu\/Relu6__relu6_relu__",
      "blob_weights" : 19,
      "K" : 48,
      "blob_biases" : 17,
      "stride_x" : 2,
      "name" : "sequential\/model\/model_1\/block_1_depthwise_BN\/FusedBatchNormV3_nchw",
      "has_batch_norm" : 0,
      "type" : "convolution",
      "n_groups" : 48,
      "pad_t" : 0,
      "stride_y" : 2,
      "has_biases" : 1,
      "C" : 48,
      "bottom" : "sequential\/model\/model_1\/block_1_expand_relu\/Relu6",
      "weights" : {

      },
      "Nx" : 3,
      "pad_mode" : 0,
      "pad_value" : 0,
      "Ny" : 3,
      "n_parallel" : 1
    },
    {
      "alpha" : -1,
      "bottom" : "sequential\/model\/model_1\/block_1_depthwise_relu\/Relu6__relu6_relu__",
      "weights" : {

      },
      "mode" : 6,
      "debug_info" : "sequential\/model\/model_1\/block_1_depthwise_relu\/Relu6__relu6_neg__",
      "top" : "sequential\/model\/model_1\/block_1_depthwise_relu\/Relu6__relu6_neg__",
      "type" : "activation",
      "name" : "sequential\/model\/model_1\/block_1_depthwise_relu\/Relu6__relu6_neg__",
      "beta" : 0
    },
    {
      "bottom" : "sequential\/model\/model_1\/block_1_depthwise_relu\/Relu6__relu6_neg__",
      "alpha" : -6,
      "operation" : 25,
      "weights" : {

      },
      "fused_relu" : 0,
      "debug_info" : "sequential\/model\/model_1\/block_1_depthwise_relu\/Relu6__relu6_threshold6__",
      "top" : "sequential\/model\/model_1\/block_1_depthwise_relu\/Relu6__relu6_threshold6__",
      "type" : "elementwise",
      "name" : "sequential\/model\/model_1\/block_1_depthwise_relu\/Relu6__relu6_threshold6__",
      "beta" : 0
    },
    {
      "alpha" : -1,
      "bottom" : "sequential\/model\/model_1\/block_1_depthwise_relu\/Relu6__relu6_threshold6__",
      "weights" : {

      },
      "mode" : 6,
      "debug_info" : "sequential\/model\/model_1\/block_1_depthwise_relu\/Relu6",
      "top" : "sequential\/model\/model_1\/block_1_depthwise_relu\/Relu6",
      "type" : "activation",
      "name" : "sequential\/model\/model_1\/block_1_depthwise_relu\/Relu6",
      "beta" : 0
    },
    {
      "pad_r" : 0,
      "fused_relu" : 0,
      "fused_tanh" : 0,
      "debug_info" : "sequential\/model\/model_1\/block_1_project_BN\/FusedBatchNormV3_nchw",
      "pad_fill_mode" : 0,
      "pad_b" : 0,
      "pad_l" : 0,
      "top" : "sequential\/model\/model_1\/block_1_project_BN\/FusedBatchNormV3_nchw",
      "blob_weights" : 23,
      "K" : 48,
      "blob_biases" : 21,
      "name" : "sequential\/model\/model_1\/block_1_project_BN\/FusedBatchNormV3_nchw",
      "has_batch_norm" : 0,
      "type" : "convolution",
      "n_groups" : 1,
      "pad_t" : 0,
      "has_biases" : 1,
      "C" : 8,
      "bottom" : "sequential\/model\/model_1\/block_1_depthwise_relu\/Relu6",
      "weights" : {

      },
      "Nx" : 1,
      "pad_mode" : 1,
      "pad_value" : 0,
      "Ny" : 1,
      "n_parallel" : 1
    },
    {
      "pad_r" : 0,
      "fused_relu" : 1,
      "fused_tanh" : 0,
      "debug_info" : "sequential\/model\/model_1\/block_2_expand_BN\/FusedBatchNormV3_nchw",
      "pad_fill_mode" : 0,
      "pad_b" : 0,
      "pad_l" : 0,
      "top" : "sequential\/model\/model_1\/block_2_expand_relu\/Relu6__relu6_relu__",
      "blob_weights" : 27,
      "K" : 8,
      "blob_biases" : 25,
      "name" : "sequential\/model\/model_1\/block_2_expand_BN\/FusedBatchNormV3_nchw",
      "has_batch_norm" : 0,
      "type" : "convolution",
      "n_groups" : 1,
      "pad_t" : 0,
      "has_biases" : 1,
      "C" : 48,
      "bottom" : "sequential\/model\/model_1\/block_1_project_BN\/FusedBatchNormV3_nchw",
      "weights" : {

      },
      "Nx" : 1,
      "pad_mode" : 1,
      "pad_value" : 0,
      "Ny" : 1,
      "n_parallel" : 1
    },
    {
      "alpha" : -1,
      "bottom" : "sequential\/model\/model_1\/block_2_expand_relu\/Relu6__relu6_relu__",
      "weights" : {

      },
      "mode" : 6,
      "debug_info" : "sequential\/model\/model_1\/block_2_expand_relu\/Relu6__relu6_neg__",
      "top" : "sequential\/model\/model_1\/block_2_expand_relu\/Relu6__relu6_neg__",
      "type" : "activation",
      "name" : "sequential\/model\/model_1\/block_2_expand_relu\/Relu6__relu6_neg__",
      "beta" : 0
    },
    {
      "bottom" : "sequential\/model\/model_1\/block_2_expand_relu\/Relu6__relu6_neg__",
      "alpha" : -6,
      "operation" : 25,
      "weights" : {

      },
      "fused_relu" : 0,
      "debug_info" : "sequential\/model\/model_1\/block_2_expand_relu\/Relu6__relu6_threshold6__",
      "top" : "sequential\/model\/model_1\/block_2_expand_relu\/Relu6__relu6_threshold6__",
      "type" : "elementwise",
      "name" : "sequential\/model\/model_1\/block_2_expand_relu\/Relu6__relu6_threshold6__",
      "beta" : 0
    },
    {
      "alpha" : -1,
      "bottom" : "sequential\/model\/model_1\/block_2_expand_relu\/Relu6__relu6_threshold6__",
      "weights" : {

      },
      "mode" : 6,
      "debug_info" : "sequential\/model\/model_1\/block_2_expand_relu\/Relu6",
      "top" : "sequential\/model\/model_1\/block_2_expand_relu\/Relu6",
      "type" : "activation",
      "name" : "sequential\/model\/model_1\/block_2_expand_relu\/Relu6",
      "beta" : 0
    },
    {
      "pad_r" : 0,
      "fused_relu" : 1,
      "fused_tanh" : 0,
      "debug_info" : "sequential\/model\/model_1\/block_2_depthwise_BN\/FusedBatchNormV3_nchw",
      "pad_fill_mode" : 0,
      "pad_b" : 0,
      "pad_l" : 0,
      "top" : "sequential\/model\/model_1\/block_2_depthwise_relu\/Relu6__relu6_relu__",
      "blob_weights" : 31,
      "K" : 48,
      "blob_biases" : 29,
      "name" : "sequential\/model\/model_1\/block_2_depthwise_BN\/FusedBatchNormV3_nchw",
      "has_batch_norm" : 0,
      "type" : "convolution",
      "n_groups" : 48,
      "pad_t" : 0,
      "has_biases" : 1,
      "C" : 48,
      "bottom" : "sequential\/model\/model_1\/block_2_expand_relu\/Relu6",
      "weights" : {

      },
      "Nx" : 3,
      "pad_mode" : 1,
      "pad_value" : 0,
      "Ny" : 3,
      "n_parallel" : 1
    },
    {
      "alpha" : -1,
      "bottom" : "sequential\/model\/model_1\/block_2_depthwise_relu\/Relu6__relu6_relu__",
      "weights" : {

      },
      "mode" : 6,
      "debug_info" : "sequential\/model\/model_1\/block_2_depthwise_relu\/Relu6__relu6_neg__",
      "top" : "sequential\/model\/model_1\/block_2_depthwise_relu\/Relu6__relu6_neg__",
      "type" : "activation",
      "name" : "sequential\/model\/model_1\/block_2_depthwise_relu\/Relu6__relu6_neg__",
      "beta" : 0
    },
    {
      "bottom" : "sequential\/model\/model_1\/block_2_depthwise_relu\/Relu6__relu6_neg__",
      "alpha" : -6,
      "operation" : 25,
      "weights" : {

      },
      "fused_relu" : 0,
      "debug_info" : "sequential\/model\/model_1\/block_2_depthwise_relu\/Relu6__relu6_threshold6__",
      "top" : "sequential\/model\/model_1\/block_2_depthwise_relu\/Relu6__relu6_threshold6__",
      "type" : "elementwise",
      "name" : "sequential\/model\/model_1\/block_2_depthwise_relu\/Relu6__relu6_threshold6__",
      "beta" : 0
    },
    {
      "alpha" : -1,
      "bottom" : "sequential\/model\/model_1\/block_2_depthwise_relu\/Relu6__relu6_threshold6__",
      "weights" : {

      },
      "mode" : 6,
      "debug_info" : "sequential\/model\/model_1\/block_2_depthwise_relu\/Relu6",
      "top" : "sequential\/model\/model_1\/block_2_depthwise_relu\/Relu6",
      "type" : "activation",
      "name" : "sequential\/model\/model_1\/block_2_depthwise_relu\/Relu6",
      "beta" : 0
    },
    {
      "pad_r" : 0,
      "fused_relu" : 0,
      "fused_tanh" : 0,
      "debug_info" : "sequential\/model\/model_1\/block_2_project_BN\/FusedBatchNormV3_nchw",
      "pad_fill_mode" : 0,
      "pad_b" : 0,
      "pad_l" : 0,
      "top" : "sequential\/model\/model_1\/block_2_project_BN\/FusedBatchNormV3_nchw",
      "blob_weights" : 35,
      "K" : 48,
      "blob_biases" : 33,
      "name" : "sequential\/model\/model_1\/block_2_project_BN\/FusedBatchNormV3_nchw",
      "has_batch_norm" : 0,
      "type" : "convolution",
      "n_groups" : 1,
      "pad_t" : 0,
      "has_biases" : 1,
      "C" : 8,
      "bottom" : "sequential\/model\/model_1\/block_2_depthwise_relu\/Relu6",
      "weights" : {

      },
      "Nx" : 1,
      "pad_mode" : 1,
      "pad_value" : 0,
      "Ny" : 1,
      "n_parallel" : 1
    },
    {
      "bottom" : "sequential\/model\/model_1\/block_1_project_BN\/FusedBatchNormV3_nchw,sequential\/model\/model_1\/block_2_project_BN\/FusedBatchNormV3_nchw",
      "alpha" : 1,
      "operation" : 0,
      "weights" : {

      },
      "fused_relu" : 0,
      "debug_info" : "sequential\/model\/model_1\/block_2_add\/add",
      "top" : "sequential\/model\/model_1\/block_2_add\/add",
      "type" : "elementwise",
      "name" : "sequential\/model\/model_1\/block_2_add\/add",
      "beta" : 0
    },
    {
      "pad_r" : 0,
      "fused_relu" : 1,
      "fused_tanh" : 0,
      "debug_info" : "sequential\/model\/model_1\/block_3_expand_BN\/FusedBatchNormV3_nchw",
      "pad_fill_mode" : 0,
      "pad_b" : 0,
      "pad_l" : 0,
      "top" : "sequential\/model\/model_1\/block_3_expand_relu\/Relu6__relu6_relu__",
      "blob_weights" : 39,
      "K" : 8,
      "blob_biases" : 37,
      "name" : "sequential\/model\/model_1\/block_3_expand_BN\/FusedBatchNormV3_nchw",
      "has_batch_norm" : 0,
      "type" : "convolution",
      "n_groups" : 1,
      "pad_t" : 0,
      "has_biases" : 1,
      "C" : 48,
      "bottom" : "sequential\/model\/model_1\/block_2_add\/add",
      "weights" : {

      },
      "Nx" : 1,
      "pad_mode" : 1,
      "pad_value" : 0,
      "Ny" : 1,
      "n_parallel" : 1
    },
    {
      "alpha" : -1,
      "bottom" : "sequential\/model\/model_1\/block_3_expand_relu\/Relu6__relu6_relu__",
      "weights" : {

      },
      "mode" : 6,
      "debug_info" : "sequential\/model\/model_1\/block_3_expand_relu\/Relu6__relu6_neg__",
      "top" : "sequential\/model\/model_1\/block_3_expand_relu\/Relu6__relu6_neg__",
      "type" : "activation",
      "name" : "sequential\/model\/model_1\/block_3_expand_relu\/Relu6__relu6_neg__",
      "beta" : 0
    },
    {
      "bottom" : "sequential\/model\/model_1\/block_3_expand_relu\/Relu6__relu6_neg__",
      "alpha" : -6,
      "operation" : 25,
      "weights" : {

      },
      "fused_relu" : 0,
      "debug_info" : "sequential\/model\/model_1\/block_3_expand_relu\/Relu6__relu6_threshold6__",
      "top" : "sequential\/model\/model_1\/block_3_expand_relu\/Relu6__relu6_threshold6__",
      "type" : "elementwise",
      "name" : "sequential\/model\/model_1\/block_3_expand_relu\/Relu6__relu6_threshold6__",
      "beta" : 0
    },
    {
      "alpha" : -1,
      "bottom" : "sequential\/model\/model_1\/block_3_expand_relu\/Relu6__relu6_threshold6__",
      "weights" : {

      },
      "mode" : 6,
      "debug_info" : "sequential\/model\/model_1\/block_3_expand_relu\/Relu6",
      "top" : "sequential\/model\/model_1\/block_3_expand_relu\/Relu6",
      "type" : "activation",
      "name" : "sequential\/model\/model_1\/block_3_expand_relu\/Relu6",
      "beta" : 0
    },
    {
      "pad_r" : 1,
      "fused_relu" : 1,
      "fused_tanh" : 0,
      "debug_info" : "sequential\/model\/model_1\/block_3_depthwise_BN\/FusedBatchNormV3_nchw",
      "pad_fill_mode" : 0,
      "pad_b" : 1,
      "pad_l" : 0,
      "top" : "sequential\/model\/model_1\/block_3_depthwise_relu\/Relu6__relu6_relu__",
      "blob_weights" : 43,
      "K" : 48,
      "blob_biases" : 41,
      "stride_x" : 2,
      "name" : "sequential\/model\/model_1\/block_3_depthwise_BN\/FusedBatchNormV3_nchw",
      "has_batch_norm" : 0,
      "type" : "convolution",
      "n_groups" : 48,
      "pad_t" : 0,
      "stride_y" : 2,
      "has_biases" : 1,
      "C" : 48,
      "bottom" : "sequential\/model\/model_1\/block_3_expand_relu\/Relu6",
      "weights" : {

      },
      "Nx" : 3,
      "pad_mode" : 0,
      "pad_value" : 0,
      "Ny" : 3,
      "n_parallel" : 1
    },
    {
      "alpha" : -1,
      "bottom" : "sequential\/model\/model_1\/block_3_depthwise_relu\/Relu6__relu6_relu__",
      "weights" : {

      },
      "mode" : 6,
      "debug_info" : "sequential\/model\/model_1\/block_3_depthwise_relu\/Relu6__relu6_neg__",
      "top" : "sequential\/model\/model_1\/block_3_depthwise_relu\/Relu6__relu6_neg__",
      "type" : "activation",
      "name" : "sequential\/model\/model_1\/block_3_depthwise_relu\/Relu6__relu6_neg__",
      "beta" : 0
    },
    {
      "bottom" : "sequential\/model\/model_1\/block_3_depthwise_relu\/Relu6__relu6_neg__",
      "alpha" : -6,
      "operation" : 25,
      "weights" : {

      },
      "fused_relu" : 0,
      "debug_info" : "sequential\/model\/model_1\/block_3_depthwise_relu\/Relu6__relu6_threshold6__",
      "top" : "sequential\/model\/model_1\/block_3_depthwise_relu\/Relu6__relu6_threshold6__",
      "type" : "elementwise",
      "name" : "sequential\/model\/model_1\/block_3_depthwise_relu\/Relu6__relu6_threshold6__",
      "beta" : 0
    },
    {
      "alpha" : -1,
      "bottom" : "sequential\/model\/model_1\/block_3_depthwise_relu\/Relu6__relu6_threshold6__",
      "weights" : {

      },
      "mode" : 6,
      "debug_info" : "sequential\/model\/model_1\/block_3_depthwise_relu\/Relu6",
      "top" : "sequential\/model\/model_1\/block_3_depthwise_relu\/Relu6",
      "type" : "activation",
      "name" : "sequential\/model\/model_1\/block_3_depthwise_relu\/Relu6",
      "beta" : 0
    },
    {
      "pad_r" : 0,
      "fused_relu" : 0,
      "fused_tanh" : 0,
      "debug_info" : "sequential\/model\/model_1\/block_3_project_BN\/FusedBatchNormV3_nchw",
      "pad_fill_mode" : 0,
      "pad_b" : 0,
      "pad_l" : 0,
      "top" : "sequential\/model\/model_1\/block_3_project_BN\/FusedBatchNormV3_nchw",
      "blob_weights" : 47,
      "K" : 48,
      "blob_biases" : 45,
      "name" : "sequential\/model\/model_1\/block_3_project_BN\/FusedBatchNormV3_nchw",
      "has_batch_norm" : 0,
      "type" : "convolution",
      "n_groups" : 1,
      "pad_t" : 0,
      "has_biases" : 1,
      "C" : 16,
      "bottom" : "sequential\/model\/model_1\/block_3_depthwise_relu\/Relu6",
      "weights" : {

      },
      "Nx" : 1,
      "pad_mode" : 1,
      "pad_value" : 0,
      "Ny" : 1,
      "n_parallel" : 1
    },
    {
      "pad_r" : 0,
      "fused_relu" : 1,
      "fused_tanh" : 0,
      "debug_info" : "sequential\/model\/model_1\/block_4_expand_BN\/FusedBatchNormV3_nchw",
      "pad_fill_mode" : 0,
      "pad_b" : 0,
      "pad_l" : 0,
      "top" : "sequential\/model\/model_1\/block_4_expand_relu\/Relu6__relu6_relu__",
      "blob_weights" : 51,
      "K" : 16,
      "blob_biases" : 49,
      "name" : "sequential\/model\/model_1\/block_4_expand_BN\/FusedBatchNormV3_nchw",
      "has_batch_norm" : 0,
      "type" : "convolution",
      "n_groups" : 1,
      "pad_t" : 0,
      "has_biases" : 1,
      "C" : 96,
      "bottom" : "sequential\/model\/model_1\/block_3_project_BN\/FusedBatchNormV3_nchw",
      "weights" : {

      },
      "Nx" : 1,
      "pad_mode" : 1,
      "pad_value" : 0,
      "Ny" : 1,
      "n_parallel" : 1
    },
    {
      "alpha" : -1,
      "bottom" : "sequential\/model\/model_1\/block_4_expand_relu\/Relu6__relu6_relu__",
      "weights" : {

      },
      "mode" : 6,
      "debug_info" : "sequential\/model\/model_1\/block_4_expand_relu\/Relu6__relu6_neg__",
      "top" : "sequential\/model\/model_1\/block_4_expand_relu\/Relu6__relu6_neg__",
      "type" : "activation",
      "name" : "sequential\/model\/model_1\/block_4_expand_relu\/Relu6__relu6_neg__",
      "beta" : 0
    },
    {
      "bottom" : "sequential\/model\/model_1\/block_4_expand_relu\/Relu6__relu6_neg__",
      "alpha" : -6,
      "operation" : 25,
      "weights" : {

      },
      "fused_relu" : 0,
      "debug_info" : "sequential\/model\/model_1\/block_4_expand_relu\/Relu6__relu6_threshold6__",
      "top" : "sequential\/model\/model_1\/block_4_expand_relu\/Relu6__relu6_threshold6__",
      "type" : "elementwise",
      "name" : "sequential\/model\/model_1\/block_4_expand_relu\/Relu6__relu6_threshold6__",
      "beta" : 0
    },
    {
      "alpha" : -1,
      "bottom" : "sequential\/model\/model_1\/block_4_expand_relu\/Relu6__relu6_threshold6__",
      "weights" : {

      },
      "mode" : 6,
      "debug_info" : "sequential\/model\/model_1\/block_4_expand_relu\/Relu6",
      "top" : "sequential\/model\/model_1\/block_4_expand_relu\/Relu6",
      "type" : "activation",
      "name" : "sequential\/model\/model_1\/block_4_expand_relu\/Relu6",
      "beta" : 0
    },
    {
      "pad_r" : 0,
      "fused_relu" : 1,
      "fused_tanh" : 0,
      "debug_info" : "sequential\/model\/model_1\/block_4_depthwise_BN\/FusedBatchNormV3_nchw",
      "pad_fill_mode" : 0,
      "pad_b" : 0,
      "pad_l" : 0,
      "top" : "sequential\/model\/model_1\/block_4_depthwise_relu\/Relu6__relu6_relu__",
      "blob_weights" : 55,
      "K" : 96,
      "blob_biases" : 53,
      "name" : "sequential\/model\/model_1\/block_4_depthwise_BN\/FusedBatchNormV3_nchw",
      "has_batch_norm" : 0,
      "type" : "convolution",
      "n_groups" : 96,
      "pad_t" : 0,
      "has_biases" : 1,
      "C" : 96,
      "bottom" : "sequential\/model\/model_1\/block_4_expand_relu\/Relu6",
      "weights" : {

      },
      "Nx" : 3,
      "pad_mode" : 1,
      "pad_value" : 0,
      "Ny" : 3,
      "n_parallel" : 1
    },
    {
      "alpha" : -1,
      "bottom" : "sequential\/model\/model_1\/block_4_depthwise_relu\/Relu6__relu6_relu__",
      "weights" : {

      },
      "mode" : 6,
      "debug_info" : "sequential\/model\/model_1\/block_4_depthwise_relu\/Relu6__relu6_neg__",
      "top" : "sequential\/model\/model_1\/block_4_depthwise_relu\/Relu6__relu6_neg__",
      "type" : "activation",
      "name" : "sequential\/model\/model_1\/block_4_depthwise_relu\/Relu6__relu6_neg__",
      "beta" : 0
    },
    {
      "bottom" : "sequential\/model\/model_1\/block_4_depthwise_relu\/Relu6__relu6_neg__",
      "alpha" : -6,
      "operation" : 25,
      "weights" : {

      },
      "fused_relu" : 0,
      "debug_info" : "sequential\/model\/model_1\/block_4_depthwise_relu\/Relu6__relu6_threshold6__",
      "top" : "sequential\/model\/model_1\/block_4_depthwise_relu\/Relu6__relu6_threshold6__",
      "type" : "elementwise",
      "name" : "sequential\/model\/model_1\/block_4_depthwise_relu\/Relu6__relu6_threshold6__",
      "beta" : 0
    },
    {
      "alpha" : -1,
      "bottom" : "sequential\/model\/model_1\/block_4_depthwise_relu\/Relu6__relu6_threshold6__",
      "weights" : {

      },
      "mode" : 6,
      "debug_info" : "sequential\/model\/model_1\/block_4_depthwise_relu\/Relu6",
      "top" : "sequential\/model\/model_1\/block_4_depthwise_relu\/Relu6",
      "type" : "activation",
      "name" : "sequential\/model\/model_1\/block_4_depthwise_relu\/Relu6",
      "beta" : 0
    },
    {
      "pad_r" : 0,
      "fused_relu" : 0,
      "fused_tanh" : 0,
      "debug_info" : "sequential\/model\/model_1\/block_4_project_BN\/FusedBatchNormV3_nchw",
      "pad_fill_mode" : 0,
      "pad_b" : 0,
      "pad_l" : 0,
      "top" : "sequential\/model\/model_1\/block_4_project_BN\/FusedBatchNormV3_nchw",
      "blob_weights" : 59,
      "K" : 96,
      "blob_biases" : 57,
      "name" : "sequential\/model\/model_1\/block_4_project_BN\/FusedBatchNormV3_nchw",
      "has_batch_norm" : 0,
      "type" : "convolution",
      "n_groups" : 1,
      "pad_t" : 0,
      "has_biases" : 1,
      "C" : 16,
      "bottom" : "sequential\/model\/model_1\/block_4_depthwise_relu\/Relu6",
      "weights" : {

      },
      "Nx" : 1,
      "pad_mode" : 1,
      "pad_value" : 0,
      "Ny" : 1,
      "n_parallel" : 1
    },
    {
      "bottom" : "sequential\/model\/model_1\/block_3_project_BN\/FusedBatchNormV3_nchw,sequential\/model\/model_1\/block_4_project_BN\/FusedBatchNormV3_nchw",
      "alpha" : 1,
      "operation" : 0,
      "weights" : {

      },
      "fused_relu" : 0,
      "debug_info" : "sequential\/model\/model_1\/block_4_add\/add",
      "top" : "sequential\/model\/model_1\/block_4_add\/add",
      "type" : "elementwise",
      "name" : "sequential\/model\/model_1\/block_4_add\/add",
      "beta" : 0
    },
    {
      "pad_r" : 0,
      "fused_relu" : 1,
      "fused_tanh" : 0,
      "debug_info" : "sequential\/model\/model_1\/block_5_expand_BN\/FusedBatchNormV3_nchw",
      "pad_fill_mode" : 0,
      "pad_b" : 0,
      "pad_l" : 0,
      "top" : "sequential\/model\/model_1\/block_5_expand_relu\/Relu6__relu6_relu__",
      "blob_weights" : 63,
      "K" : 16,
      "blob_biases" : 61,
      "name" : "sequential\/model\/model_1\/block_5_expand_BN\/FusedBatchNormV3_nchw",
      "has_batch_norm" : 0,
      "type" : "convolution",
      "n_groups" : 1,
      "pad_t" : 0,
      "has_biases" : 1,
      "C" : 96,
      "bottom" : "sequential\/model\/model_1\/block_4_add\/add",
      "weights" : {

      },
      "Nx" : 1,
      "pad_mode" : 1,
      "pad_value" : 0,
      "Ny" : 1,
      "n_parallel" : 1
    },
    {
      "alpha" : -1,
      "bottom" : "sequential\/model\/model_1\/block_5_expand_relu\/Relu6__relu6_relu__",
      "weights" : {

      },
      "mode" : 6,
      "debug_info" : "sequential\/model\/model_1\/block_5_expand_relu\/Relu6__relu6_neg__",
      "top" : "sequential\/model\/model_1\/block_5_expand_relu\/Relu6__relu6_neg__",
      "type" : "activation",
      "name" : "sequential\/model\/model_1\/block_5_expand_relu\/Relu6__relu6_neg__",
      "beta" : 0
    },
    {
      "bottom" : "sequential\/model\/model_1\/block_5_expand_relu\/Relu6__relu6_neg__",
      "alpha" : -6,
      "operation" : 25,
      "weights" : {

      },
      "fused_relu" : 0,
      "debug_info" : "sequential\/model\/model_1\/block_5_expand_relu\/Relu6__relu6_threshold6__",
      "top" : "sequential\/model\/model_1\/block_5_expand_relu\/Relu6__relu6_threshold6__",
      "type" : "elementwise",
      "name" : "sequential\/model\/model_1\/block_5_expand_relu\/Relu6__relu6_threshold6__",
      "beta" : 0
    },
    {
      "alpha" : -1,
      "bottom" : "sequential\/model\/model_1\/block_5_expand_relu\/Relu6__relu6_threshold6__",
      "weights" : {

      },
      "mode" : 6,
      "debug_info" : "sequential\/model\/model_1\/block_5_expand_relu\/Relu6",
      "top" : "sequential\/model\/model_1\/block_5_expand_relu\/Relu6",
      "type" : "activation",
      "name" : "sequential\/model\/model_1\/block_5_expand_relu\/Relu6",
      "beta" : 0
    },
    {
      "pad_r" : 0,
      "fused_relu" : 1,
      "fused_tanh" : 0,
      "debug_info" : "sequential\/model\/model_1\/block_5_depthwise_BN\/FusedBatchNormV3_nchw",
      "pad_fill_mode" : 0,
      "pad_b" : 0,
      "pad_l" : 0,
      "top" : "sequential\/model\/model_1\/block_5_depthwise_relu\/Relu6__relu6_relu__",
      "blob_weights" : 67,
      "K" : 96,
      "blob_biases" : 65,
      "name" : "sequential\/model\/model_1\/block_5_depthwise_BN\/FusedBatchNormV3_nchw",
      "has_batch_norm" : 0,
      "type" : "convolution",
      "n_groups" : 96,
      "pad_t" : 0,
      "has_biases" : 1,
      "C" : 96,
      "bottom" : "sequential\/model\/model_1\/block_5_expand_relu\/Relu6",
      "weights" : {

      },
      "Nx" : 3,
      "pad_mode" : 1,
      "pad_value" : 0,
      "Ny" : 3,
      "n_parallel" : 1
    },
    {
      "alpha" : -1,
      "bottom" : "sequential\/model\/model_1\/block_5_depthwise_relu\/Relu6__relu6_relu__",
      "weights" : {

      },
      "mode" : 6,
      "debug_info" : "sequential\/model\/model_1\/block_5_depthwise_relu\/Relu6__relu6_neg__",
      "top" : "sequential\/model\/model_1\/block_5_depthwise_relu\/Relu6__relu6_neg__",
      "type" : "activation",
      "name" : "sequential\/model\/model_1\/block_5_depthwise_relu\/Relu6__relu6_neg__",
      "beta" : 0
    },
    {
      "bottom" : "sequential\/model\/model_1\/block_5_depthwise_relu\/Relu6__relu6_neg__",
      "alpha" : -6,
      "operation" : 25,
      "weights" : {

      },
      "fused_relu" : 0,
      "debug_info" : "sequential\/model\/model_1\/block_5_depthwise_relu\/Relu6__relu6_threshold6__",
      "top" : "sequential\/model\/model_1\/block_5_depthwise_relu\/Relu6__relu6_threshold6__",
      "type" : "elementwise",
      "name" : "sequential\/model\/model_1\/block_5_depthwise_relu\/Relu6__relu6_threshold6__",
      "beta" : 0
    },
    {
      "alpha" : -1,
      "bottom" : "sequential\/model\/model_1\/block_5_depthwise_relu\/Relu6__relu6_threshold6__",
      "weights" : {

      },
      "mode" : 6,
      "debug_info" : "sequential\/model\/model_1\/block_5_depthwise_relu\/Relu6",
      "top" : "sequential\/model\/model_1\/block_5_depthwise_relu\/Relu6",
      "type" : "activation",
      "name" : "sequential\/model\/model_1\/block_5_depthwise_relu\/Relu6",
      "beta" : 0
    },
    {
      "pad_r" : 0,
      "fused_relu" : 0,
      "fused_tanh" : 0,
      "debug_info" : "sequential\/model\/model_1\/block_5_project_BN\/FusedBatchNormV3_nchw",
      "pad_fill_mode" : 0,
      "pad_b" : 0,
      "pad_l" : 0,
      "top" : "sequential\/model\/model_1\/block_5_project_BN\/FusedBatchNormV3_nchw",
      "blob_weights" : 71,
      "K" : 96,
      "blob_biases" : 69,
      "name" : "sequential\/model\/model_1\/block_5_project_BN\/FusedBatchNormV3_nchw",
      "has_batch_norm" : 0,
      "type" : "convolution",
      "n_groups" : 1,
      "pad_t" : 0,
      "has_biases" : 1,
      "C" : 16,
      "bottom" : "sequential\/model\/model_1\/block_5_depthwise_relu\/Relu6",
      "weights" : {

      },
      "Nx" : 1,
      "pad_mode" : 1,
      "pad_value" : 0,
      "Ny" : 1,
      "n_parallel" : 1
    },
    {
      "bottom" : "sequential\/model\/model_1\/block_4_add\/add,sequential\/model\/model_1\/block_5_project_BN\/FusedBatchNormV3_nchw",
      "alpha" : 1,
      "operation" : 0,
      "weights" : {

      },
      "fused_relu" : 0,
      "debug_info" : "sequential\/model\/model_1\/block_5_add\/add",
      "top" : "sequential\/model\/model_1\/block_5_add\/add",
      "type" : "elementwise",
      "name" : "sequential\/model\/model_1\/block_5_add\/add",
      "beta" : 0
    },
    {
      "pad_r" : 0,
      "fused_relu" : 1,
      "fused_tanh" : 0,
      "debug_info" : "sequential\/model\/model_1\/block_6_expand_BN\/FusedBatchNormV3_nchw",
      "pad_fill_mode" : 0,
      "pad_b" : 0,
      "pad_l" : 0,
      "top" : "sequential\/model\/model_1\/block_6_expand_relu\/Relu6__relu6_relu__",
      "blob_weights" : 75,
      "K" : 16,
      "blob_biases" : 73,
      "name" : "sequential\/model\/model_1\/block_6_expand_BN\/FusedBatchNormV3_nchw",
      "has_batch_norm" : 0,
      "type" : "convolution",
      "n_groups" : 1,
      "pad_t" : 0,
      "has_biases" : 1,
      "C" : 96,
      "bottom" : "sequential\/model\/model_1\/block_5_add\/add",
      "weights" : {

      },
      "Nx" : 1,
      "pad_mode" : 1,
      "pad_value" : 0,
      "Ny" : 1,
      "n_parallel" : 1
    },
    {
      "alpha" : -1,
      "bottom" : "sequential\/model\/model_1\/block_6_expand_relu\/Relu6__relu6_relu__",
      "weights" : {

      },
      "mode" : 6,
      "debug_info" : "sequential\/model\/model_1\/block_6_expand_relu\/Relu6__relu6_neg__",
      "top" : "sequential\/model\/model_1\/block_6_expand_relu\/Relu6__relu6_neg__",
      "type" : "activation",
      "name" : "sequential\/model\/model_1\/block_6_expand_relu\/Relu6__relu6_neg__",
      "beta" : 0
    },
    {
      "bottom" : "sequential\/model\/model_1\/block_6_expand_relu\/Relu6__relu6_neg__",
      "alpha" : -6,
      "operation" : 25,
      "weights" : {

      },
      "fused_relu" : 0,
      "debug_info" : "sequential\/model\/model_1\/block_6_expand_relu\/Relu6__relu6_threshold6__",
      "top" : "sequential\/model\/model_1\/block_6_expand_relu\/Relu6__relu6_threshold6__",
      "type" : "elementwise",
      "name" : "sequential\/model\/model_1\/block_6_expand_relu\/Relu6__relu6_threshold6__",
      "beta" : 0
    },
    {
      "alpha" : -1,
      "bottom" : "sequential\/model\/model_1\/block_6_expand_relu\/Relu6__relu6_threshold6__",
      "weights" : {

      },
      "mode" : 6,
      "debug_info" : "sequential\/model\/model_1\/block_6_expand_relu\/Relu6",
      "top" : "sequential\/model\/model_1\/block_6_expand_relu\/Relu6",
      "type" : "activation",
      "name" : "sequential\/model\/model_1\/block_6_expand_relu\/Relu6",
      "beta" : 0
    },
    {
      "pad_r" : 1,
      "fused_relu" : 1,
      "fused_tanh" : 0,
      "debug_info" : "sequential\/model\/model_1\/block_6_depthwise_BN\/FusedBatchNormV3_nchw",
      "pad_fill_mode" : 0,
      "pad_b" : 1,
      "pad_l" : 0,
      "top" : "sequential\/model\/model_1\/block_6_depthwise_relu\/Relu6__relu6_relu__",
      "blob_weights" : 79,
      "K" : 96,
      "blob_biases" : 77,
      "stride_x" : 2,
      "name" : "sequential\/model\/model_1\/block_6_depthwise_BN\/FusedBatchNormV3_nchw",
      "has_batch_norm" : 0,
      "type" : "convolution",
      "n_groups" : 96,
      "pad_t" : 0,
      "stride_y" : 2,
      "has_biases" : 1,
      "C" : 96,
      "bottom" : "sequential\/model\/model_1\/block_6_expand_relu\/Relu6",
      "weights" : {

      },
      "Nx" : 3,
      "pad_mode" : 0,
      "pad_value" : 0,
      "Ny" : 3,
      "n_parallel" : 1
    },
    {
      "alpha" : -1,
      "bottom" : "sequential\/model\/model_1\/block_6_depthwise_relu\/Relu6__relu6_relu__",
      "weights" : {

      },
      "mode" : 6,
      "debug_info" : "sequential\/model\/model_1\/block_6_depthwise_relu\/Relu6__relu6_neg__",
      "top" : "sequential\/model\/model_1\/block_6_depthwise_relu\/Relu6__relu6_neg__",
      "type" : "activation",
      "name" : "sequential\/model\/model_1\/block_6_depthwise_relu\/Relu6__relu6_neg__",
      "beta" : 0
    },
    {
      "bottom" : "sequential\/model\/model_1\/block_6_depthwise_relu\/Relu6__relu6_neg__",
      "alpha" : -6,
      "operation" : 25,
      "weights" : {

      },
      "fused_relu" : 0,
      "debug_info" : "sequential\/model\/model_1\/block_6_depthwise_relu\/Relu6__relu6_threshold6__",
      "top" : "sequential\/model\/model_1\/block_6_depthwise_relu\/Relu6__relu6_threshold6__",
      "type" : "elementwise",
      "name" : "sequential\/model\/model_1\/block_6_depthwise_relu\/Relu6__relu6_threshold6__",
      "beta" : 0
    },
    {
      "alpha" : -1,
      "bottom" : "sequential\/model\/model_1\/block_6_depthwise_relu\/Relu6__relu6_threshold6__",
      "weights" : {

      },
      "mode" : 6,
      "debug_info" : "sequential\/model\/model_1\/block_6_depthwise_relu\/Relu6",
      "top" : "sequential\/model\/model_1\/block_6_depthwise_relu\/Relu6",
      "type" : "activation",
      "name" : "sequential\/model\/model_1\/block_6_depthwise_relu\/Relu6",
      "beta" : 0
    },
    {
      "pad_r" : 0,
      "fused_relu" : 0,
      "fused_tanh" : 0,
      "debug_info" : "sequential\/model\/model_1\/block_6_project_BN\/FusedBatchNormV3_nchw",
      "pad_fill_mode" : 0,
      "pad_b" : 0,
      "pad_l" : 0,
      "top" : "sequential\/model\/model_1\/block_6_project_BN\/FusedBatchNormV3_nchw",
      "blob_weights" : 83,
      "K" : 96,
      "blob_biases" : 81,
      "name" : "sequential\/model\/model_1\/block_6_project_BN\/FusedBatchNormV3_nchw",
      "has_batch_norm" : 0,
      "type" : "convolution",
      "n_groups" : 1,
      "pad_t" : 0,
      "has_biases" : 1,
      "C" : 24,
      "bottom" : "sequential\/model\/model_1\/block_6_depthwise_relu\/Relu6",
      "weights" : {

      },
      "Nx" : 1,
      "pad_mode" : 1,
      "pad_value" : 0,
      "Ny" : 1,
      "n_parallel" : 1
    },
    {
      "pad_r" : 0,
      "fused_relu" : 1,
      "fused_tanh" : 0,
      "debug_info" : "sequential\/model\/model_1\/block_7_expand_BN\/FusedBatchNormV3_nchw",
      "pad_fill_mode" : 0,
      "pad_b" : 0,
      "pad_l" : 0,
      "top" : "sequential\/model\/model_1\/block_7_expand_relu\/Relu6__relu6_relu__",
      "blob_weights" : 87,
      "K" : 24,
      "blob_biases" : 85,
      "name" : "sequential\/model\/model_1\/block_7_expand_BN\/FusedBatchNormV3_nchw",
      "has_batch_norm" : 0,
      "type" : "convolution",
      "n_groups" : 1,
      "pad_t" : 0,
      "has_biases" : 1,
      "C" : 144,
      "bottom" : "sequential\/model\/model_1\/block_6_project_BN\/FusedBatchNormV3_nchw",
      "weights" : {

      },
      "Nx" : 1,
      "pad_mode" : 1,
      "pad_value" : 0,
      "Ny" : 1,
      "n_parallel" : 1
    },
    {
      "alpha" : -1,
      "bottom" : "sequential\/model\/model_1\/block_7_expand_relu\/Relu6__relu6_relu__",
      "weights" : {

      },
      "mode" : 6,
      "debug_info" : "sequential\/model\/model_1\/block_7_expand_relu\/Relu6__relu6_neg__",
      "top" : "sequential\/model\/model_1\/block_7_expand_relu\/Relu6__relu6_neg__",
      "type" : "activation",
      "name" : "sequential\/model\/model_1\/block_7_expand_relu\/Relu6__relu6_neg__",
      "beta" : 0
    },
    {
      "bottom" : "sequential\/model\/model_1\/block_7_expand_relu\/Relu6__relu6_neg__",
      "alpha" : -6,
      "operation" : 25,
      "weights" : {

      },
      "fused_relu" : 0,
      "debug_info" : "sequential\/model\/model_1\/block_7_expand_relu\/Relu6__relu6_threshold6__",
      "top" : "sequential\/model\/model_1\/block_7_expand_relu\/Relu6__relu6_threshold6__",
      "type" : "elementwise",
      "name" : "sequential\/model\/model_1\/block_7_expand_relu\/Relu6__relu6_threshold6__",
      "beta" : 0
    },
    {
      "alpha" : -1,
      "bottom" : "sequential\/model\/model_1\/block_7_expand_relu\/Relu6__relu6_threshold6__",
      "weights" : {

      },
      "mode" : 6,
      "debug_info" : "sequential\/model\/model_1\/block_7_expand_relu\/Relu6",
      "top" : "sequential\/model\/model_1\/block_7_expand_relu\/Relu6",
      "type" : "activation",
      "name" : "sequential\/model\/model_1\/block_7_expand_relu\/Relu6",
      "beta" : 0
    },
    {
      "pad_r" : 0,
      "fused_relu" : 1,
      "fused_tanh" : 0,
      "debug_info" : "sequential\/model\/model_1\/block_7_depthwise_BN\/FusedBatchNormV3_nchw",
      "pad_fill_mode" : 0,
      "pad_b" : 0,
      "pad_l" : 0,
      "top" : "sequential\/model\/model_1\/block_7_depthwise_relu\/Relu6__relu6_relu__",
      "blob_weights" : 91,
      "K" : 144,
      "blob_biases" : 89,
      "name" : "sequential\/model\/model_1\/block_7_depthwise_BN\/FusedBatchNormV3_nchw",
      "has_batch_norm" : 0,
      "type" : "convolution",
      "n_groups" : 144,
      "pad_t" : 0,
      "has_biases" : 1,
      "C" : 144,
      "bottom" : "sequential\/model\/model_1\/block_7_expand_relu\/Relu6",
      "weights" : {

      },
      "Nx" : 3,
      "pad_mode" : 1,
      "pad_value" : 0,
      "Ny" : 3,
      "n_parallel" : 1
    },
    {
      "alpha" : -1,
      "bottom" : "sequential\/model\/model_1\/block_7_depthwise_relu\/Relu6__relu6_relu__",
      "weights" : {

      },
      "mode" : 6,
      "debug_info" : "sequential\/model\/model_1\/block_7_depthwise_relu\/Relu6__relu6_neg__",
      "top" : "sequential\/model\/model_1\/block_7_depthwise_relu\/Relu6__relu6_neg__",
      "type" : "activation",
      "name" : "sequential\/model\/model_1\/block_7_depthwise_relu\/Relu6__relu6_neg__",
      "beta" : 0
    },
    {
      "bottom" : "sequential\/model\/model_1\/block_7_depthwise_relu\/Relu6__relu6_neg__",
      "alpha" : -6,
      "operation" : 25,
      "weights" : {

      },
      "fused_relu" : 0,
      "debug_info" : "sequential\/model\/model_1\/block_7_depthwise_relu\/Relu6__relu6_threshold6__",
      "top" : "sequential\/model\/model_1\/block_7_depthwise_relu\/Relu6__relu6_threshold6__",
      "type" : "elementwise",
      "name" : "sequential\/model\/model_1\/block_7_depthwise_relu\/Relu6__relu6_threshold6__",
      "beta" : 0
    },
    {
      "alpha" : -1,
      "bottom" : "sequential\/model\/model_1\/block_7_depthwise_relu\/Relu6__relu6_threshold6__",
      "weights" : {

      },
      "mode" : 6,
      "debug_info" : "sequential\/model\/model_1\/block_7_depthwise_relu\/Relu6",
      "top" : "sequential\/model\/model_1\/block_7_depthwise_relu\/Relu6",
      "type" : "activation",
      "name" : "sequential\/model\/model_1\/block_7_depthwise_relu\/Relu6",
      "beta" : 0
    },
    {
      "pad_r" : 0,
      "fused_relu" : 0,
      "fused_tanh" : 0,
      "debug_info" : "sequential\/model\/model_1\/block_7_project_BN\/FusedBatchNormV3_nchw",
      "pad_fill_mode" : 0,
      "pad_b" : 0,
      "pad_l" : 0,
      "top" : "sequential\/model\/model_1\/block_7_project_BN\/FusedBatchNormV3_nchw",
      "blob_weights" : 95,
      "K" : 144,
      "blob_biases" : 93,
      "name" : "sequential\/model\/model_1\/block_7_project_BN\/FusedBatchNormV3_nchw",
      "has_batch_norm" : 0,
      "type" : "convolution",
      "n_groups" : 1,
      "pad_t" : 0,
      "has_biases" : 1,
      "C" : 24,
      "bottom" : "sequential\/model\/model_1\/block_7_depthwise_relu\/Relu6",
      "weights" : {

      },
      "Nx" : 1,
      "pad_mode" : 1,
      "pad_value" : 0,
      "Ny" : 1,
      "n_parallel" : 1
    },
    {
      "bottom" : "sequential\/model\/model_1\/block_6_project_BN\/FusedBatchNormV3_nchw,sequential\/model\/model_1\/block_7_project_BN\/FusedBatchNormV3_nchw",
      "alpha" : 1,
      "operation" : 0,
      "weights" : {

      },
      "fused_relu" : 0,
      "debug_info" : "sequential\/model\/model_1\/block_7_add\/add",
      "top" : "sequential\/model\/model_1\/block_7_add\/add",
      "type" : "elementwise",
      "name" : "sequential\/model\/model_1\/block_7_add\/add",
      "beta" : 0
    },
    {
      "pad_r" : 0,
      "fused_relu" : 1,
      "fused_tanh" : 0,
      "debug_info" : "sequential\/model\/model_1\/block_8_expand_BN\/FusedBatchNormV3_nchw",
      "pad_fill_mode" : 0,
      "pad_b" : 0,
      "pad_l" : 0,
      "top" : "sequential\/model\/model_1\/block_8_expand_relu\/Relu6__relu6_relu__",
      "blob_weights" : 99,
      "K" : 24,
      "blob_biases" : 97,
      "name" : "sequential\/model\/model_1\/block_8_expand_BN\/FusedBatchNormV3_nchw",
      "has_batch_norm" : 0,
      "type" : "convolution",
      "n_groups" : 1,
      "pad_t" : 0,
      "has_biases" : 1,
      "C" : 144,
      "bottom" : "sequential\/model\/model_1\/block_7_add\/add",
      "weights" : {

      },
      "Nx" : 1,
      "pad_mode" : 1,
      "pad_value" : 0,
      "Ny" : 1,
      "n_parallel" : 1
    },
    {
      "alpha" : -1,
      "bottom" : "sequential\/model\/model_1\/block_8_expand_relu\/Relu6__relu6_relu__",
      "weights" : {

      },
      "mode" : 6,
      "debug_info" : "sequential\/model\/model_1\/block_8_expand_relu\/Relu6__relu6_neg__",
      "top" : "sequential\/model\/model_1\/block_8_expand_relu\/Relu6__relu6_neg__",
      "type" : "activation",
      "name" : "sequential\/model\/model_1\/block_8_expand_relu\/Relu6__relu6_neg__",
      "beta" : 0
    },
    {
      "bottom" : "sequential\/model\/model_1\/block_8_expand_relu\/Relu6__relu6_neg__",
      "alpha" : -6,
      "operation" : 25,
      "weights" : {

      },
      "fused_relu" : 0,
      "debug_info" : "sequential\/model\/model_1\/block_8_expand_relu\/Relu6__relu6_threshold6__",
      "top" : "sequential\/model\/model_1\/block_8_expand_relu\/Relu6__relu6_threshold6__",
      "type" : "elementwise",
      "name" : "sequential\/model\/model_1\/block_8_expand_relu\/Relu6__relu6_threshold6__",
      "beta" : 0
    },
    {
      "alpha" : -1,
      "bottom" : "sequential\/model\/model_1\/block_8_expand_relu\/Relu6__relu6_threshold6__",
      "weights" : {

      },
      "mode" : 6,
      "debug_info" : "sequential\/model\/model_1\/block_8_expand_relu\/Relu6",
      "top" : "sequential\/model\/model_1\/block_8_expand_relu\/Relu6",
      "type" : "activation",
      "name" : "sequential\/model\/model_1\/block_8_expand_relu\/Relu6",
      "beta" : 0
    },
    {
      "pad_r" : 0,
      "fused_relu" : 1,
      "fused_tanh" : 0,
      "debug_info" : "sequential\/model\/model_1\/block_8_depthwise_BN\/FusedBatchNormV3_nchw",
      "pad_fill_mode" : 0,
      "pad_b" : 0,
      "pad_l" : 0,
      "top" : "sequential\/model\/model_1\/block_8_depthwise_relu\/Relu6__relu6_relu__",
      "blob_weights" : 103,
      "K" : 144,
      "blob_biases" : 101,
      "name" : "sequential\/model\/model_1\/block_8_depthwise_BN\/FusedBatchNormV3_nchw",
      "has_batch_norm" : 0,
      "type" : "convolution",
      "n_groups" : 144,
      "pad_t" : 0,
      "has_biases" : 1,
      "C" : 144,
      "bottom" : "sequential\/model\/model_1\/block_8_expand_relu\/Relu6",
      "weights" : {

      },
      "Nx" : 3,
      "pad_mode" : 1,
      "pad_value" : 0,
      "Ny" : 3,
      "n_parallel" : 1
    },
    {
      "alpha" : -1,
      "bottom" : "sequential\/model\/model_1\/block_8_depthwise_relu\/Relu6__relu6_relu__",
      "weights" : {

      },
      "mode" : 6,
      "debug_info" : "sequential\/model\/model_1\/block_8_depthwise_relu\/Relu6__relu6_neg__",
      "top" : "sequential\/model\/model_1\/block_8_depthwise_relu\/Relu6__relu6_neg__",
      "type" : "activation",
      "name" : "sequential\/model\/model_1\/block_8_depthwise_relu\/Relu6__relu6_neg__",
      "beta" : 0
    },
    {
      "bottom" : "sequential\/model\/model_1\/block_8_depthwise_relu\/Relu6__relu6_neg__",
      "alpha" : -6,
      "operation" : 25,
      "weights" : {

      },
      "fused_relu" : 0,
      "debug_info" : "sequential\/model\/model_1\/block_8_depthwise_relu\/Relu6__relu6_threshold6__",
      "top" : "sequential\/model\/model_1\/block_8_depthwise_relu\/Relu6__relu6_threshold6__",
      "type" : "elementwise",
      "name" : "sequential\/model\/model_1\/block_8_depthwise_relu\/Relu6__relu6_threshold6__",
      "beta" : 0
    },
    {
      "alpha" : -1,
      "bottom" : "sequential\/model\/model_1\/block_8_depthwise_relu\/Relu6__relu6_threshold6__",
      "weights" : {

      },
      "mode" : 6,
      "debug_info" : "sequential\/model\/model_1\/block_8_depthwise_relu\/Relu6",
      "top" : "sequential\/model\/model_1\/block_8_depthwise_relu\/Relu6",
      "type" : "activation",
      "name" : "sequential\/model\/model_1\/block_8_depthwise_relu\/Relu6",
      "beta" : 0
    },
    {
      "pad_r" : 0,
      "fused_relu" : 0,
      "fused_tanh" : 0,
      "debug_info" : "sequential\/model\/model_1\/block_8_project_BN\/FusedBatchNormV3_nchw",
      "pad_fill_mode" : 0,
      "pad_b" : 0,
      "pad_l" : 0,
      "top" : "sequential\/model\/model_1\/block_8_project_BN\/FusedBatchNormV3_nchw",
      "blob_weights" : 107,
      "K" : 144,
      "blob_biases" : 105,
      "name" : "sequential\/model\/model_1\/block_8_project_BN\/FusedBatchNormV3_nchw",
      "has_batch_norm" : 0,
      "type" : "convolution",
      "n_groups" : 1,
      "pad_t" : 0,
      "has_biases" : 1,
      "C" : 24,
      "bottom" : "sequential\/model\/model_1\/block_8_depthwise_relu\/Relu6",
      "weights" : {

      },
      "Nx" : 1,
      "pad_mode" : 1,
      "pad_value" : 0,
      "Ny" : 1,
      "n_parallel" : 1
    },
    {
      "bottom" : "sequential\/model\/model_1\/block_7_add\/add,sequential\/model\/model_1\/block_8_project_BN\/FusedBatchNormV3_nchw",
      "alpha" : 1,
      "operation" : 0,
      "weights" : {

      },
      "fused_relu" : 0,
      "debug_info" : "sequential\/model\/model_1\/block_8_add\/add",
      "top" : "sequential\/model\/model_1\/block_8_add\/add",
      "type" : "elementwise",
      "name" : "sequential\/model\/model_1\/block_8_add\/add",
      "beta" : 0
    },
    {
      "pad_r" : 0,
      "fused_relu" : 1,
      "fused_tanh" : 0,
      "debug_info" : "sequential\/model\/model_1\/block_9_expand_BN\/FusedBatchNormV3_nchw",
      "pad_fill_mode" : 0,
      "pad_b" : 0,
      "pad_l" : 0,
      "top" : "sequential\/model\/model_1\/block_9_expand_relu\/Relu6__relu6_relu__",
      "blob_weights" : 111,
      "K" : 24,
      "blob_biases" : 109,
      "name" : "sequential\/model\/model_1\/block_9_expand_BN\/FusedBatchNormV3_nchw",
      "has_batch_norm" : 0,
      "type" : "convolution",
      "n_groups" : 1,
      "pad_t" : 0,
      "has_biases" : 1,
      "C" : 144,
      "bottom" : "sequential\/model\/model_1\/block_8_add\/add",
      "weights" : {

      },
      "Nx" : 1,
      "pad_mode" : 1,
      "pad_value" : 0,
      "Ny" : 1,
      "n_parallel" : 1
    },
    {
      "alpha" : -1,
      "bottom" : "sequential\/model\/model_1\/block_9_expand_relu\/Relu6__relu6_relu__",
      "weights" : {

      },
      "mode" : 6,
      "debug_info" : "sequential\/model\/model_1\/block_9_expand_relu\/Relu6__relu6_neg__",
      "top" : "sequential\/model\/model_1\/block_9_expand_relu\/Relu6__relu6_neg__",
      "type" : "activation",
      "name" : "sequential\/model\/model_1\/block_9_expand_relu\/Relu6__relu6_neg__",
      "beta" : 0
    },
    {
      "bottom" : "sequential\/model\/model_1\/block_9_expand_relu\/Relu6__relu6_neg__",
      "alpha" : -6,
      "operation" : 25,
      "weights" : {

      },
      "fused_relu" : 0,
      "debug_info" : "sequential\/model\/model_1\/block_9_expand_relu\/Relu6__relu6_threshold6__",
      "top" : "sequential\/model\/model_1\/block_9_expand_relu\/Relu6__relu6_threshold6__",
      "type" : "elementwise",
      "name" : "sequential\/model\/model_1\/block_9_expand_relu\/Relu6__relu6_threshold6__",
      "beta" : 0
    },
    {
      "alpha" : -1,
      "bottom" : "sequential\/model\/model_1\/block_9_expand_relu\/Relu6__relu6_threshold6__",
      "weights" : {

      },
      "mode" : 6,
      "debug_info" : "sequential\/model\/model_1\/block_9_expand_relu\/Relu6",
      "top" : "sequential\/model\/model_1\/block_9_expand_relu\/Relu6",
      "type" : "activation",
      "name" : "sequential\/model\/model_1\/block_9_expand_relu\/Relu6",
      "beta" : 0
    },
    {
      "pad_r" : 0,
      "fused_relu" : 1,
      "fused_tanh" : 0,
      "debug_info" : "sequential\/model\/model_1\/block_9_depthwise_BN\/FusedBatchNormV3_nchw",
      "pad_fill_mode" : 0,
      "pad_b" : 0,
      "pad_l" : 0,
      "top" : "sequential\/model\/model_1\/block_9_depthwise_relu\/Relu6__relu6_relu__",
      "blob_weights" : 115,
      "K" : 144,
      "blob_biases" : 113,
      "name" : "sequential\/model\/model_1\/block_9_depthwise_BN\/FusedBatchNormV3_nchw",
      "has_batch_norm" : 0,
      "type" : "convolution",
      "n_groups" : 144,
      "pad_t" : 0,
      "has_biases" : 1,
      "C" : 144,
      "bottom" : "sequential\/model\/model_1\/block_9_expand_relu\/Relu6",
      "weights" : {

      },
      "Nx" : 3,
      "pad_mode" : 1,
      "pad_value" : 0,
      "Ny" : 3,
      "n_parallel" : 1
    },
    {
      "alpha" : -1,
      "bottom" : "sequential\/model\/model_1\/block_9_depthwise_relu\/Relu6__relu6_relu__",
      "weights" : {

      },
      "mode" : 6,
      "debug_info" : "sequential\/model\/model_1\/block_9_depthwise_relu\/Relu6__relu6_neg__",
      "top" : "sequential\/model\/model_1\/block_9_depthwise_relu\/Relu6__relu6_neg__",
      "type" : "activation",
      "name" : "sequential\/model\/model_1\/block_9_depthwise_relu\/Relu6__relu6_neg__",
      "beta" : 0
    },
    {
      "bottom" : "sequential\/model\/model_1\/block_9_depthwise_relu\/Relu6__relu6_neg__",
      "alpha" : -6,
      "operation" : 25,
      "weights" : {

      },
      "fused_relu" : 0,
      "debug_info" : "sequential\/model\/model_1\/block_9_depthwise_relu\/Relu6__relu6_threshold6__",
      "top" : "sequential\/model\/model_1\/block_9_depthwise_relu\/Relu6__relu6_threshold6__",
      "type" : "elementwise",
      "name" : "sequential\/model\/model_1\/block_9_depthwise_relu\/Relu6__relu6_threshold6__",
      "beta" : 0
    },
    {
      "alpha" : -1,
      "bottom" : "sequential\/model\/model_1\/block_9_depthwise_relu\/Relu6__relu6_threshold6__",
      "weights" : {

      },
      "mode" : 6,
      "debug_info" : "sequential\/model\/model_1\/block_9_depthwise_relu\/Relu6",
      "top" : "sequential\/model\/model_1\/block_9_depthwise_relu\/Relu6",
      "type" : "activation",
      "name" : "sequential\/model\/model_1\/block_9_depthwise_relu\/Relu6",
      "beta" : 0
    },
    {
      "pad_r" : 0,
      "fused_relu" : 0,
      "fused_tanh" : 0,
      "debug_info" : "sequential\/model\/model_1\/block_9_project_BN\/FusedBatchNormV3_nchw",
      "pad_fill_mode" : 0,
      "pad_b" : 0,
      "pad_l" : 0,
      "top" : "sequential\/model\/model_1\/block_9_project_BN\/FusedBatchNormV3_nchw",
      "blob_weights" : 119,
      "K" : 144,
      "blob_biases" : 117,
      "name" : "sequential\/model\/model_1\/block_9_project_BN\/FusedBatchNormV3_nchw",
      "has_batch_norm" : 0,
      "type" : "convolution",
      "n_groups" : 1,
      "pad_t" : 0,
      "has_biases" : 1,
      "C" : 24,
      "bottom" : "sequential\/model\/model_1\/block_9_depthwise_relu\/Relu6",
      "weights" : {

      },
      "Nx" : 1,
      "pad_mode" : 1,
      "pad_value" : 0,
      "Ny" : 1,
      "n_parallel" : 1
    },
    {
      "bottom" : "sequential\/model\/model_1\/block_8_add\/add,sequential\/model\/model_1\/block_9_project_BN\/FusedBatchNormV3_nchw",
      "alpha" : 1,
      "operation" : 0,
      "weights" : {

      },
      "fused_relu" : 0,
      "debug_info" : "sequential\/model\/model_1\/block_9_add\/add",
      "top" : "sequential\/model\/model_1\/block_9_add\/add",
      "type" : "elementwise",
      "name" : "sequential\/model\/model_1\/block_9_add\/add",
      "beta" : 0
    },
    {
      "pad_r" : 0,
      "fused_relu" : 1,
      "fused_tanh" : 0,
      "debug_info" : "sequential\/model\/model_1\/block_10_expand_BN\/FusedBatchNormV3_nchw",
      "pad_fill_mode" : 0,
      "pad_b" : 0,
      "pad_l" : 0,
      "top" : "sequential\/model\/model_1\/block_10_expand_relu\/Relu6__relu6_relu__",
      "blob_weights" : 123,
      "K" : 24,
      "blob_biases" : 121,
      "name" : "sequential\/model\/model_1\/block_10_expand_BN\/FusedBatchNormV3_nchw",
      "has_batch_norm" : 0,
      "type" : "convolution",
      "n_groups" : 1,
      "pad_t" : 0,
      "has_biases" : 1,
      "C" : 144,
      "bottom" : "sequential\/model\/model_1\/block_9_add\/add",
      "weights" : {

      },
      "Nx" : 1,
      "pad_mode" : 1,
      "pad_value" : 0,
      "Ny" : 1,
      "n_parallel" : 1
    },
    {
      "alpha" : -1,
      "bottom" : "sequential\/model\/model_1\/block_10_expand_relu\/Relu6__relu6_relu__",
      "weights" : {

      },
      "mode" : 6,
      "debug_info" : "sequential\/model\/model_1\/block_10_expand_relu\/Relu6__relu6_neg__",
      "top" : "sequential\/model\/model_1\/block_10_expand_relu\/Relu6__relu6_neg__",
      "type" : "activation",
      "name" : "sequential\/model\/model_1\/block_10_expand_relu\/Relu6__relu6_neg__",
      "beta" : 0
    },
    {
      "bottom" : "sequential\/model\/model_1\/block_10_expand_relu\/Relu6__relu6_neg__",
      "alpha" : -6,
      "operation" : 25,
      "weights" : {

      },
      "fused_relu" : 0,
      "debug_info" : "sequential\/model\/model_1\/block_10_expand_relu\/Relu6__relu6_threshold6__",
      "top" : "sequential\/model\/model_1\/block_10_expand_relu\/Relu6__relu6_threshold6__",
      "type" : "elementwise",
      "name" : "sequential\/model\/model_1\/block_10_expand_relu\/Relu6__relu6_threshold6__",
      "beta" : 0
    },
    {
      "alpha" : -1,
      "bottom" : "sequential\/model\/model_1\/block_10_expand_relu\/Relu6__relu6_threshold6__",
      "weights" : {

      },
      "mode" : 6,
      "debug_info" : "sequential\/model\/model_1\/block_10_expand_relu\/Relu6",
      "top" : "sequential\/model\/model_1\/block_10_expand_relu\/Relu6",
      "type" : "activation",
      "name" : "sequential\/model\/model_1\/block_10_expand_relu\/Relu6",
      "beta" : 0
    },
    {
      "pad_r" : 0,
      "fused_relu" : 1,
      "fused_tanh" : 0,
      "debug_info" : "sequential\/model\/model_1\/block_10_depthwise_BN\/FusedBatchNormV3_nchw",
      "pad_fill_mode" : 0,
      "pad_b" : 0,
      "pad_l" : 0,
      "top" : "sequential\/model\/model_1\/block_10_depthwise_relu\/Relu6__relu6_relu__",
      "blob_weights" : 127,
      "K" : 144,
      "blob_biases" : 125,
      "name" : "sequential\/model\/model_1\/block_10_depthwise_BN\/FusedBatchNormV3_nchw",
      "has_batch_norm" : 0,
      "type" : "convolution",
      "n_groups" : 144,
      "pad_t" : 0,
      "has_biases" : 1,
      "C" : 144,
      "bottom" : "sequential\/model\/model_1\/block_10_expand_relu\/Relu6",
      "weights" : {

      },
      "Nx" : 3,
      "pad_mode" : 1,
      "pad_value" : 0,
      "Ny" : 3,
      "n_parallel" : 1
    },
    {
      "alpha" : -1,
      "bottom" : "sequential\/model\/model_1\/block_10_depthwise_relu\/Relu6__relu6_relu__",
      "weights" : {

      },
      "mode" : 6,
      "debug_info" : "sequential\/model\/model_1\/block_10_depthwise_relu\/Relu6__relu6_neg__",
      "top" : "sequential\/model\/model_1\/block_10_depthwise_relu\/Relu6__relu6_neg__",
      "type" : "activation",
      "name" : "sequential\/model\/model_1\/block_10_depthwise_relu\/Relu6__relu6_neg__",
      "beta" : 0
    },
    {
      "bottom" : "sequential\/model\/model_1\/block_10_depthwise_relu\/Relu6__relu6_neg__",
      "alpha" : -6,
      "operation" : 25,
      "weights" : {

      },
      "fused_relu" : 0,
      "debug_info" : "sequential\/model\/model_1\/block_10_depthwise_relu\/Relu6__relu6_threshold6__",
      "top" : "sequential\/model\/model_1\/block_10_depthwise_relu\/Relu6__relu6_threshold6__",
      "type" : "elementwise",
      "name" : "sequential\/model\/model_1\/block_10_depthwise_relu\/Relu6__relu6_threshold6__",
      "beta" : 0
    },
    {
      "alpha" : -1,
      "bottom" : "sequential\/model\/model_1\/block_10_depthwise_relu\/Relu6__relu6_threshold6__",
      "weights" : {

      },
      "mode" : 6,
      "debug_info" : "sequential\/model\/model_1\/block_10_depthwise_relu\/Relu6",
      "top" : "sequential\/model\/model_1\/block_10_depthwise_relu\/Relu6",
      "type" : "activation",
      "name" : "sequential\/model\/model_1\/block_10_depthwise_relu\/Relu6",
      "beta" : 0
    },
    {
      "pad_r" : 0,
      "fused_relu" : 0,
      "fused_tanh" : 0,
      "debug_info" : "sequential\/model\/model_1\/block_10_project_BN\/FusedBatchNormV3_nchw",
      "pad_fill_mode" : 0,
      "pad_b" : 0,
      "pad_l" : 0,
      "top" : "sequential\/model\/model_1\/block_10_project_BN\/FusedBatchNormV3_nchw",
      "blob_weights" : 131,
      "K" : 144,
      "blob_biases" : 129,
      "name" : "sequential\/model\/model_1\/block_10_project_BN\/FusedBatchNormV3_nchw",
      "has_batch_norm" : 0,
      "type" : "convolution",
      "n_groups" : 1,
      "pad_t" : 0,
      "has_biases" : 1,
      "C" : 32,
      "bottom" : "sequential\/model\/model_1\/block_10_depthwise_relu\/Relu6",
      "weights" : {

      },
      "Nx" : 1,
      "pad_mode" : 1,
      "pad_value" : 0,
      "Ny" : 1,
      "n_parallel" : 1
    },
    {
      "pad_r" : 0,
      "fused_relu" : 1,
      "fused_tanh" : 0,
      "debug_info" : "sequential\/model\/model_1\/block_11_expand_BN\/FusedBatchNormV3_nchw",
      "pad_fill_mode" : 0,
      "pad_b" : 0,
      "pad_l" : 0,
      "top" : "sequential\/model\/model_1\/block_11_expand_relu\/Relu6__relu6_relu__",
      "blob_weights" : 135,
      "K" : 32,
      "blob_biases" : 133,
      "name" : "sequential\/model\/model_1\/block_11_expand_BN\/FusedBatchNormV3_nchw",
      "has_batch_norm" : 0,
      "type" : "convolution",
      "n_groups" : 1,
      "pad_t" : 0,
      "has_biases" : 1,
      "C" : 192,
      "bottom" : "sequential\/model\/model_1\/block_10_project_BN\/FusedBatchNormV3_nchw",
      "weights" : {

      },
      "Nx" : 1,
      "pad_mode" : 1,
      "pad_value" : 0,
      "Ny" : 1,
      "n_parallel" : 1
    },
    {
      "alpha" : -1,
      "bottom" : "sequential\/model\/model_1\/block_11_expand_relu\/Relu6__relu6_relu__",
      "weights" : {

      },
      "mode" : 6,
      "debug_info" : "sequential\/model\/model_1\/block_11_expand_relu\/Relu6__relu6_neg__",
      "top" : "sequential\/model\/model_1\/block_11_expand_relu\/Relu6__relu6_neg__",
      "type" : "activation",
      "name" : "sequential\/model\/model_1\/block_11_expand_relu\/Relu6__relu6_neg__",
      "beta" : 0
    },
    {
      "bottom" : "sequential\/model\/model_1\/block_11_expand_relu\/Relu6__relu6_neg__",
      "alpha" : -6,
      "operation" : 25,
      "weights" : {

      },
      "fused_relu" : 0,
      "debug_info" : "sequential\/model\/model_1\/block_11_expand_relu\/Relu6__relu6_threshold6__",
      "top" : "sequential\/model\/model_1\/block_11_expand_relu\/Relu6__relu6_threshold6__",
      "type" : "elementwise",
      "name" : "sequential\/model\/model_1\/block_11_expand_relu\/Relu6__relu6_threshold6__",
      "beta" : 0
    },
    {
      "alpha" : -1,
      "bottom" : "sequential\/model\/model_1\/block_11_expand_relu\/Relu6__relu6_threshold6__",
      "weights" : {

      },
      "mode" : 6,
      "debug_info" : "sequential\/model\/model_1\/block_11_expand_relu\/Relu6",
      "top" : "sequential\/model\/model_1\/block_11_expand_relu\/Relu6",
      "type" : "activation",
      "name" : "sequential\/model\/model_1\/block_11_expand_relu\/Relu6",
      "beta" : 0
    },
    {
      "pad_r" : 0,
      "fused_relu" : 1,
      "fused_tanh" : 0,
      "debug_info" : "sequential\/model\/model_1\/block_11_depthwise_BN\/FusedBatchNormV3_nchw",
      "pad_fill_mode" : 0,
      "pad_b" : 0,
      "pad_l" : 0,
      "top" : "sequential\/model\/model_1\/block_11_depthwise_relu\/Relu6__relu6_relu__",
      "blob_weights" : 139,
      "K" : 192,
      "blob_biases" : 137,
      "name" : "sequential\/model\/model_1\/block_11_depthwise_BN\/FusedBatchNormV3_nchw",
      "has_batch_norm" : 0,
      "type" : "convolution",
      "n_groups" : 192,
      "pad_t" : 0,
      "has_biases" : 1,
      "C" : 192,
      "bottom" : "sequential\/model\/model_1\/block_11_expand_relu\/Relu6",
      "weights" : {

      },
      "Nx" : 3,
      "pad_mode" : 1,
      "pad_value" : 0,
      "Ny" : 3,
      "n_parallel" : 1
    },
    {
      "alpha" : -1,
      "bottom" : "sequential\/model\/model_1\/block_11_depthwise_relu\/Relu6__relu6_relu__",
      "weights" : {

      },
      "mode" : 6,
      "debug_info" : "sequential\/model\/model_1\/block_11_depthwise_relu\/Relu6__relu6_neg__",
      "top" : "sequential\/model\/model_1\/block_11_depthwise_relu\/Relu6__relu6_neg__",
      "type" : "activation",
      "name" : "sequential\/model\/model_1\/block_11_depthwise_relu\/Relu6__relu6_neg__",
      "beta" : 0
    },
    {
      "bottom" : "sequential\/model\/model_1\/block_11_depthwise_relu\/Relu6__relu6_neg__",
      "alpha" : -6,
      "operation" : 25,
      "weights" : {

      },
      "fused_relu" : 0,
      "debug_info" : "sequential\/model\/model_1\/block_11_depthwise_relu\/Relu6__relu6_threshold6__",
      "top" : "sequential\/model\/model_1\/block_11_depthwise_relu\/Relu6__relu6_threshold6__",
      "type" : "elementwise",
      "name" : "sequential\/model\/model_1\/block_11_depthwise_relu\/Relu6__relu6_threshold6__",
      "beta" : 0
    },
    {
      "alpha" : -1,
      "bottom" : "sequential\/model\/model_1\/block_11_depthwise_relu\/Relu6__relu6_threshold6__",
      "weights" : {

      },
      "mode" : 6,
      "debug_info" : "sequential\/model\/model_1\/block_11_depthwise_relu\/Relu6",
      "top" : "sequential\/model\/model_1\/block_11_depthwise_relu\/Relu6",
      "type" : "activation",
      "name" : "sequential\/model\/model_1\/block_11_depthwise_relu\/Relu6",
      "beta" : 0
    },
    {
      "pad_r" : 0,
      "fused_relu" : 0,
      "fused_tanh" : 0,
      "debug_info" : "sequential\/model\/model_1\/block_11_project_BN\/FusedBatchNormV3_nchw",
      "pad_fill_mode" : 0,
      "pad_b" : 0,
      "pad_l" : 0,
      "top" : "sequential\/model\/model_1\/block_11_project_BN\/FusedBatchNormV3_nchw",
      "blob_weights" : 143,
      "K" : 192,
      "blob_biases" : 141,
      "name" : "sequential\/model\/model_1\/block_11_project_BN\/FusedBatchNormV3_nchw",
      "has_batch_norm" : 0,
      "type" : "convolution",
      "n_groups" : 1,
      "pad_t" : 0,
      "has_biases" : 1,
      "C" : 32,
      "bottom" : "sequential\/model\/model_1\/block_11_depthwise_relu\/Relu6",
      "weights" : {

      },
      "Nx" : 1,
      "pad_mode" : 1,
      "pad_value" : 0,
      "Ny" : 1,
      "n_parallel" : 1
    },
    {
      "bottom" : "sequential\/model\/model_1\/block_10_project_BN\/FusedBatchNormV3_nchw,sequential\/model\/model_1\/block_11_project_BN\/FusedBatchNormV3_nchw",
      "alpha" : 1,
      "operation" : 0,
      "weights" : {

      },
      "fused_relu" : 0,
      "debug_info" : "sequential\/model\/model_1\/block_11_add\/add",
      "top" : "sequential\/model\/model_1\/block_11_add\/add",
      "type" : "elementwise",
      "name" : "sequential\/model\/model_1\/block_11_add\/add",
      "beta" : 0
    },
    {
      "pad_r" : 0,
      "fused_relu" : 1,
      "fused_tanh" : 0,
      "debug_info" : "sequential\/model\/model_1\/block_12_expand_BN\/FusedBatchNormV3_nchw",
      "pad_fill_mode" : 0,
      "pad_b" : 0,
      "pad_l" : 0,
      "top" : "sequential\/model\/model_1\/block_12_expand_relu\/Relu6__relu6_relu__",
      "blob_weights" : 147,
      "K" : 32,
      "blob_biases" : 145,
      "name" : "sequential\/model\/model_1\/block_12_expand_BN\/FusedBatchNormV3_nchw",
      "has_batch_norm" : 0,
      "type" : "convolution",
      "n_groups" : 1,
      "pad_t" : 0,
      "has_biases" : 1,
      "C" : 192,
      "bottom" : "sequential\/model\/model_1\/block_11_add\/add",
      "weights" : {

      },
      "Nx" : 1,
      "pad_mode" : 1,
      "pad_value" : 0,
      "Ny" : 1,
      "n_parallel" : 1
    },
    {
      "alpha" : -1,
      "bottom" : "sequential\/model\/model_1\/block_12_expand_relu\/Relu6__relu6_relu__",
      "weights" : {

      },
      "mode" : 6,
      "debug_info" : "sequential\/model\/model_1\/block_12_expand_relu\/Relu6__relu6_neg__",
      "top" : "sequential\/model\/model_1\/block_12_expand_relu\/Relu6__relu6_neg__",
      "type" : "activation",
      "name" : "sequential\/model\/model_1\/block_12_expand_relu\/Relu6__relu6_neg__",
      "beta" : 0
    },
    {
      "bottom" : "sequential\/model\/model_1\/block_12_expand_relu\/Relu6__relu6_neg__",
      "alpha" : -6,
      "operation" : 25,
      "weights" : {

      },
      "fused_relu" : 0,
      "debug_info" : "sequential\/model\/model_1\/block_12_expand_relu\/Relu6__relu6_threshold6__",
      "top" : "sequential\/model\/model_1\/block_12_expand_relu\/Relu6__relu6_threshold6__",
      "type" : "elementwise",
      "name" : "sequential\/model\/model_1\/block_12_expand_relu\/Relu6__relu6_threshold6__",
      "beta" : 0
    },
    {
      "alpha" : -1,
      "bottom" : "sequential\/model\/model_1\/block_12_expand_relu\/Relu6__relu6_threshold6__",
      "weights" : {

      },
      "mode" : 6,
      "debug_info" : "sequential\/model\/model_1\/block_12_expand_relu\/Relu6",
      "top" : "sequential\/model\/model_1\/block_12_expand_relu\/Relu6",
      "type" : "activation",
      "name" : "sequential\/model\/model_1\/block_12_expand_relu\/Relu6",
      "beta" : 0
    },
    {
      "pad_r" : 0,
      "fused_relu" : 1,
      "fused_tanh" : 0,
      "debug_info" : "sequential\/model\/model_1\/block_12_depthwise_BN\/FusedBatchNormV3_nchw",
      "pad_fill_mode" : 0,
      "pad_b" : 0,
      "pad_l" : 0,
      "top" : "sequential\/model\/model_1\/block_12_depthwise_relu\/Relu6__relu6_relu__",
      "blob_weights" : 151,
      "K" : 192,
      "blob_biases" : 149,
      "name" : "sequential\/model\/model_1\/block_12_depthwise_BN\/FusedBatchNormV3_nchw",
      "has_batch_norm" : 0,
      "type" : "convolution",
      "n_groups" : 192,
      "pad_t" : 0,
      "has_biases" : 1,
      "C" : 192,
      "bottom" : "sequential\/model\/model_1\/block_12_expand_relu\/Relu6",
      "weights" : {

      },
      "Nx" : 3,
      "pad_mode" : 1,
      "pad_value" : 0,
      "Ny" : 3,
      "n_parallel" : 1
    },
    {
      "alpha" : -1,
      "bottom" : "sequential\/model\/model_1\/block_12_depthwise_relu\/Relu6__relu6_relu__",
      "weights" : {

      },
      "mode" : 6,
      "debug_info" : "sequential\/model\/model_1\/block_12_depthwise_relu\/Relu6__relu6_neg__",
      "top" : "sequential\/model\/model_1\/block_12_depthwise_relu\/Relu6__relu6_neg__",
      "type" : "activation",
      "name" : "sequential\/model\/model_1\/block_12_depthwise_relu\/Relu6__relu6_neg__",
      "beta" : 0
    },
    {
      "bottom" : "sequential\/model\/model_1\/block_12_depthwise_relu\/Relu6__relu6_neg__",
      "alpha" : -6,
      "operation" : 25,
      "weights" : {

      },
      "fused_relu" : 0,
      "debug_info" : "sequential\/model\/model_1\/block_12_depthwise_relu\/Relu6__relu6_threshold6__",
      "top" : "sequential\/model\/model_1\/block_12_depthwise_relu\/Relu6__relu6_threshold6__",
      "type" : "elementwise",
      "name" : "sequential\/model\/model_1\/block_12_depthwise_relu\/Relu6__relu6_threshold6__",
      "beta" : 0
    },
    {
      "alpha" : -1,
      "bottom" : "sequential\/model\/model_1\/block_12_depthwise_relu\/Relu6__relu6_threshold6__",
      "weights" : {

      },
      "mode" : 6,
      "debug_info" : "sequential\/model\/model_1\/block_12_depthwise_relu\/Relu6",
      "top" : "sequential\/model\/model_1\/block_12_depthwise_relu\/Relu6",
      "type" : "activation",
      "name" : "sequential\/model\/model_1\/block_12_depthwise_relu\/Relu6",
      "beta" : 0
    },
    {
      "pad_r" : 0,
      "fused_relu" : 0,
      "fused_tanh" : 0,
      "debug_info" : "sequential\/model\/model_1\/block_12_project_BN\/FusedBatchNormV3_nchw",
      "pad_fill_mode" : 0,
      "pad_b" : 0,
      "pad_l" : 0,
      "top" : "sequential\/model\/model_1\/block_12_project_BN\/FusedBatchNormV3_nchw",
      "blob_weights" : 155,
      "K" : 192,
      "blob_biases" : 153,
      "name" : "sequential\/model\/model_1\/block_12_project_BN\/FusedBatchNormV3_nchw",
      "has_batch_norm" : 0,
      "type" : "convolution",
      "n_groups" : 1,
      "pad_t" : 0,
      "has_biases" : 1,
      "C" : 32,
      "bottom" : "sequential\/model\/model_1\/block_12_depthwise_relu\/Relu6",
      "weights" : {

      },
      "Nx" : 1,
      "pad_mode" : 1,
      "pad_value" : 0,
      "Ny" : 1,
      "n_parallel" : 1
    },
    {
      "bottom" : "sequential\/model\/model_1\/block_11_add\/add,sequential\/model\/model_1\/block_12_project_BN\/FusedBatchNormV3_nchw",
      "alpha" : 1,
      "operation" : 0,
      "weights" : {

      },
      "fused_relu" : 0,
      "debug_info" : "sequential\/model\/model_1\/block_12_add\/add",
      "top" : "sequential\/model\/model_1\/block_12_add\/add",
      "type" : "elementwise",
      "name" : "sequential\/model\/model_1\/block_12_add\/add",
      "beta" : 0
    },
    {
      "pad_r" : 0,
      "fused_relu" : 1,
      "fused_tanh" : 0,
      "debug_info" : "sequential\/model\/model_1\/block_13_expand_BN\/FusedBatchNormV3_nchw",
      "pad_fill_mode" : 0,
      "pad_b" : 0,
      "pad_l" : 0,
      "top" : "sequential\/model\/model_1\/block_13_expand_relu\/Relu6__relu6_relu__",
      "blob_weights" : 159,
      "K" : 32,
      "blob_biases" : 157,
      "name" : "sequential\/model\/model_1\/block_13_expand_BN\/FusedBatchNormV3_nchw",
      "has_batch_norm" : 0,
      "type" : "convolution",
      "n_groups" : 1,
      "pad_t" : 0,
      "has_biases" : 1,
      "C" : 192,
      "bottom" : "sequential\/model\/model_1\/block_12_add\/add",
      "weights" : {

      },
      "Nx" : 1,
      "pad_mode" : 1,
      "pad_value" : 0,
      "Ny" : 1,
      "n_parallel" : 1
    },
    {
      "alpha" : -1,
      "bottom" : "sequential\/model\/model_1\/block_13_expand_relu\/Relu6__relu6_relu__",
      "weights" : {

      },
      "mode" : 6,
      "debug_info" : "sequential\/model\/model_1\/block_13_expand_relu\/Relu6__relu6_neg__",
      "top" : "sequential\/model\/model_1\/block_13_expand_relu\/Relu6__relu6_neg__",
      "type" : "activation",
      "name" : "sequential\/model\/model_1\/block_13_expand_relu\/Relu6__relu6_neg__",
      "beta" : 0
    },
    {
      "bottom" : "sequential\/model\/model_1\/block_13_expand_relu\/Relu6__relu6_neg__",
      "alpha" : -6,
      "operation" : 25,
      "weights" : {

      },
      "fused_relu" : 0,
      "debug_info" : "sequential\/model\/model_1\/block_13_expand_relu\/Relu6__relu6_threshold6__",
      "top" : "sequential\/model\/model_1\/block_13_expand_relu\/Relu6__relu6_threshold6__",
      "type" : "elementwise",
      "name" : "sequential\/model\/model_1\/block_13_expand_relu\/Relu6__relu6_threshold6__",
      "beta" : 0
    },
    {
      "alpha" : -1,
      "bottom" : "sequential\/model\/model_1\/block_13_expand_relu\/Relu6__relu6_threshold6__",
      "weights" : {

      },
      "mode" : 6,
      "debug_info" : "sequential\/model\/model_1\/block_13_expand_relu\/Relu6",
      "top" : "sequential\/model\/model_1\/block_13_expand_relu\/Relu6",
      "type" : "activation",
      "name" : "sequential\/model\/model_1\/block_13_expand_relu\/Relu6",
      "beta" : 0
    },
    {
      "top" : "sequential\/model\/model_1\/up_sampling2d_4\/resize\/ResizeNearestNeighbor_channel_first_resize",
      "use_fractional_scale_factors" : false,
      "weights" : {

      },
      "fractional_scaling_factor_y" : 1,
      "type" : "upsample",
      "scaling_factor_x" : 2,
      "mode" : 0,
      "align_corners" : 0,
      "bottom" : "sequential\/model\/model_1\/block_13_expand_relu\/Relu6",
      "debug_info" : "sequential\/model\/model_1\/up_sampling2d_4\/resize\/ResizeNearestNeighbor_channel_first_resize",
      "fractional_scaling_factor_x" : 1,
      "is_legacy_mode" : 1,
      "name" : "sequential\/model\/model_1\/up_sampling2d_4\/resize\/ResizeNearestNeighbor_channel_first_resize",
      "scaling_factor_y" : 2
    },
    {
      "weights" : {

      },
      "debug_info" : "sequential\/model\/model_1\/concatenate_4\/concat",
      "top" : "sequential\/model\/model_1\/concatenate_4\/concat",
      "type" : "concat",
      "name" : "sequential\/model\/model_1\/concatenate_4\/concat",
      "bottom" : "sequential\/model\/model_1\/up_sampling2d_4\/resize\/ResizeNearestNeighbor_channel_first_resize,sequential\/model\/model_1\/block_6_expand_relu\/Relu6"
    },
    {
      "pad_r" : 0,
      "fused_relu" : 1,
      "fused_tanh" : 0,
      "debug_info" : "sequential\/model\/model_1\/batch_normalization_8\/FusedBatchNormV3_nchw",
      "pad_fill_mode" : 0,
      "pad_b" : 0,
      "pad_l" : 0,
      "top" : "sequential\/model\/model_1\/activation_9\/Relu",
      "blob_weights" : 163,
      "K" : 288,
      "blob_biases" : 161,
      "name" : "sequential\/model\/model_1\/batch_normalization_8\/FusedBatchNormV3_nchw",
      "has_batch_norm" : 0,
      "type" : "convolution",
      "n_groups" : 1,
      "pad_t" : 0,
      "has_biases" : 1,
      "C" : 32,
      "bottom" : "sequential\/model\/model_1\/concatenate_4\/concat",
      "weights" : {

      },
      "Nx" : 3,
      "pad_mode" : 1,
      "pad_value" : 0,
      "Ny" : 3,
      "n_parallel" : 1
    },
    {
      "pad_r" : 0,
      "fused_relu" : 1,
      "fused_tanh" : 0,
      "debug_info" : "sequential\/model\/model_1\/batch_normalization_9\/FusedBatchNormV3_nchw",
      "pad_fill_mode" : 0,
      "pad_b" : 0,
      "pad_l" : 0,
      "top" : "sequential\/model\/model_1\/activation_10\/Relu",
      "blob_weights" : 167,
      "K" : 32,
      "blob_biases" : 165,
      "name" : "sequential\/model\/model_1\/batch_normalization_9\/FusedBatchNormV3_nchw",
      "has_batch_norm" : 0,
      "type" : "convolution",
      "n_groups" : 1,
      "pad_t" : 0,
      "has_biases" : 1,
      "C" : 32,
      "bottom" : "sequential\/model\/model_1\/activation_9\/Relu",
      "weights" : {

      },
      "Nx" : 3,
      "pad_mode" : 1,
      "pad_value" : 0,
      "Ny" : 3,
      "n_parallel" : 1
    },
    {
      "top" : "sequential\/model\/model_1\/up_sampling2d_5\/resize\/ResizeNearestNeighbor_channel_first_resize",
      "use_fractional_scale_factors" : false,
      "weights" : {

      },
      "fractional_scaling_factor_y" : 1,
      "type" : "upsample",
      "scaling_factor_x" : 2,
      "mode" : 0,
      "align_corners" : 0,
      "bottom" : "sequential\/model\/model_1\/activation_10\/Relu",
      "debug_info" : "sequential\/model\/model_1\/up_sampling2d_5\/resize\/ResizeNearestNeighbor_channel_first_resize",
      "fractional_scaling_factor_x" : 1,
      "is_legacy_mode" : 1,
      "name" : "sequential\/model\/model_1\/up_sampling2d_5\/resize\/ResizeNearestNeighbor_channel_first_resize",
      "scaling_factor_y" : 2
    },
    {
      "weights" : {

      },
      "debug_info" : "sequential\/model\/model_1\/concatenate_5\/concat",
      "top" : "sequential\/model\/model_1\/concatenate_5\/concat",
      "type" : "concat",
      "name" : "sequential\/model\/model_1\/concatenate_5\/concat",
      "bottom" : "sequential\/model\/model_1\/up_sampling2d_5\/resize\/ResizeNearestNeighbor_channel_first_resize,sequential\/model\/model_1\/block_3_expand_relu\/Relu6"
    },
    {
      "pad_r" : 0,
      "fused_relu" : 1,
      "fused_tanh" : 0,
      "debug_info" : "sequential\/model\/model_1\/batch_normalization_10\/FusedBatchNormV3_nchw",
      "pad_fill_mode" : 0,
      "pad_b" : 0,
      "pad_l" : 0,
      "top" : "sequential\/model\/model_1\/activation_11\/Relu",
      "blob_weights" : 171,
      "K" : 80,
      "blob_biases" : 169,
      "name" : "sequential\/model\/model_1\/batch_normalization_10\/FusedBatchNormV3_nchw",
      "has_batch_norm" : 0,
      "type" : "convolution",
      "n_groups" : 1,
      "pad_t" : 0,
      "has_biases" : 1,
      "C" : 24,
      "bottom" : "sequential\/model\/model_1\/concatenate_5\/concat",
      "weights" : {

      },
      "Nx" : 3,
      "pad_mode" : 1,
      "pad_value" : 0,
      "Ny" : 3,
      "n_parallel" : 1
    },
    {
      "pad_r" : 0,
      "fused_relu" : 1,
      "fused_tanh" : 0,
      "debug_info" : "sequential\/model\/model_1\/batch_normalization_11\/FusedBatchNormV3_nchw",
      "pad_fill_mode" : 0,
      "pad_b" : 0,
      "pad_l" : 0,
      "top" : "sequential\/model\/model_1\/activation_12\/Relu",
      "blob_weights" : 175,
      "K" : 24,
      "blob_biases" : 173,
      "name" : "sequential\/model\/model_1\/batch_normalization_11\/FusedBatchNormV3_nchw",
      "has_batch_norm" : 0,
      "type" : "convolution",
      "n_groups" : 1,
      "pad_t" : 0,
      "has_biases" : 1,
      "C" : 24,
      "bottom" : "sequential\/model\/model_1\/activation_11\/Relu",
      "weights" : {

      },
      "Nx" : 3,
      "pad_mode" : 1,
      "pad_value" : 0,
      "Ny" : 3,
      "n_parallel" : 1
    },
    {
      "top" : "sequential\/model\/model_1\/up_sampling2d_6\/resize\/ResizeNearestNeighbor_channel_first_resize",
      "use_fractional_scale_factors" : false,
      "weights" : {

      },
      "fractional_scaling_factor_y" : 1,
      "type" : "upsample",
      "scaling_factor_x" : 2,
      "mode" : 0,
      "align_corners" : 0,
      "bottom" : "sequential\/model\/model_1\/activation_12\/Relu",
      "debug_info" : "sequential\/model\/model_1\/up_sampling2d_6\/resize\/ResizeNearestNeighbor_channel_first_resize",
      "fractional_scaling_factor_x" : 1,
      "is_legacy_mode" : 1,
      "name" : "sequential\/model\/model_1\/up_sampling2d_6\/resize\/ResizeNearestNeighbor_channel_first_resize",
      "scaling_factor_y" : 2
    },
    {
      "weights" : {

      },
      "debug_info" : "sequential\/model\/model_1\/concatenate_6\/concat",
      "top" : "sequential\/model\/model_1\/concatenate_6\/concat",
      "type" : "concat",
      "name" : "sequential\/model\/model_1\/concatenate_6\/concat",
      "bottom" : "sequential\/model\/model_1\/up_sampling2d_6\/resize\/ResizeNearestNeighbor_channel_first_resize,sequential\/model\/model_1\/block_1_expand_relu\/Relu6"
    },
    {
      "pad_r" : 0,
      "fused_relu" : 1,
      "fused_tanh" : 0,
      "debug_info" : "sequential\/model\/model_1\/batch_normalization_12\/FusedBatchNormV3_nchw",
      "pad_fill_mode" : 0,
      "pad_b" : 0,
      "pad_l" : 0,
      "top" : "sequential\/model\/model_1\/activation_13\/Relu",
      "blob_weights" : 179,
      "K" : 72,
      "blob_biases" : 177,
      "name" : "sequential\/model\/model_1\/batch_normalization_12\/FusedBatchNormV3_nchw",
      "has_batch_norm" : 0,
      "type" : "convolution",
      "n_groups" : 1,
      "pad_t" : 0,
      "has_biases" : 1,
      "C" : 16,
      "bottom" : "sequential\/model\/model_1\/concatenate_6\/concat",
      "weights" : {

      },
      "Nx" : 3,
      "pad_mode" : 1,
      "pad_value" : 0,
      "Ny" : 3,
      "n_parallel" : 1
    },
    {
      "pad_r" : 0,
      "fused_relu" : 1,
      "fused_tanh" : 0,
      "debug_info" : "sequential\/model\/model_1\/batch_normalization_13\/FusedBatchNormV3_nchw",
      "pad_fill_mode" : 0,
      "pad_b" : 0,
      "pad_l" : 0,
      "top" : "sequential\/model\/model_1\/activation_14\/Relu",
      "blob_weights" : 183,
      "K" : 16,
      "blob_biases" : 181,
      "name" : "sequential\/model\/model_1\/batch_normalization_13\/FusedBatchNormV3_nchw",
      "has_batch_norm" : 0,
      "type" : "convolution",
      "n_groups" : 1,
      "pad_t" : 0,
      "has_biases" : 1,
      "C" : 16,
      "bottom" : "sequential\/model\/model_1\/activation_13\/Relu",
      "weights" : {

      },
      "Nx" : 3,
      "pad_mode" : 1,
      "pad_value" : 0,
      "Ny" : 3,
      "n_parallel" : 1
    },
    {
      "top" : "sequential\/model\/model_1\/up_sampling2d_7\/resize\/ResizeNearestNeighbor_channel_first_resize",
      "use_fractional_scale_factors" : false,
      "weights" : {

      },
      "fractional_scaling_factor_y" : 1,
      "type" : "upsample",
      "scaling_factor_x" : 2,
      "mode" : 0,
      "align_corners" : 0,
      "bottom" : "sequential\/model\/model_1\/activation_14\/Relu",
      "debug_info" : "sequential\/model\/model_1\/up_sampling2d_7\/resize\/ResizeNearestNeighbor_channel_first_resize",
      "fractional_scaling_factor_x" : 1,
      "is_legacy_mode" : 1,
      "name" : "sequential\/model\/model_1\/up_sampling2d_7\/resize\/ResizeNearestNeighbor_channel_first_resize",
      "scaling_factor_y" : 2
    },
    {
      "weights" : {

      },
      "debug_info" : "sequential\/model\/model_1\/concatenate_7\/concat",
      "top" : "sequential\/model\/model_1\/concatenate_7\/concat",
      "type" : "concat",
      "name" : "sequential\/model\/model_1\/concatenate_7\/concat",
      "bottom" : "sequential\/model\/model_1\/up_sampling2d_7\/resize\/ResizeNearestNeighbor_channel_first_resize,sequential\/model\/rescaling\/mul"
    },
    {
      "pad_r" : 0,
      "fused_relu" : 1,
      "fused_tanh" : 0,
      "debug_info" : "sequential\/model\/model_1\/batch_normalization_14\/FusedBatchNormV3_nchw",
      "pad_fill_mode" : 0,
      "pad_b" : 0,
      "pad_l" : 0,
      "top" : "sequential\/model\/model_1\/activation_15\/Relu",
      "blob_weights" : 187,
      "K" : 19,
      "blob_biases" : 185,
      "name" : "sequential\/model\/model_1\/batch_normalization_14\/FusedBatchNormV3_nchw",
      "has_batch_norm" : 0,
      "type" : "convolution",
      "n_groups" : 1,
      "pad_t" : 0,
      "has_biases" : 1,
      "C" : 8,
      "bottom" : "sequential\/model\/model_1\/concatenate_7\/concat",
      "weights" : {

      },
      "Nx" : 3,
      "pad_mode" : 1,
      "pad_value" : 0,
      "Ny" : 3,
      "n_parallel" : 1
    },
    {
      "pad_r" : 0,
      "fused_relu" : 1,
      "fused_tanh" : 0,
      "debug_info" : "sequential\/model\/model_1\/batch_normalization_15\/FusedBatchNormV3_nchw",
      "pad_fill_mode" : 0,
      "pad_b" : 0,
      "pad_l" : 0,
      "top" : "sequential\/model\/model_1\/activation_16\/Relu",
      "blob_weights" : 191,
      "K" : 8,
      "blob_biases" : 189,
      "name" : "sequential\/model\/model_1\/batch_normalization_15\/FusedBatchNormV3_nchw",
      "has_batch_norm" : 0,
      "type" : "convolution",
      "n_groups" : 1,
      "pad_t" : 0,
      "has_biases" : 1,
      "C" : 8,
      "bottom" : "sequential\/model\/model_1\/activation_15\/Relu",
      "weights" : {

      },
      "Nx" : 3,
      "pad_mode" : 1,
      "pad_value" : 0,
      "Ny" : 3,
      "n_parallel" : 1
    },
    {
      "pad_r" : 0,
      "fused_relu" : 0,
      "fused_tanh" : 0,
      "debug_info" : "conv_0",
      "pad_fill_mode" : 0,
      "pad_b" : 0,
      "pad_l" : 0,
      "top" : "conv_0",
      "blob_weights" : 195,
      "K" : 8,
      "blob_biases" : 193,
      "name" : "conv_0",
      "has_batch_norm" : 0,
      "type" : "convolution",
      "n_groups" : 1,
      "pad_t" : 0,
      "has_biases" : 1,
      "C" : 2,
      "bottom" : "sequential\/model\/model_1\/activation_16\/Relu",
      "weights" : {

      },
      "Nx" : 1,
      "pad_mode" : 1,
      "pad_value" : 0,
      "Ny" : 1,
      "n_parallel" : 1
    },
    {
      "axis_h" : 0,
      "axis_w" : 2,
      "bottom" : "conv_0",
      "axis_k" : 1,
      "axis_n" : 3,
      "axis_seq" : 4,
      "weights" : {

      },
      "debug_info" : "transpose_153",
      "top" : "transpose_153",
      "type" : "transpose",
      "name" : "transpose_153"
    },
    {
      "bottom" : "transpose_153",
      "weights" : {

      },
      "mode" : 3,
      "debug_info" : "sequential\/model\/model_1\/activation_17\/Sigmoid",
      "top" : "sequential\/model\/model_1\/activation_17\/Sigmoid",
      "type" : "activation",
      "name" : "sequential\/model\/model_1\/activation_17\/Sigmoid"
    },
    {
      "axis_mode" : 1,
      "bottom" : "sequential\/model\/model_1\/activation_17\/Sigmoid",
      "weights" : {

      },
      "mode" : 0,
      "nd_mode" : true,
      "debug_info" : "sequential\/merge_channels\/Sum",
      "use_version" : 1,
      "top" : "sequential\/merge_channels\/Sum",
      "type" : "reduce",
      "name" : "sequential\/merge_channels\/Sum"
    },
    {
      "bottom" : "",
      "k" : 1,
      "n" : 1,
      "weights" : {

      },
      "h" : 1,
      "debug_info" : "sequential\/max_layer\/Greater",
      "constant_blob" : 197,
      "top" : "sequential\/max_layer\/Greater_load_constant_189",
      "w" : 1,
      "type" : "load_constant",
      "name" : "sequential\/max_layer\/Greater_load_constant_189"
    },
    {
      "bottom" : "sequential\/merge_channels\/Sum,sequential\/max_layer\/Greater_load_constant_189",
      "alpha" : 1,
      "operation" : 105,
      "weights" : {

      },
      "fused_relu" : 0,
      "debug_info" : "sequential\/max_layer\/Greater",
      "top" : "sequential\/max_layer\/Greater",
      "type" : "elementwise",
      "name" : "sequential\/max_layer\/Greater",
      "beta" : 0
    },
    {
      "top" : "sequential\/max_layer\/SelectV2\/t",
      "w" : 1,
      "h" : 1,
      "name" : "sequential\/max_layer\/SelectV2\/t",
      "nd_rank" : 1,
      "type" : "load_constant",
      "k" : 1,
      "bottom" : "",
      "debug_info" : "sequential\/max_layer\/SelectV2\/t",
      "n" : 1,
      "weights" : {

      },
      "constant_blob" : 199
    },
    {
      "top" : "sequential\/max_layer\/SelectV2\/e",
      "w" : 1,
      "h" : 1,
      "name" : "sequential\/max_layer\/SelectV2\/e",
      "nd_rank" : 1,
      "type" : "load_constant",
      "k" : 1,
      "bottom" : "",
      "debug_info" : "sequential\/max_layer\/SelectV2\/e",
      "n" : 1,
      "weights" : {

      },
      "constant_blob" : 201
    },
    {
      "name" : "sequential\/max_layer\/SelectV2",
      "fused_relu" : 0,
      "beta" : 0,
      "operation" : 101,
      "type" : "elementwise",
      "alpha" : 1,
      "attributes" : {
        "is_output" : 1
      },
      "bottom" : "sequential\/max_layer\/Greater,sequential\/max_layer\/SelectV2\/t,sequential\/max_layer\/SelectV2\/e",
      "debug_info" : "sequential\/max_layer\/SelectV2",
      "nd_mode" : true,
      "weights" : {

      },
      "top" : "Identity"
    }
  ],
  "transform_params" : {
    "model_input" : {
      "bias_a" : 0,
      "bias_g" : 0,
      "bias_r" : 0,
      "bias_b" : 0,
      "center_mean" : 0,
      "is_network_bgr" : 0,
      "scale" : 1
    }
  },
  "storage" : "model.espresso.weights",
  "metadata_in_weights" : [

  ],
  "properties" : {

  },
  "analyses" : {

  },
  "format_version" : 200
}